image_classification/src/experiments_outputs/2025_07_01_09_40_25/quantized_models/quantized_model.tflite (tflite, 636632 bytes, 53 tensors)

mobilenet_v2_alpha_0.35/conv2d/Conv2D i1 [16, 3, 3, 3]
-8 -24 -2 -55 -116 -27 20 59
9 -19 -30 -7 -82 -127 -31 26
42 6 -8 2 -5 -27 -14 -5
-1 -19 -3 -57 -121 -20 30 64
6 -2 1 3 -78 -127 -24 37
64 7 0 -4 1 -20 -9 -5
11 3 3 0 -1 1 -86 53
29 -127 68 62 -35 18 21 -61
30 34 -114 43 66 -32 10 8
25 -10 -11 -32 15 24 -57 42
29 0 0 0 0 0 0 0
0 0 0 0 0 0 0 0
0 0 0 0 0 0 0 0
0 0 0 0 -8 -15 -21 -24
-38 -23 -22 -31 -17 -24 -33 -19
-93 -127 -64 -44 -57 -22 -33 -21
-20 -48 -38 -34 -25 -31 -15 100
-33 -62 82 -27 -54 49 -11 -39
127 -33 -92 121 -31 -85 62 -15
-45 42 6 -42 31 0 -22 -3
1 12 0 0 0 0 0 0
0 0 0 0 0 0 0 0
0 0 0 0 0 0 0 0
0 0 0 0 0 0 0 0
0 0 0 0 0 0 0 0
0 0 0 0 0 0 0 0
0 0 0 0 0 0 0 0
0 0 0 0 0 0 0 0
0 0 0 0 0 0 0 0
0 0 0 0 0 0 0 0
0 0 0 0 0 0 0 0
0 0 0 0 0 0 0 0
00000000: f8e8 fec9 8ce5 143b 09ed e2f9 ae81 e11a
00000010: 2a06 f802 fbe5 f2fb ffed fdc7 87ec 1e40
00000020: 06fe 0103 b281 e825 4007 00fc 01ec f7fb
00000030: 0b03 0300 ff01 aa35 1d81 443e dd12 15c3
00000040: 1e22 8e2b 42e0 0a08 19f6 f5e0 0f18 c72a
00000050: 1d00 0000 0000 0000 0000 0000 0000 0000
00000060: 0000 0000 0000 0000 0000 0000 f8f1 ebe8
00000070: dae9 eae1 efe8 dfed a381 c0d4 c7ea dfeb
00000080: ecd0 dade e7e1 f164 dfc2 52e5 ca31 f5d9
00000090: 7fdf a479 e1ab 3ef1 d32a 06d6 1f00 eafd
000000a0: 010c 0000 0000 0000 0000 0000 0000 0000
000000b0: 0000 0000 0000 0000 0000 0000 0000 0000
000000c0: 0000 0000 0000 0000 0000 0000 0000 0000
000000d0: 0000 0000 0000 0000 0000 0000 0000 0000
000000e0: 0000 0000 0000 0000 0000 0000 0000 0000
000000f0: 0000 0000 0000 0000 0000 0000 0000 0000

mobilenet_v2_alpha_0.35/batch_normalization_1/FusedBatchNormV3;mobilenet_v2_alpha_0.35/depthwise_conv2d/depthwise;mobilenet_v2_alpha_0.35/conv2d_11/Conv2D i1 [1, 3, 3, 16]
-1 2 -127 -13 3 30 -18 -58
49 64 -61 -46 -127 -37 -6 72
-1 0 -99 20 -127 -7 -56 -33
95 -39 -127 127 -122 4 -4 93
-1 2 -1 9 5 -1 -16 -14
114 5 -84 90 22 66 5 35
-5 2 13 20 4 127 -42 -2
49 84 -51 -40 -103 -39 -127 117
127 -40 11 127 88 67 -127 -25
65 -34 -33 22 16 1 -72 127
17 -127 17 23 3 -21 -70 -6
96 -17 -80 -50 -54 50 17 39
1 1 84 3 -5 88 -21 -4
107 127 0 -19 -22 127 -84 49
-1 0 41 96 12 57 -45 -68
114 -1 -10 -18 41 14 -65 57
2 -1 36 28 -6 -9 -22 -127
127 -67 -7 -27 2 44 19 1
00000000: ff02 81f3 031e eec6 3140 c3d2 81db fa48
00000010: ff00 9d14 81f9 c8df 5fd9 817f 8604 fc5d
00000020: ff02 ff09 05ff f0f2 7205 ac5a 1642 0523
00000030: fb02 0d14 047f d6fe 3154 cdd8 99d9 8175
00000040: 7fd8 0b7f 5843 81e7 41de df16 1001 b87f
00000050: 1181 1117 03eb bafa 60ef b0ce ca32 1127
00000060: 0101 5403 fb58 ebfc 6b7f 00ed ea7f ac31
00000070: ff00 2960 0c39 d3bc 72ff f6ee 290e bf39
00000080: 02ff 241c faf7 ea81 7fbd f9e5 022c 1301

mobilenet_v2_alpha_0.35/conv2d_1/Conv2D i1 [8, 1, 1, 16]
-1 0 4 -2 -2 0 -2 0
0 0 0 -1 0 0 127 18
6 -12 3 0 9 -127 -1 0
1 0 0 45 0 0 2 -48
-59 -127 -2 -1 2 0 -1 0
-1 0 0 4 0 0 -1 14
38 -35 127 2 49 13 2 0
0 0 0 -35 0 0 10 -24
-127 -93 -6 -1 2 2 -1 0
0 0 0 -8 0 0 3 -8
42 -50 -127 2 65 1 3 0
1 0 0 -59 0 0 9 -29
5 -7 -10 -10 14 127 -12 0
-1 0 0 47 0 0 4 8
-14 14 -3 6 127 5 7 0
1 0 0 -8 0 0 3 8
00000000: ff00 04fe fe00 fe00 0000 00ff 0000 7f12
00000010: 06f4 0300 0981 ff00 0100 002d 0000 02d0
00000020: c581 feff 0200 ff00 ff00 0004 0000 ff0e
00000030: 26dd 7f02 310d 0200 0000 00dd 0000 0ae8
00000040: 81a3 faff 0202 ff00 0000 00f8 0000 03f8
00000050: 2ace 8102 4101 0300 0100 00c5 0000 09e3
00000060: 05f9 f6f6 0e7f f400 ff00 002f 0000 0408
00000070: f20e fd06 7f05 0700 0100 00f8 0000 0308

mobilenet_v2_alpha_0.35/conv2d_2/Conv2D i1 [48, 1, 1, 8]
0 0 0 0 0 0 0 0
-48 25 61 -13 -61 -1 52 -127
-10 0 -127 -13 -122 -7 19 -8
-3 -9 -117 -4 -127 1 3 -4
127 122 54 -1 -68 -31 -19 -107
-15 -30 106 56 -102 127 -42 6
10 32 32 66 -29 43 53 127
3 -3 -109 -2 -127 5 20 -5
-127 60 -34 -15 36 -13 -77 106
5 -15 98 7 127 0 -12 -2
13 -7 22 67 -24 76 24 127
127 -7 0 -7 -1 0 11 0
48 12 58 50 -54 19 20 -127
-4 10 127 -17 125 -14 37 -8
-1 16 28 60 -25 55 23 127
-22 -39 -68 -106 -127 -55 -41 59
0 0 0 0 0 0 0 0
20 10 -30 20 -127 67 44 -32
-2 -20 -25 7 30 -8 -6 127
3 0 85 127 -80 56 -29 -52
-127 18 25 -72 -10 20 -9 20
-6 -20 -127 -77 66 -66 -49 123
22 119 -3 16 0 -10 -127 6
-8 -12 -20 -77 36 -117 16 -127
-37 12 -115 -35 127 -38 -59 104
0 0 0 0 0 0 0 0
52 81 79 55 -127 60 -83 -43
0 0 120 2 127 46 -15 11
-37 -40 68 127 -77 61 63 74
-127 9 2 2 -1 0 -9 -3
-3 -26 -29 -44 21 -64 -55 -127
-22 -20 -127 3 -113 -25 23 -19
00000000: 0000 0000 0000 0000 d019 3df3 c3ff 3481
00000010: f600 81f3 86f9 13f8 fdf7 8bfc 8101 03fc
00000020: 7f7a 36ff bce1 ed95 f1e2 6a38 9a7f d606
00000030: 0a20 2042 e32b 357f 03fd 93fe 8105 14fb
00000040: 813c def1 24f3 b36a 05f1 6207 7f00 f4fe
00000050: 0df9 1643 e84c 187f 7ff9 00f9 ff00 0b00
00000060: 300c 3a32 ca13 1481 fc0a 7fef 7df2 25f8
00000070: ff10 1c3c e737 177f ead9 bc96 81c9 d73b
00000080: 0000 0000 0000 0000 140a e214 8143 2ce0
00000090: feec e707 1ef8 fa7f 0300 557f b038 e3cc
000000a0: 8112 19b8 f614 f714 faec 81b3 42be cf7b
000000b0: 1677 fd10 00f6 8106 f8f4 ecb3 248b 1081
000000c0: db0c 8ddd 7fda c568 0000 0000 0000 0000
000000d0: 3451 4f37 813c add5 0000 7802 7f2e f10b
000000e0: dbd8 447f b33d 3f4a 8109 0202 ff00 f7fd
000000f0: fde6 e3d4 15c0 c981 eaec 8103 8fe7 17ed

mobilenet_v2_alpha_0.35/batch_normalization_4/FusedBatchNormV3;mobilenet_v2_alpha_0.35/depthwise_conv2d_1/depthwise;mobilenet_v2_alpha_0.35/depthwise_conv2d_3/depthwise i1 [1, 3, 3, 48]
-3 -38 5 -101 6 -105 -78 -41
-17 18 29 -48 -10 119 -6 -106
38 49 -43 -63 -6 -101 -113 37
11 25 -25 -127 33 -127 48 -53
7 127 56 -38 -90 99 -86 -71
-87 -94 -57 -30 90 75 49 -21
68 5 104 -118 33 91 -127 -52
13 4 47 75 89 121 -65 -102
43 61 -66 -127 47 -28 56 100
101 43 -109 69 81 19 94 -17
117 56 7 -127 -94 108 -120 -53
95 -6 105 -42 127 -89 55 7
33 19 -16 -14 66 97 -73 -112
41 -5 22 113 -76 7 0 0
45 43 -52 17 -68 127 127 29
-117 -20 -89 -6 20 107 39 1
-96 1 48 -34 -46 -8 -8 127
-3 108 119 8 44 15 -2 8
30 -16 0 -103 -28 -119 59 -75
-43 87 18 -2 -31 127 52 -127
55 48 27 -31 -72 -72 -74 -55
6 30 -2 118 -66 -19 21 127
-45 51 -59 2 -103 116 -100 -55
-106 46 -58 -82 -93 112 9 -36
79 127 -127 -127 59 127 110 -51
127 -127 -5 7 127 127 127 -106
82 64 103 -125 55 -27 19 -127
127 99 -3 -69 -127 35 0 29
107 -2 -127 -4 -127 127 -127 -44
127 71 114 91 8 -127 66 127
55 97 19 -11 4 122 49 -127
82 21 14 16 -99 6 51 2
00000000: fdda 059b 0697 b2d7 ef12 1dd0 f677 fa96
00000010: 2631 d5c1 fa9b 8f25 0b19 e781 2181 30cb
00000020: 077f 38da a663 aab9 a9a2 c7e2 5a4b 31eb
00000030: 4405 688a 215b 81cc 0d04 2f4b 5979 bf9a
00000040: 2b3d be81 2fe4 3864 652b 9345 5113 5eef
00000050: 7538 0781 a26c 88cb 5ffa 69d6 7fa7 3707
00000060: 2113 f0f2 4261 b790 29fb 1671 b407 0000
00000070: 2d2b cc11 bc7f 7f1d 8bec a7fa 146b 2701
00000080: a001 30de d2f8 f87f fd6c 7708 2c0f fe08
00000090: 1ef0 0099 e489 3bb5 d557 12fe e17f 3481
000000a0: 3730 1be1 b8b8 b6c9 061e fe76 beed 157f
000000b0: d333 c502 9974 9cc9 962e c6ae a370 09dc
000000c0: 4f7f 8181 3b7f 6ecd 7f81 fb07 7f7f 7f96
000000d0: 5240 6783 37e5 1381 7f63 fdbb 8123 001d
000000e0: 6bfe 81fc 817f 81d4 7f47 725b 0881 427f
000000f0: 3761 13f5 047a 3181 5215 0e10 9d06 3302

mobilenet_v2_alpha_0.35/conv2d_3/Conv2D i1 [8, 1, 1, 48]
0 -2 6 -2 26 -14 -15 22
36 5 1 -34 -73 -9 2 -4
0 2 -15 -37 13 -12 122 -3
39 0 -22 6 0 47 -22 6
31 1 -16 20 -3 -9 13 0
-119 -127 31 99 -22 -125 18 -18
0 -5 -105 18 2 3 -19 8
-2 -98 1 3 0 -41 -42 47
0 -37 0 -8 13 21 -2 -20
-10 0 12 -112 26 5 1 -127
42 5 -1 3 11 -17 27 -3
9 3 12 -9 -17 3 -82 3
0 -12 2 3 27 18 -30 -8
-17 2 60 104 -1 2 6 2
0 14 -9 -86 -48 23 18 -6
12 0 -30 -4 -11 -127 -56 0
-74 -9 -22 41 2 -3 -2 -10
10 -37 -25 15 -47 13 -1 -18
0 -35 -12 -4 8 -40 55 9
-21 1 -84 66 -12 -9 -12 5
0 -20 37 127 -31 -46 31 9
-2 0 -41 -6 21 -72 91 -5
-67 -25 51 -69 -3 -4 5 28
-7 -49 -15 33 38 -16 -7 -4
0 24 -42 -104 19 23 -21 -73
17 -25 -11 5 -11 111 -16 -60
0 81 5 1 15 24 4 -50
-4 0 -23 -33 94 4 33 -43
-36 -3 -73 -10 -119 127 -96 -8
5 3 12 10 -32 17 -12 -2
0 2 4 1 -22 0 2 16
-18 8 -5 40 -43 -4 -6 -8
00000000: 00fe 06fe 1af2 f116 2405 01de b7f7 02fc
00000010: 0002 f1db 0df4 7afd 2700 ea06 002f ea06
00000020: 1f01 f014 fdf7 0d00 8981 1f63 ea83 12ee
00000030: 00fb 9712 0203 ed08 fe9e 0103 00d7 d62f
00000040: 00db 00f8 0d15 feec f600 0c90 1a05 0181
00000050: 2a05 ff03 0bef 1bfd 0903 0cf7 ef03 ae03
00000060: 00f4 0203 1b12 e2f8 ef02 3c68 ff02 0602
00000070: 000e f7aa d017 12fa 0c00 e2fc f581 c800
00000080: b6f7 ea29 02fd fef6 0adb e70f d10d ffee
00000090: 00dd f4fc 08d8 3709 eb01 ac42 f4f7 f405
000000a0: 00ec 257f e1d2 1f09 fe00 d7fa 15b8 5bfb
000000b0: bde7 33bb fdfc 051c f9cf f121 26f0 f9fc
000000c0: 0018 d698 1317 ebb7 11e7 f505 f56f f0c4
000000d0: 0051 0501 0f18 04ce fc00 e9df 5e04 21d5
000000e0: dcfd b7f6 897f a0f8 0503 0c0a e011 f4fe
000000f0: 0002 0401 ea00 0210 ee08 fb28 d5fc faf8

mobilenet_v2_alpha_0.35/conv2d_4/Conv2D i1 [48, 1, 1, 8]
-127 -36 -58 -85 28 96 -15 33
-1 -68 50 -50 -18 -7 -127 -33
0 0 0 0 0 0 0 0
-127 12 63 -3 -41 -111 15 -4
-37 -31 -42 98 -60 -26 -127 -18
-120 10 33 -28 11 127 4 12
-29 3 -92 127 -22 -8 21 -10
-92 50 34 32 -43 127 5 -33
15 114 74 -30 37 0 127 -6
23 -1 97 127 -14 -4 6 -21
-9 7 -127 -74 4 22 -4 10
35 -10 38 21 -19 14 1 127
-127 33 46 25 -26 110 -3 13
-29 -24 47 22 -5 -46 24 127
-127 -60 -11 -22 -70 -92 91 -25
6 6 -91 51 -20 11 127 27
-5 127 2 7 20 2 -26 12
-69 -3 8 16 -50 -66 -1 127
16 -14 56 -107 -63 -7 -127 5
-10 -125 38 -86 -73 3 -127 4
6 -42 96 -127 -10 16 -114 10
20 -100 11 -15 127 23 -35 -70
111 -67 -41 5 -99 127 -120 38
-127 59 2 -13 -14 -79 7 -44
10 50 0 -4 37 1 127 15
-29 10 10 -7 -37 -10 19 -127
85 11 107 107 -36 -127 24 -29
127 1 20 15 -10 118 4 70
-11 -24 6 10 8 -36 -13 127
42 127 91 -93 -50 -14 102 51
10 -42 32 -127 -38 -5 -109 -11
-3 -3 127 79 13 2 2 -9
00000000: 81dc c6ab 1c60 f121 ffbc 32ce eef9 81df
00000010: 0000 0000 0000 0000 810c 3ffd d791 0ffc
00000020: dbe1 d662 c4e6 81ee 880a 21e4 0b7f 040c
00000030: e303 a47f eaf8 15f6 a432 2220 d57f 05df
00000040: 0f72 4ae2 2500 7ffa 17ff 617f f2fc 06eb
00000050: f707 81b6 0416 fc0a 23f6 2615 ed0e 017f
00000060: 8121 2e19 e66e fd0d e3e8 2f16 fbd2 187f
00000070: 81c4 f5ea baa4 5be7 0606 a533 ec0b 7f1b
00000080: fb7f 0207 1402 e60c bbfd 0810 cebe ff7f
00000090: 10f2 3895 c1f9 8105 f683 26aa b703 8104
000000a0: 06d6 6081 f610 8e0a 149c 0bf1 7f17 ddba
000000b0: 6fbd d705 9d7f 8826 813b 02f3 f2b1 07d4
000000c0: 0a32 00fc 2501 7f0f e30a 0af9 dbf6 1381
000000d0: 550b 6b6b dc81 18e3 7f01 140f f676 0446
000000e0: f5e8 060a 08dc f37f 2a7f 5ba3 cef2 6633
000000f0: 0ad6 2081 dafb 93f5 fdfd 7f4f 0d02 02f7

mobilenet_v2_alpha_0.35/batch_normalization_7/FusedBatchNormV3;mobilenet_v2_alpha_0.35/depthwise_conv2d_2/depthwise;mobilenet_v2_alpha_0.35/depthwise_conv2d_3/depthwise i1 [1, 3, 3, 48]
-60 -78 127 1 8 -8 -17 0
4 -26 -46 -13 79 7 2 -28
-6 -4 18 -17 127 -8 15 4
0 -9 -6 2 -1 3 -48 -32
-22 4 4 7 -1 3 6 -10
-8 3 12 -42 -10 -118 -81 -23
-112 -127 92 -66 37 -102 45 -21
-3 32 127 -3 127 -13 -52 76
4 12 -127 -84 -18 -20 0 3
25 -3 -38 6 -66 -14 -127 -62
26 -24 -8 -42 9 -127 93 -5
-49 -39 -45 -96 0 106 13 5
-8 -31 107 -2 -1 45 -20 45
1 -2 -85 0 25 -11 3 -48
2 -13 30 -27 -73 -6 21 0
-2 2 56 1 -7 5 -16 21
3 -7 0 12 20 3 -43 8
0 -114 20 -82 8 3 0 -10
76 45 13 -7 -17 41 -13 0
-26 -104 -77 114 -71 -86 -25 56
19 -47 7 127 -92 -21 121 -19
14 127 25 1 -45 34 106 69
-118 -32 4 15 30 8 -43 -85
3 -11 -22 27 -127 127 -127 -45
127 124 48 127 -127 127 127 -127
127 127 -6 -127 -117 127 127 -127
-127 127 -89 16 -13 127 -95 -127
127 -52 -123 -127 127 -127 -100 127
127 -42 127 -19 127 119 -124 127
127 -97 -28 127 112 -105 118 -34
13 25 62 -14 7 -123 -31 107
-93 -22 63 10 -11 0 -21 65
00000000: c4b2 7f01 08f8 ef00 04e6 d2f3 4f07 02e4
00000010: fafc 12ef 7ff8 0f04 00f7 fa02 ff03 d0e0
00000020: ea04 0407 ff03 06f6 f803 0cd6 f68a afe9
00000030: 9081 5cbe 259a 2deb fd20 7ffd 7ff3 cc4c
00000040: 040c 81ac eeec 0003 19fd da06 bef2 81c2
00000050: 1ae8 f8d6 0981 5dfb cfd9 d3a0 006a 0d05
00000060: f8e1 6bfe ff2d ec2d 01fe ab00 19f5 03d0
00000070: 02f3 1ee5 b7fa 1500 fe02 3801 f905 f015
00000080: 03f9 000c 1403 d508 008e 14ae 0803 00f6
00000090: 4c2d 0df9 ef29 f300 e698 b372 b9aa e738
000000a0: 13d1 077f a4eb 79ed 0e7f 1901 d322 6a45
000000b0: 8ae0 040f 1e08 d5ab 03f5 ea1b 817f 81d3
000000c0: 7f7c 307f 817f 7f81 7f7f fa81 8b7f 7f81
000000d0: 817f a710 f37f a181 7fcc 8581 7f81 9c7f
000000e0: 7fd6 7fed 7f77 847f 7f9f e47f 7097 76de
000000f0: 0d19 3ef2 0785 e16b a3ea 3f0a f500 eb41

mobilenet_v2_alpha_0.35/conv2d_5/Conv2D i1 [8, 1, 1, 48]
-13 -10 0 -86 -12 -127 -15 -13
7 0 37 22 5 1 69 -13
-6 -47 15 10 -9 -68 14 77
-10 -64 -56 40 -35 -1 -18 -16
-2 21 -57 31 -25 -2 108 -36
48 0 -2 -11 -54 1 -23 -38
23 19 0 -56 19 -10 -13 67
-72 51 8 37 31 -45 30 -70
-127 35 -1 25 27 -102 2 -15
-34 -4 23 -45 -23 -27 -19 -12
-65 12 18 35 37 2 -40 38
-51 0 -47 38 1 -22 0 9
-5 -2 0 14 11 13 -36 2
1 19 114 46 14 14 27 13
-21 22 -17 -1 -6 -22 16 -16
16 -50 5 -13 20 14 -100 127
6 68 -10 52 63 6 -17 12
-12 0 50 -87 -64 20 12 -72
-19 21 0 -30 -2 5 57 38
-20 10 111 -50 14 -12 -12 -15
-15 0 23 -16 -17 -1 6 10
-12 74 -19 -15 -22 -6 127 107
-6 -86 24 -83 38 -4 27 -5
45 0 -65 -61 88 7 -37 92
-28 -26 0 -34 -40 -35 -12 49
-49 27 -6 26 -36 -55 78 -53
56 22 12 17 104 68 -34 -5
-30 -2 39 -100 36 -49 5 17
-62 36 52 100 9 -63 -21 40
-2 0 -127 10 18 -54 12 -14
43 -15 0 -75 -19 127 -14 -43
8 -33 -14 -14 -5 -20 30 -25
00000000: f3f6 00aa f481 f1f3 0700 2516 0501 45f3
00000010: fad1 0f0a f7bc 0e4d f6c0 c828 ddff eef0
00000020: fe15 c71f e7fe 6cdc 3000 fef5 ca01 e9da
00000030: 1713 00c8 13f6 f343 b833 0825 1fd3 1eba
00000040: 8123 ff19 1b9a 02f1 defc 17d3 e9e5 edf4
00000050: bf0c 1223 2502 d826 cd00 d126 01ea 0009
00000060: fbfe 000e 0b0d dc02 0113 722e 0e0e 1b0d
00000070: eb16 efff faea 10f0 10ce 05f3 140e 9c7f
00000080: 0644 f634 3f06 ef0c f400 32a9 c014 0cb8
00000090: ed15 00e2 fe05 3926 ec0a 6fce 0ef4 f4f1
000000a0: f100 17f0 efff 060a f44a edf1 eafa 7f6b
000000b0: faaa 18ad 26fc 1bfb 2d00 bfc3 5807 db5c
000000c0: e4e6 00de d8dd f431 cf1b fa1a dcc9 4ecb
000000d0: 3816 0c11 6844 defb e2fe 279c 24cf 0511
000000e0: c224 3464 09c1 eb28 fe00 810a 12ca 0cf2
000000f0: 2bf1 00b5 ed7f f2d5 08df f2f2 fbec 1ee7

mobilenet_v2_alpha_0.35/conv2d_6/Conv2D i1 [48, 1, 1, 8]
79 -23 127 126 9 -75 4 -5
5 -127 3 -5 14 12 -1 -9
-114 20 -113 -15 -14 127 -8 12
-16 -11 127 76 -11 29 7 -4
127 -5 6 43 39 -125 -13 14
21 30 -58 127 90 23 -13 -103
2 71 -24 85 -86 34 127 -31
20 -30 41 -127 41 -80 -109 24
-15 -32 -70 127 -98 -25 27 76
25 2 -127 -100 -6 -19 -3 -1
2 59 -17 2 53 17 127 -4
-5 -36 -9 -63 127 -100 -58 69
-124 -32 -16 -30 -5 127 6 14
117 39 6 36 110 118 -43 127
-106 3 10 0 -1 127 -10 15
-36 -127 -16 -20 -126 -44 -1 123
-46 108 -20 9 127 -126 -28 110
-62 -99 17 -47 127 -68 -12 65
-33 -36 -127 121 -13 -37 -34 -2
57 99 -18 49 -127 48 10 -47
40 29 42 -127 72 -5 -14 -43
-17 9 22 127 -10 16 8 -15
-127 15 -4 -75 -3 126 -17 45
16 15 31 -127 -8 6 -27 -13
127 -16 -54 28 0 -124 13 -17
-84 -34 33 -18 -30 -127 19 1
56 37 25 -127 32 -17 -17 9
-15 18 12 1 -32 -47 -127 13
50 55 -71 127 -43 62 125 -76
-13 -60 -90 127 54 -110 -71 28
-5 7 49 -127 35 4 1 55
-127 25 -30 -40 14 116 -5 12
00000000: 4fe9 7f7e 09b5 04fb 0581 03fb 0e0c fff7
00000010: 8e14 8ff1 f27f f80c f0f5 7f4c f51d 07fc
00000020: 7ffb 062b 2783 f30e 151e c67f 5a17 f399
00000030: 0247 e855 aa22 7fe1 14e2 2981 29b0 9318
00000040: f1e0 ba7f 9ee7 1b4c 1902 819c faed fdff
00000050: 023b ef02 3511 7ffc fbdc f7c1 7f9c c645
00000060: 84e0 f0e2 fb7f 060e 7527 0624 6e76 d57f
00000070: 9603 0a00 ff7f f60f dc81 f0ec 82d4 ff7b
00000080: d26c ec09 7f82 e46e c29d 11d1 7fbc f441
00000090: dfdc 8179 f3db defe 3963 ee31 8130 0ad1
000000a0: 281d 2a81 48fb f2d5 ef09 167f f610 08f1
000000b0: 810f fcb5 fd7e ef2d 100f 1f81 f806 e5f3
000000c0: 7ff0 ca1c 0084 0def acde 21ee e281 1301
000000d0: 3825 1981 20ef ef09 f112 0c01 e0d1 810d
000000e0: 3237 b97f d53e 7db4 f3c4 a67f 3692 b91c
000000f0: fb07 3181 2304 0137 8119 e2d8 0e74 fb0c

mobilenet_v2_alpha_0.35/batch_normalization_10/FusedBatchNormV3;mobilenet_v2_alpha_0.35/depthwise_conv2d_3/depthwise i1 [1, 3, 3, 48]
91 60 -55 -51 -111 67 -63 -50
45 60 -65 91 22 52 29 -85
-63 51 -80 23 30 -20 82 -116
64 -54 117 50 45 -46 -94 22
-55 110 63 57 -38 63 -68 59
-40 71 -82 87 -56 34 -66 53
123 92 -85 -75 127 66 119 -122
83 92 -84 108 127 76 78 -91
-82 100 -11 -79 74 -45 26 -127
78 -76 38 82 84 -127 32 -108
-95 84 94 78 -58 82 -104 81
-78 93 -103 -33 -78 -74 -92 74
51 38 -41 -40 106 11 16 -9
42 52 -39 53 88 33 45 -36
-39 67 72 63 49 -36 -82 -65
38 -25 -127 32 53 -98 104 -12
-50 -24 41 35 -30 28 -50 34
-55 45 -52 -53 -35 -62 -39 27
93 93 -86 -101 122 79 98 127
80 96 -91 18 -92 90 70 -78
-95 69 -127 50 79 -62 19 -3
97 -105 -17 85 82 30 -123 127
-93 99 96 84 -75 89 -100 91
-75 94 -102 127 -85 90 -96 86
127 127 -127 -127 117 127 -127 -43
127 127 -127 -12 -115 127 127 -127
-127 127 18 -127 127 -127 127 25
127 -127 13 127 127 30 8 -108
-127 -83 127 127 -127 127 -127 127
-127 127 -127 -65 -127 127 -127 127
71 58 -83 -54 -60 54 -16 -72
58 66 -61 -30 60 52 70 -68
00000000: 5b3c c9cd 9143 c1ce 2d3c bf5b 1634 1dab
00000010: c133 b017 1eec 528c 40ca 7532 2dd2 a216
00000020: c96e 3f39 da3f bc3b d847 ae57 c822 be35
00000030: 7b5c abb5 7f42 7786 535c ac6c 7f4c 4ea5
00000040: ae64 f5b1 4ad3 1a81 4eb4 2652 5481 2094
00000050: a154 5e4e c652 9851 b25d 99df b2b6 a44a
00000060: 3326 d7d8 6a0b 10f7 2a34 d935 5821 2ddc
00000070: d943 483f 31dc aebf 26e7 8120 359e 68f4
00000080: cee8 2923 e21c ce22 c92d cccb ddc2 d91b
00000090: 5d5d aa9b 7a4f 627f 5060 a512 a45a 46b2
000000a0: a145 8132 4fc2 13fd 6197 ef55 521e 857f
000000b0: a363 6054 b559 9c5b b55e 9a7f ab5a a056
000000c0: 7f7f 8181 757f 81d5 7f7f 81f4 8d7f 7f81
000000d0: 817f 1281 7f81 7f19 7f81 0d7f 7f1e 0894
000000e0: 81ad 7f7f 817f 817f 817f 81bf 817f 817f
000000f0: 473a adca c436 f0b8 3a42 c3e2 3c34 46bc

mobilenet_v2_alpha_0.35/conv2d_7/Conv2D i1 [16, 1, 1, 48]
4 127 -19 1 -2 -62 -5 1
40 -9 4 -6 -4 -6 8 -50
26 31 -2 4 -53 16 -5 -14
-11 -27 14 -5 21 -18 -12 -1
-19 -10 2 57 -15 21 8 24
-11 19 2 24 8 -8 25 -14
4 -70 -41 28 20 4 -29 -37
-9 19 6 -99 -23 -113 24 33
0 81 65 54 -58 43 -21 24
-112 55 11 -9 -14 -52 89 14
22 18 33 -42 -55 -36 -49 51
50 17 8 83 59 -33 -56 -127
28 -15 10 -21 7 -13 -6 -2
-15 -127 -6 -16 13 -5 -22 -3
1 6 10 2 -1 3 18 -3
93 -1 -1 -15 0 -8 1 16
-30 3 38 7 31 -28 17 4
-34 -82 9 4 -87 0 -9 -8
-8 49 -3 16 -5 -50 0 11
-127 9 -25 -5 -17 28 -1 12
2 18 -3 -4 90 22 -15 4
-26 1 2 -49 -7 -7 4 -4
1 -1 45 57 -16 -7 25 -24
41 4 20 4 17 4 -25 -5
-39 -19 -1 -17 9 -10 -4 13
11 -1 37 -30 -12 -45 -1 -3
-6 20 67 11 -31 -56 -1 -53
80 21 28 46 11 -9 38 27
31 24 127 17 -13 2 31 -32
-16 -57 9 8 84 -10 -37 -65
-12 -12 49 -11 -8 -3 -6 9
13 0 -4 13 -2 -8 -127 5
00000000: 047f ed01 fec2 fb01 28f7 04fa fcfa 08ce
00000010: 1a1f fe04 cb10 fbf2 f5e5 0efb 15ee f4ff
00000020: edf6 0239 f115 0818 f513 0218 08f8 19f2
00000030: 04ba d71c 1404 e3db f713 069d e98f 1821
00000040: 0051 4136 c62b eb18 9037 0bf7 f2cc 590e
00000050: 1612 21d6 c9dc cf33 3211 0853 3bdf c881
00000060: 1cf1 0aeb 07f3 fafe f181 faf0 0dfb eafd
00000070: 0106 0a02 ff03 12fd 5dff fff1 00f8 0110
00000080: e203 2607 1fe4 1104 deae 0904 a900 f7f8
00000090: f831 fd10 fbce 000b 8109 e7fb ef1c ff0c
000000a0: 0212 fdfc 5a16 f104 e601 02cf f9f9 04fc
000000b0: 01ff 2d39 f0f9 19e8 2904 1404 1104 e7fb
000000c0: d9ed ffef 09f6 fc0d 0bff 25e2 f4d3 fffd
000000d0: fa14 430b e1c8 ffcb 5015 1c2e 0bf7 261b
000000e0: 1f18 7f11 f302 1fe0 f0c7 0908 54f6 dbbf
000000f0: f4f4 31f5 f8fd fa09 0d00 fc0d fef8 8105

mobilenet_v2_alpha_0.35/conv2d_8/Conv2D i1 [96, 1, 1, 16]
-7 18 46 -1 28 -127 10 0
-17 -42 78 3 28 61 30 -32
-37 29 -127 -35 17 -7 -8 9
67 -70 -28 33 6 -37 -43 -35
-104 -127 -86 -114 122 -4 51 68
-43 96 -26 67 19 -14 -7 -47
-30 -43 -7 52 -5 10 -17 -10
1 -25 18 127 -46 8 0 34
-78 -2 13 -47 -7 -8 -40 15
127 72 41 44 -61 75 -3 100
9 0 0 75 -127 2 -76 -71
16 27 80 -70 -43 -33 -7 -4
17 5 -99 127 58 -40 -43 9
18 -48 95 4 43 9 62 -18
22 28 -59 47 -67 127 -3 23
-103 21 -56 -3 44 48 66 56
22 -29 57 -22 80 127 -4 22
-15 -53 50 3 -7 -32 -20 9
28 79 -4 69 -113 -2 -27 -21
15 -58 95 -107 -64 13 -127 -35
9 -19 61 124 -36 -29 -78 38
30 63 -127 -42 3 16 -26 0
70 -33 26 -3 -33 -18 98 3
19 -39 -6 -9 -20 1 127 86
10 58 41 -36 -127 -75 0 79
10 -14 4 9 16 24 -24 3
-97 48 30 -10 28 5 -60 -1
21 27 -3 -2 -5 4 -12 -127
41 0 -9 -27 127 124 -10 89
-48 -92 39 14 38 20 44 27
0 -60 -106 -107 125 -83 43 72
-69 50 -83 127 40 9 85 -45
00000000: f912 2eff 1c81 0a00 efd6 4e03 1c3d 1ee0
00000010: db1d 81dd 11f9 f809 43ba e421 06db d5dd
00000020: 9881 aa8e 7afc 3344 d560 e643 13f2 f9d1
00000030: e2d5 f934 fb0a eff6 01e7 127f d208 0022
00000040: b2fe 0dd1 f9f8 d80f 7f48 292c c34b fd64
00000050: 0900 004b 8102 b4b9 101b 50ba d5df f9fc
00000060: 1105 9d7f 3ad8 d509 12d0 5f04 2b09 3eee
00000070: 161c c52f bd7f fd17 9915 c8fd 2c30 4238
00000080: 16e3 39ea 507f fc16 f1cb 3203 f9e0 ec09
00000090: 1c4f fc45 8ffe e5eb 0fc6 5f95 c00d 81dd
000000a0: 09ed 3d7c dce3 b226 1e3f 81d6 0310 e600
000000b0: 46df 1afd dfee 6203 13d9 faf7 ec01 7f56
000000c0: 0a3a 29dc 81b5 004f 0af2 0409 1018 e803
000000d0: 9f30 1ef6 1c05 c4ff 151b fdfe fb04 f481
000000e0: 2900 f7e5 7f7c f659 d0a4 270e 2614 2c1b
000000f0: 00c4 9695 7dad 2b48 bb32 ad7f 2809 55d3

mobilenet_v2_alpha_0.35/batch_normalization_13/FusedBatchNormV3;mobilenet_v2_alpha_0.35/depthwise_conv2d_4/depthwise;mobilenet_v2_alpha_0.35/depthwise_conv2d_6/depthwise i1 [1, 3, 3, 96]
57 3 49 -6 1 59 4 31
-47 28 -127 3 -54 9 -1 -127
-13 39 24 43 13 -4 19 30
11 39 6 -3 -49 5 7 12
-6 9 1 -5 -14 16 -5 -85
-34 -26 56 25 13 -32 -2 -43
14 13 25 -2 47 0 15 -23
-14 2 -2 6 -16 -12 -11 43
1 -10 -21 -8 8 1 -4 56
4 -31 14 -5 -19 9 16 -10
127 -45 -6 14 -4 -11 -41 -30
-94 39 -60 1 -45 34 -4 26
127 -127 127 21 -127 41 22 11
-45 127 11 -5 -58 13 20 102
-8 -21 58 -41 127 -24 -8 19
-33 127 -6 26 -127 17 1 13
-53 -20 -33 17 -17 0 9 18
40 -110 14 -24 104 -20 24 -62
-25 -8 51 -127 34 127 18 -72
-32 106 5 13 -127 -127 -127 23
87 -48 -111 29 -9 23 -4 127
-127 -7 26 -44 -82 -7 -61 -6
85 34 -19 -22 20 -11 29 44
23 -48 -121 -57 -50 34 75 -8
4 16 14 0 -18 -13 0 -7
-28 24 -122 -1 -34 -3 8 29
-11 17 5 -14 1 -10 -12 -16
17 11 24 -2 15 -13 17 3
8 5 -7 7 36 19 -20 -85
-2 71 -47 -10 -47 40 -5 -25
15 16 42 1 33 -26 9 20
-5 -69 -6 -2 -6 14 -10 5
00000000: 3903 31fa 013b 041f d11c 8103 ca09 ff81
00000010: f327 182b 0dfc 131e 0b27 06fd cf05 070c
00000020: fa09 01fb f210 fbab dee6 3819 0de0 fed5
00000030: 0e0d 19fe 2f00 0fe9 f202 fe06 f0f4 f52b
00000040: 01f6 ebf8 0801 fc38 04e1 0efb ed09 10f6
00000050: 7fd3 fa0e fcf5 d7e2 a227 c401 d322 fc1a
00000060: 7f81 7f15 8129 160b d37f 0bfb c60d 1466
00000070: f8eb 3ad7 7fe8 f813 df7f fa1a 8111 010d
00000080: cbec df11 ef00 0912 2892 0ee8 68ec 18c2
00000090: e7f8 3381 227f 12b8 e06a 050d 8181 8117
000000a0: 57d0 911d f717 fc7f 81f9 1ad4 aef9 c3fa
000000b0: 5522 edea 14f5 1d2c 17d0 87c7 ce22 4bf8
000000c0: 0410 0e00 eef3 00f9 e418 86ff defd 081d
000000d0: f511 05f2 01f6 f4f0 110b 18fe 0ff3 1103
000000e0: 0805 f907 2413 ecab fe47 d1f6 d128 fbe7
000000f0: 0f10 2a01 21e6 0914 fbbb fafe fa0e f605

mobilenet_v2_alpha_0.35/conv2d_9/Conv2D i1 [16, 1, 1, 96]
-13 -2 -87 32 0 -50 14 1
-9 -65 -17 9 -48 6 7 23
-60 -26 -8 -11 19 32 -17 -32
-18 -43 -3 11 -42 -22 -39 -29
-77 -8 26 16 4 30 26 -29
18 8 9 -2 -29 38 -23 -25
63 15 -6 -38 -3 112 72 -66
-19 -49 2 -19 22 9 -7 8
-17 26 -24 30 43 -6 -65 -18
-28 10 -46 5 -30 -43 -127 41
24 -8 -2 12 -11 20 26 -63
19 -47 24 5 -19 3 -24 29
-32 27 4 -23 -1 48 67 -33
5 16 2 35 -1 46 -17 13
0 -17 -11 92 -73 11 127 99
11 -39 91 15 -40 17 -18 27
-82 -73 -16 -10 54 -15 23 -67
2 -8 19 81 62 61 -3 6
25 24 9 23 -47 -60 -35 13
59 39 29 52 -21 -82 -88 11
33 -25 -8 52 99 77 -9 -22
-35 7 2 34 -40 18 44 18
57 18 113 -6 37 80 11 -35
50 -5 -87 -38 -1 -43 23 111
26 -16 13 29 50 9 -16 48
4 19 11 -12 18 -30 -20 18
-14 0 48 13 41 -15 48 12
-19 35 -77 -122 11 -28 39 48
11 40 14 59 26 59 32 -70
7 27 -34 -9 29 25 27 -95
38 3 -47 33 20 -28 20 13
31 14 7 -31 54 -1 -66 11
00000000: f3fe a920 00ce 0e01 f7bf ef09 d006 0717
00000010: c4e6 f8f5 1320 efe0 eed5 fd0b d6ea d9e3
00000020: b3f8 1a10 041e 1ae3 1208 09fe e326 e9e7
00000030: 3f0f fada fd70 48be edcf 02ed 1609 f908
00000040: ef1a e81e 2bfa bfee e40a d205 e2d5 8129
00000050: 18f8 fe0c f514 1ac1 13d1 1805 ed03 e81d
00000060: e01b 04e9 ff30 43df 0510 0223 ff2e ef0d
00000070: 00ef f55c b70b 7f63 0bd9 5b0f d811 ee1b
00000080: aeb7 f0f6 36f1 17bd 02f8 1351 3e3d fd06
00000090: 1918 0917 d1c4 dd0d 3b27 1d34 ebae a80b
000000a0: 21e7 f834 634d f7ea dd07 0222 d812 2c12
000000b0: 3912 71fa 2550 0bdd 32fb a9da ffd5 176f
000000c0: 1af0 0d1d 3209 f030 0413 0bf4 12e2 ec12
000000d0: f200 300d 29f1 300c ed23 b386 0be4 2730
000000e0: 0b28 0e3b 1a3b 20ba 071b def7 1d19 1ba1
000000f0: 2603 d121 14e4 140d 1f0e 07e1 36ff be0b

mobilenet_v2_alpha_0.35/conv2d_10/Conv2D i1 [96, 1, 1, 16]
1 -34 -85 -104 -105 2 -84 7
-58 -19 -25 95 -22 37 127 -88
59 -1 53 41 -33 -61 75 27
-29 21 44 93 42 -43 -113 127
-60 9 8 79 29 -52 -12 -45
99 37 2 9 -127 -27 23 117
52 -26 35 -127 13 10 46 30
-89 -44 -56 100 68 -7 52 -26
-2 -45 -12 -61 34 -127 37 0
19 -17 70 1 -13 3 4 -20
-28 8 -2 -13 -7 92 14 -127
6 -27 -30 -10 8 -44 -36 -6
-81 -4 127 -48 114 89 -28 -19
54 -65 -84 21 -87 -57 4 -88
-80 66 58 57 -52 33 -61 -22
-52 107 -28 103 -24 -25 -127 -97
61 12 28 -15 -17 68 -16 -16
127 12 72 14 -5 46 -26 -22
-23 -78 84 14 34 39 -6 -127
7 30 -22 -11 -31 -24 13 -11
16 -39 -2 38 21 127 -11 -108
4 -36 17 -22 1 -55 7 0
42 38 19 127 -7 -42 -49 32
5 -3 5 -9 2 43 24 -49
-126 71 -25 34 74 -37 3 8
73 -37 37 116 -127 -38 92 90
-24 -7 10 4 -59 -127 -13 57
47 32 -11 21 9 51 10 -38
-127 -9 -3 35 15 6 17 12
14 -28 30 45 11 -10 56 24
-53 -32 -82 87 32 4 -32 3
-8 102 -22 -70 -58 107 -127 -5
00000000: 01de ab98 9702 ac07 c6ed e75f ea25 7fa8
00000010: 3bff 3529 dfc3 4b1b e315 2c5d 2ad5 8f7f
00000020: c409 084f 1dcc f4d3 6325 0209 81e5 1775
00000030: 34e6 2381 0d0a 2e1e a7d4 c864 44f9 34e6
00000040: fed3 f4c3 2281 2500 13ef 4601 f303 04ec
00000050: e408 fef3 f95c 0e81 06e5 e2f6 08d4 dcfa
00000060: affc 7fd0 7259 e4ed 36bf ac15 a9c7 04a8
00000070: b042 3a39 cc21 c3ea cc6b e467 e8e7 819f
00000080: 3d0c 1cf1 ef44 f0f0 7f0c 480e fb2e e6ea
00000090: e9b2 540e 2227 fa81 071e eaf5 e1e8 0df5
000000a0: 10d9 fe26 157f f594 04dc 11ea 01c9 0700
000000b0: 2a26 137f f9d6 cf20 05fd 05f7 022b 18cf
000000c0: 8247 e722 4adb 0308 49db 2574 81da 5c5a
000000d0: e8f9 0a04 c581 f339 2f20 f515 0933 0ada
000000e0: 81f7 fd23 0f06 110c 0ee4 1e2d 0bf6 3818
000000f0: cbe0 ae57 2004 e003 f866 eaba c66b 81fb

mobilenet_v2_alpha_0.35/batch_normalization_16/FusedBatchNormV3;mobilenet_v2_alpha_0.35/depthwise_conv2d_5/depthwise;mobilenet_v2_alpha_0.35/depthwise_conv2d_6/depthwise i1 [1, 3, 3, 96]
26 -78 -20 118 -11 55 44 11
-127 21 -53 -1 74 31 -114 2
-11 50 42 91 37 8 -9 -59
51 97 81 10 19 13 52 47
-15 11 -97 -53 43 -1 -20 44
30 -127 43 -12 127 -89 32 20
18 -119 -44 -4 -3 -31 7 105
-48 79 -112 -12 45 61 54 -26
22 -26 -127 12 -22 -108 -1 -45
-38 -15 5 22 -2 44 -22 -44
0 -85 -71 -9 -63 80 -108 -34
44 -96 -33 -1 12 36 -95 34
-7 127 123 43 -12 -27 11 53
51 35 -127 -28 103 49 -114 1
7 65 -127 118 41 92 -85 -47
-55 28 127 2 75 38 66 51
14 -127 -127 34 52 -28 -6 -38
127 -101 -107 13 -44 71 -26 36
2 -127 -127 -49 39 -83 -97 -86
127 127 -61 -24 -23 -18 96 127
-29 127 -106 -43 2 -109 -41 30
-110 -3 10 -17 -22 -127 -119 -127
55 -9 -117 -58 -14 118 7 -127
-33 -21 76 1 58 -110 -105 63
-16 -19 -37 -21 -23 -26 45 -8
75 25 -8 26 13 50 -39 -6
4 -15 0 -19 10 5 60 50
-28 -40 17 -18 11 9 11 49
-22 -24 -54 23 73 -9 23 -45
7 75 33 -6 -118 -87 38 23
-26 23 -19 4 -13 -33 28 -12
-51 22 -115 -7 -48 -62 -20 30
00000000: 1ab2 ec76 f537 2c0b 8115 cbff 4a1f 8e02
00000010: f532 2a5b 2508 f7c5 3361 510a 130d 342f
00000020: f10b 9fcb 2bff ec2c 1e81 2bf4 7fa7 2014
00000030: 1289 d4fc fde1 0769 d04f 90f4 2d3d 36e6
00000040: 16e6 810c ea94 ffd3 daf1 0516 fe2c ead4
00000050: 00ab b9f7 c150 94de 2ca0 dfff 0c24 a122
00000060: f97f 7b2b f4e5 0b35 3323 81e4 6731 8e01
00000070: 0741 8176 295c abd1 c91c 7f02 4b26 4233
00000080: 0e81 8122 34e4 fada 7f9b 950d d447 e624
00000090: 0281 81cf 27ad 9faa 7f7f c3e8 e9ee 607f
000000a0: e37f 96d5 0293 d71e 92fd 0aef ea81 8981
000000b0: 37f7 8bc6 f276 0781 dfeb 4c01 3a92 973f
000000c0: f0ed dbeb e9e6 2df8 4b19 f81a 0d32 d9fa
000000d0: 04f1 00ed 0a05 3c32 e4d8 11ee 0b09 0b31
000000e0: eae8 ca17 49f7 17d3 074b 21fa 8aa9 2617
000000f0: e617 ed04 f3df 1cf4 cd16 8df9 d0c2 ec1e

mobilenet_v2_alpha_0.35/conv2d_11/Conv2D i1 [16, 1, 1, 96]
27 106 -66 -63 -26 -28 13 -34
-95 -7 15 -92 -19 -10 20 -4
-42 -37 30 -56 14 8 6 -29
-18 -5 -67 17 -79 57 -17 -28
-73 -2 -15 113 -33 -74 -56 114
-99 36 16 36 -72 -45 -72 11
11 -35 -105 65 23 43 -16 -43
24 19 -38 52 127 62 -8 43
105 -45 19 -7 4 -30 -50 23
-109 -75 39 -53 -96 8 14 -36
-43 124 -21 -86 4 -12 117 67
-28 7 16 18 -19 -58 9 15
8 35 66 -17 -6 55 39 -15
-115 67 15 45 -32 14 14 9
23 26 -21 -7 49 -46 -26 57
55 29 18 -27 -54 24 25 75
20 9 48 4 21 -16 -15 36
-27 -63 -26 -98 -86 -18 21 17
7 31 -43 -95 127 -10 35 31
-103 -4 -14 -104 52 12 44 26
38 -19 2 31 0 40 -98 71
5 -32 -50 57 72 29 -11 -20
19 29 10 -39 74 40 12 36
58 -9 19 8 32 32 29 14
3 17 -37 2 60 50 -15 -23
-127 -116 -61 3 10 -23 -16 10
12 28 -49 -18 -45 -26 -47 17
-4 27 -1 -42 -4 36 -54 124
-46 -8 -61 32 -54 5 -36 13
18 -21 -30 3 -99 -51 37 -5
6 6 70 -30 -19 -35 62 33
-93 -22 20 54 12 1 -36 -23
00000000: 1b6a bec1 e6e4 0dde a1f9 0fa4 edf6 14fc
00000010: d6db 1ec8 0e08 06e3 eefb bd11 b139 efe4
00000020: b7fe f171 dfb6 c872 9d24 1024 b8d3 b80b
00000030: 0bdd 9741 172b f0d5 1813 da34 7f3e f82b
00000040: 69d3 13f9 04e2 ce17 93b5 27cb a008 0edc
00000050: d57c ebaa 04f4 7543 e407 1012 edc6 090f
00000060: 0823 42ef fa37 27f1 8d43 0f2d e00e 0e09
00000070: 171a ebf9 31d2 e639 371d 12e5 ca18 194b
00000080: 1409 3004 15f0 f124 e5c1 e69e aaee 1511
00000090: 071f d5a1 7ff6 231f 99fc f298 340c 2c1a
000000a0: 26ed 021f 0028 9e47 05e0 ce39 481d f5ec
000000b0: 131d 0ad9 4a28 0c24 3af7 1308 2020 1d0e
000000c0: 0311 db02 3c32 f1e9 818c c303 0ae9 f00a
000000d0: 0c1c cfee d3e6 d111 fc1b ffd6 fc24 ca7c
000000e0: d2f8 c320 ca05 dc0d 12eb e203 9dcd 25fb
000000f0: 0606 46e2 eddd 3e21 a3ea 1436 0c01 dce9

mobilenet_v2_alpha_0.35/conv2d_12/Conv2D i1 [96, 1, 1, 16]
38 52 -113 45 -127 35 92 5
-3 12 -10 -2 -40 -71 -19 62
11 -38 39 127 -2 -25 -36 16
45 3 6 -55 38 -35 -23 8
-127 20 10 -7 14 35 -60 37
-23 87 -9 111 -2 -22 -70 -94
-32 -90 14 -8 -47 -6 -11 0
25 86 -127 13 5 -12 -12 1
-4 0 -26 -17 -1 -127 23 -5
-2 47 45 0 20 32 -11 18
-59 -57 40 36 15 -18 -14 -9
-35 -25 5 -13 -25 87 -111 127
-41 -24 8 -106 47 28 -127 26
-62 -24 54 2 74 -56 -38 -97
33 -127 -19 35 114 -13 -86 5
1 24 12 -58 -58 53 24 19
-54 -94 -45 -14 82 -1 -26 -17
-42 48 -11 109 127 9 -107 -37
42 -44 52 -6 7 54 13 -32
127 98 27 52 75 92 -4 -18
16 28 9 20 -10 32 -13 9
-20 -8 -19 127 1 26 2 -12
20 -76 -12 -127 50 84 66 -39
-36 -24 -39 -72 -3 -96 -100 120
93 37 68 15 7 -37 -73 10
-126 -37 -85 -13 -39 -127 -9 30
3 -25 24 -127 16 17 48 -18
-21 -34 -14 106 -10 -14 39 -48
4 -27 45 4 27 -44 -5 127
9 56 -34 29 26 23 -16 -7
-26 -2 0 61 17 5 -1 -11
-9 -14 -22 127 4 15 -15 1
00000000: 2634 8f2d 8123 5c05 fd0c f6fe d8b9 ed3e
00000010: 0bda 277f fee7 dc10 2d03 06c9 26dd e908
00000020: 8114 0af9 0e23 c425 e957 f76f feea baa2
00000030: e0a6 0ef8 d1fa f500 1956 810d 05f4 f401
00000040: fc00 e6ef ff81 17fb fe2f 2d00 1420 f512
00000050: c5c7 2824 0fee f2f7 dde7 05f3 e757 917f
00000060: d7e8 0896 2f1c 811a c2e8 3602 4ac8 da9f
00000070: 2181 ed23 72f3 aa05 0118 0cc6 c635 1813
00000080: caa2 d3f2 52ff e6ef d630 f56d 7f09 95db
00000090: 2ad4 34fa 0736 0de0 7f62 1b34 4b5c fcee
000000a0: 101c 0914 f620 f309 ecf8 ed7f 011a 02f4
000000b0: 14b4 f481 3254 42d9 dce8 d9b8 fda0 9c78
000000c0: 5d25 440f 07db b70a 82db abf3 d981 f71e
000000d0: 03e7 1881 1011 30ee ebde f26a f6f2 27d0
000000e0: 04e5 2d04 1bd4 fb7f 0938 de1d 1a17 f0f9
000000f0: e6fe 003d 1105 fff5 f7f2 ea7f 040f f101

mobilenet_v2_alpha_0.35/batch_normalization_19/FusedBatchNormV3;mobilenet_v2_alpha_0.35/depthwise_conv2d_6/depthwise i1 [1, 3, 3, 96]
-70 68 71 72 -96 77 95 85
85 92 87 103 -88 90 -88 87
78 127 -114 -127 -114 71 -127 86
68 127 97 -75 86 65 -80 86
106 -95 80 -127 -73 -75 -90 -86
70 -53 -108 -88 44 -86 85 48
-86 54 50 -60 -121 105 82 -68
-95 -81 16 94 69 -81 -76 -81
65 127 -78 -121 69 -88 57 78
-49 -104 -61 -76 -116 -106 -100 85
65 -100 97 -105 101 -85 9 71
-68 75 86 74 78 37 96 -77
-95 88 104 93 -127 88 -48 108
102 104 -55 -75 -91 127 -111 119
106 -37 -81 -21 -127 106 -107 127
94 119 -56 -101 -85 86 -99 107
127 -105 98 -126 -99 -84 -115 -123
95 -77 -118 -109 84 -91 108 -89
-101 66 80 -78 -127 111 100 -106
-96 -89 111 103 85 -116 -70 -102
90 123 -95 -125 109 -89 93 103
-86 6 -91 -102 55 -108 -108 127
78 -116 127 -86 117 -91 -103 76
-122 97 102 107 100 75 105 -95
-34 48 39 43 -80 38 -31 58
37 21 -31 -47 -42 51 -48 45
40 -47 -12 47 -67 56 -81 48
51 73 -54 -77 -23 37 -44 49
65 -38 31 -94 -39 -24 -52 -53
39 -42 -47 -69 48 -40 50 -110
-50 32 32 -33 -102 32 42 -58
-32 -38 93 31 35 -59 -26 -18
00000000: ba44 4748 a04d 5f55 555c 5767 a85a a857
00000010: 4e7f 8e81 8e47 8156 447f 61b5 5641 b056
00000020: 6aa1 5081 b7b5 a6aa 46cb 94a8 2caa 5530
00000030: aa36 32c4 8769 52bc a1af 105e 45af b4af
00000040: 417f b287 45a8 394e cf98 c3b4 8c96 9c55
00000050: 419c 6197 65ab 0947 bc4b 564a 4e25 60b3
00000060: a158 685d 8158 d06c 6668 c9b5 a57f 9177
00000070: 6adb afeb 816a 957f 5e77 c89b ab56 9d6b
00000080: 7f97 6282 9dac 8d85 5fb3 8a93 54a5 6ca7
00000090: 9b42 50b2 816f 6496 a0a7 6f67 558c ba9a
000000a0: 5a7b a183 6da7 5d67 aa06 a59a 3794 947f
000000b0: 4e8c 7faa 75a5 994c 8661 666b 644b 69a1
000000c0: de30 272b b026 e13a 2515 e1d1 d633 d02d
000000d0: 28d1 f42f bd38 af30 3349 cab3 e925 d431
000000e0: 41da 1fa2 d9e8 cccb 27d6 d1bb 30d8 3292
000000f0: ce20 20df 9a20 2ac6 e0da 5d1f 23c5 e6ee

mobilenet_v2_alpha_0.35/conv2d_13/Conv2D i1 [24, 1, 1, 96]
-4 -52 59 3 -6 -47 2 -13
42 -44 -10 28 47 -20 -27 14
-61 0 13 -12 -4 -106 1 -2
5 -6 11 -17 9 -18 24 11
18 -18 -57 4 -72 -46 41 3
-23 -4 -5 -14 27 -14 -10 -6
21 4 15 11 4 31 5 7
5 -52 9 48 -89 -10 -32 -25
127 12 43 -14 -15 -38 10 -24
-39 14 16 -35 -2 2 20 4
-21 26 28 13 5 -23 12 -9
9 36 36 -50 -37 5 43 -60
-51 -19 7 -46 25 -109 -8 87
82 -24 79 31 -40 29 -28 32
-84 -8 -56 65 10 -63 -59 80
-26 23 25 -19 79 19 46 -35
-19 24 -88 -47 -17 38 -117 -35
-59 -19 -34 -58 8 82 111 39
-32 -73 8 40 -38 46 35 -109
15 -27 -16 -27 -65 -34 -30 -50
-118 15 2 -27 -18 1 70 0
39 -35 -108 16 104 -28 -42 -64
51 -38 33 43 65 98 -11 104
20 75 127 12 52 96 26 12
23 29 -40 14 41 12 66 5
-7 26 -12 -20 15 -50 -30 -102
15 44 -35 -4 51 -4 65 -6
73 -46 24 -6 -32 112 -13 37
-70 -47 38 -9 -19 -47 -15 9
-3 -46 -20 -76 49 9 -12 -70
-20 -25 -3 17 1 -3 59 -49
-7 23 -41 80 7 5 20 28
00000000: fccc 3b03 fad1 02f3 2ad4 f61c 2fec e50e
00000010: c300 0df4 fc96 01fe 05fa 0bef 09ee 180b
00000020: 12ee c704 b8d2 2903 e9fc fbf2 1bf2 f6fa
00000030: 1504 0f0b 041f 0507 05cc 0930 a7f6 e0e7
00000040: 7f0c 2bf2 f1da 0ae8 d90e 10dd fe02 1404
00000050: eb1a 1c0d 05e9 0cf7 0924 24ce db05 2bc4
00000060: cded 07d2 1993 f857 52e8 4f1f d81d e420
00000070: acf8 c841 0ac1 c550 e617 19ed 4f13 2edd
00000080: ed18 a8d1 ef26 8bdd c5ed dec6 0852 6f27
00000090: e0b7 0828 da2e 2393 0fe5 f0e5 bfde e2ce
000000a0: 8a0f 02e5 ee01 4600 27dd 9410 68e4 d6c0
000000b0: 33da 212b 4162 f568 144b 7f0c 3460 1a0c
000000c0: 171d d80e 290c 4205 f91a f4ec 0fce e29a
000000d0: 0f2c ddfc 33fc 41fa 49d2 18fa e070 f325
000000e0: bad1 26f7 edd1 f109 fdd2 ecb4 3109 f4ba
000000f0: ece7 fd11 01fd 3bcf f917 d750 0705 141c

mobilenet_v2_alpha_0.35/conv2d_14/Conv2D i1 [144, 1, 1, 24]
-62 40 20 -104 53 -26 17 54
-48 69 -125 -48 127 -13 36 -23
3 52 8 -32 -86 -3 0 0
63 -10 10 -9 -59 -9 -5 127
18 89 0 -33 1 35 12 -85
-43 -12 53 59 -7 53 -4 -56
-17 -13 -48 51 68 -84 39 -63
36 -3 -29 67 -22 45 -5 -4
4 18 16 51 127 4 63 101
-107 -12 -33 41 -50 107 34 -114
-127 -4 -74 -3 -53 -41 76 22
49 16 19 -64 -7 -48 29 65
-12 37 10 0 -3 -66 -19 -52
-22 68 113 -25 39 8 25 29
-24 45 -80 60 -46 71 -54 127
2 30 96 -35 -16 75 49 43
0 -27 -45 45 6 66 1 -127
-7 40 34 -39 -9 -8 20 38
-127 -34 7 30 64 -18 60 109
-1 -33 48 11 -33 75 -8 2
62 -87 -21 49 -53 -15 -36 -27
15 -42 -63 -5 -3 20 54 -127
-28 9 -27 -4 9 -12 -28 -68
-52 -41 17 -13 -14 -26 32 -28
8 -10 4 11 14 23 15 -64
15 83 -17 -22 -3 -31 -48 23
19 2 -15 127 -37 -25 -16 -19
-26 -21 -5 -35 -15 -5 -34 -124
127 -23 56 -113 -21 16 -48 -98
103 8 50 34 46 -28 11 -22
-76 58 -34 -83 79 38 21 86
74 -15 127 -57 -47 -66 -1 -26
00000000: c228 1498 35e6 1136 d045 83d0 7ff3 24e9
00000010: 0334 08e0 aafd 0000 3ff6 0af7 c5f7 fb7f
00000020: 1259 00df 0123 0cab d5f4 353b f935 fcc8
00000030: eff3 d033 44ac 27c1 24fd e343 ea2d fbfc
00000040: 0412 1033 7f04 3f65 95f4 df29 ce6b 228e
00000050: 81fc b6fd cbd7 4c16 3110 13c0 f9d0 1d41
00000060: f425 0a00 fdbe edcc ea44 71e7 2708 191d
00000070: e82d b03c d247 ca7f 021e 60dd f04b 312b
00000080: 00e5 d32d 0642 0181 f928 22d9 f7f8 1426
00000090: 81de 071e 40ee 3c6d ffdf 300b df4b f802
000000a0: 3ea9 eb31 cbf1 dce5 0fd6 c1fb fd14 3681
000000b0: e409 e5fc 09f4 e4bc ccd7 11f3 f2e6 20e4
000000c0: 08f6 040b 0e17 0fc0 0f53 efea fde1 d017
000000d0: 1302 f17f dbe7 f0ed e6eb fbdd f1fb de84
000000e0: 7fe9 388f eb10 d09e 6708 3222 2ee4 0bea
000000f0: b43a dead 4f26 1556 4af1 7fc7 d1be ffe6

mobilenet_v2_alpha_0.35/batch_normalization_22/FusedBatchNormV3;mobilenet_v2_alpha_0.35/depthwise_conv2d_7/depthwise;mobilenet_v2_alpha_0.35/depthwise_conv2d_10/depthwise i1 [1, 3, 3, 144]
29 2 26 0 7 19 19 -24
1 16 -21 -3 6 -21 1 16
37 3 -7 20 -4 -7 -31 23
16 -12 15 -37 -4 -27 -30 -15
31 24 40 -26 4 -15 -16 9
-2 8 -49 -4 -10 9 -2 11
-12 28 -45 -26 -7 12 33 -2
2 39 14 -11 10 -1 -47 15
7 -17 28 0 10 2 -39 12
45 78 -14 -72 -27 31 2 -32
48 -10 20 -7 -91 -96 8 11
-10 -8 10 19 -98 -84 33 -22
23 22 -14 25 0 16 7 11
-26 14 16 4 9 11 43 37
13 -4 20 -3 -16 0 -1 29
-7 9 -35 3 14 -13 10 25
30 16 -28 46 -41 17 -7 -13
-5 0 20 12 23 -17 -3 -12
127 -4 -94 -15 -46 -31 -4 -112
-127 15 1 -59 -48 -60 -7 127
127 10 -108 127 -127 -120 -2 49
127 -127 54 -60 -103 -127 -29 12
6 127 83 -43 13 -104 6 -19
38 -15 -87 50 -4 36 -6 127
-22 4 17 -24 69 -76 36 -43
10 73 127 -19 -37 68 -33 -88
-15 6 60 40 10 2 4 71
127 -108 -94 -63 -24 124 -1 -125
-64 20 -2 -1 -127 -102 -32 -13
22 8 35 -118 -94 -36 127 54
-88 33 -64 53 8 127 15 63
-31 -14 4 -7 127 -88 97 127
00000000: 1d02 1a00 0713 13e8 0110 ebfd 06eb 0110
00000010: 2503 f914 fcf9 e117 10f4 0fdb fce5 e2f1
00000020: 1f18 28e6 04f1 f009 fe08 cffc f609 fe0b
00000030: f41c d3e6 f90c 21fe 0227 0ef5 0aff d10f
00000040: 07ef 1c00 0a02 d90c 2d4e f2b8 e51f 02e0
00000050: 30f6 14f9 a5a0 080b f6f8 0a13 9eac 21ea
00000060: 1716 f219 0010 070b e60e 1004 090b 2b25
00000070: 0dfc 14fd f000 ff1d f909 dd03 0ef3 0a19
00000080: 1e10 e42e d711 f9f3 fb00 140c 17ef fdf4
00000090: 7ffc a2f1 d2e1 fc90 810f 01c5 d0c4 f97f
000000a0: 7f0a 947f 8188 fe31 7f81 36c4 9981 e30c
000000b0: 067f 53d5 0d98 06ed 26f1 a932 fc24 fa7f
000000c0: ea04 11e8 45b4 24d5 0a49 7fed db44 dfa8
000000d0: f106 3c28 0a02 0447 7f94 a2c1 e87c ff83
000000e0: c014 feff 819a e0f3 1608 238a a2dc 7f36
000000f0: a821 c035 087f 0f3f e1f2 04f9 7fa8 617f

mobilenet_v2_alpha_0.35/conv2d_15/Conv2D i1 [24, 1, 1, 144]
36 -43 33 -19 -19 30 -48 12
-9 -29 8 -19 -69 4 -30 0
28 -38 -27 -47 -1 -54 -46 -9
-28 11 71 18 73 -29 -105 20
-41 -21 -21 -21 40 14 3 -74
-41 89 26 -31 -17 -73 34 15
13 -127 -7 35 -15 -14 -65 35
32 70 71 26 11 -44 25 -10
51 -35 21 -27 21 -25 43 74
-1 -27 33 -30 15 -41 -33 92
-32 84 -41 2 -73 33 11 -59
61 -19 -23 0 -94 -5 -24 -8
19 64 -11 12 13 -47 -9 21
-40 42 -29 78 -32 34 19 -14
14 -39 -51 23 -10 29 23 38
-12 67 21 -37 75 61 33 -91
-25 99 16 76 3 42 109 -63
1 -24 -2 -15 15 -33 -46 -53
-61 23 30 -37 -15 -3 -61 82
16 73 -60 46 -29 3 -36 58
-5 -90 -9 80 -74 -27 50 -26
-45 45 -23 32 38 27 39 -3
48 2 -57 -37 -40 -110 15 29
-2 23 16 -1 26 16 95 -29
-30 -93 -4 14 -35 -26 -67 -12
-3 31 -30 20 -24 102 -59 51
46 0 43 -70 -57 -6 44 -7
-85 -17 14 19 8 0 -49 -32
127 -51 -67 -64 -68 35 -91 50
2 53 42 -25 -23 -8 1 -2
-5 -46 51 -85 47 15 18 -88
52 3 -28 37 -8 -10 -59 -87
00000000: 24d5 21ed ed1e d00c f7e3 08ed bb04 e200
00000010: 1cda e5d1 ffca d2f7 e40b 4712 49e3 9714
00000020: d7eb ebeb 280e 03b6 d759 1ae1 efb7 220f
00000030: 0d81 f923 f1f2 bf23 2046 471a 0bd4 19f6
00000040: 33dd 15e5 15e7 2b4a ffe5 21e2 0fd7 df5c
00000050: e054 d702 b721 0bc5 3ded e900 a2fb e8f8
00000060: 1340 f50c 0dd1 f715 d82a e34e e022 13f2
00000070: 0ed9 cd17 f61d 1726 f443 15db 4b3d 21a5
00000080: e763 104c 032a 6dc1 01e8 fef1 0fdf d2cb
00000090: c317 1edb f1fd c352 1049 c42e e303 dc3a
000000a0: fba6 f750 b6e5 32e6 d32d e920 261b 27fd
000000b0: 3002 c7db d892 0f1d fe17 10ff 1a10 5fe3
000000c0: e2a3 fc0e dde6 bdf4 fd1f e214 e866 c533
000000d0: 2e00 2bba c7fa 2cf9 abef 0e13 0800 cfe0
000000e0: 7fcd bdc0 bc23 a532 0235 2ae7 e9f8 01fe
000000f0: fbd2 33ab 2f0f 12a8 3403 e425 f8f6 c5a9

mobilenet_v2_alpha_0.35/conv2d_16/Conv2D i1 [144, 1, 1, 24]
-113 -16 100 70 -4 97 17 127
-89 -4 -9 -122 26 -48 -48 58
79 -13 -58 -80 -93 -23 80 -45
-12 -30 -21 38 -3 18 21 5
-127 -13 -11 27 46 50 -54 2
-22 7 -18 -42 -27 42 -12 -16
-38 -67 -17 62 -50 5 12 25
-58 -57 -27 -88 -16 -51 127 3
69 4 8 -2 -47 -61 -93 46
-17 35 -23 12 -76 -58 -42 0
64 -7 -10 63 -54 5 -53 -26
-25 26 0 50 -41 -72 32 127
60 16 -8 -98 -55 5 127 86
-12 -16 -15 4 37 71 -35 -125
-4 28 11 -48 -11 -16 23 19
-31 -1 46 55 -22 -30 -36 64
40 -18 27 41 -127 -5 1 4
-94 2 -78 -31 -108 -16 -76 1
-3 -11 -16 39 43 68 23 -27
-67 -28 9 -89 -17 5 -72 -127
-6 -68 -26 2 -49 20 27 -30
27 -82 -93 -69 -7 69 -87 62
9 84 -34 -14 7 46 -127 -79
-92 -22 -24 42 -78 0 46 11
61 19 20 -57 59 44 35 26
50 -24 4 65 8 -46 127 63
-48 -51 8 -6 22 -29 -30 58
10 -59 -43 -7 80 6 85 -8
14 -18 11 -87 12 58 -37 14
109 0 30 127 84 -16 -52 25
-16 -52 12 101 13 8 34 24
-72 -39 19 46 0 63 -9 127
00000000: 8ff0 6446 fc61 117f a7fc f786 1ad0 d03a
00000010: 4ff3 c6b0 a3e9 50d3 f4e2 eb26 fd12 1505
00000020: 81f3 f51b 2e32 ca02 ea07 eed6 e52a f4f0
00000030: dabd ef3e ce05 0c19 c6c7 e5a8 f0cd 7f03
00000040: 4504 08fe d1c3 a32e ef23 e90c b4c6 d600
00000050: 40f9 f63f ca05 cbe6 e71a 0032 d7b8 207f
00000060: 3c10 f89e c905 7f56 f4f0 f104 2547 dd83
00000070: fc1c 0bd0 f5f0 1713 e1ff 2e37 eae2 dc40
00000080: 28ee 1b29 81fb 0104 a202 b2e1 94f0 b401
00000090: fdf5 f027 2b44 17e5 bde4 09a7 ef05 b881
000000a0: fabc e602 cf14 1be2 1bae a3bb f945 a93e
000000b0: 0954 def2 072e 81b1 a4ea e82a b200 2e0b
000000c0: 3d13 14c7 3b2c 231a 32e8 0441 08d2 7f3f
000000d0: d0cd 08fa 16e3 e23a 0ac5 d5f9 5006 55f8
000000e0: 0eee 0ba9 0c3a db0e 6d00 1e7f 54f0 cc19
000000f0: f0cc 0c65 0d08 2218 b8d9 132e 003f f77f

mobilenet_v2_alpha_0.35/batch_normalization_25/FusedBatchNormV3;mobilenet_v2_alpha_0.35/depthwise_conv2d_8/depthwise;mobilenet_v2_alpha_0.35/depthwise_conv2d_10/depthwise i1 [1, 3, 3, 144]
-6 0 -5 -109 56 -32 7 -8
-20 -9 -73 46 1 -115 -10 16
-4 11 14 -21 11 -6 0 -11
-7 -22 -14 21 9 -40 7 33
13 31 21 10 -40 9 23 3
15 46 -20 4 -109 -21 -51 19
-78 11 -3 -17 17 5 -62 11
-10 -27 -7 -16 -7 -1 -6 -105
29 19 47 11 30 -6 -53 -108
47 -18 -40 -43 2 -17 87 9
10 -20 11 -11 14 20 -3 -127
-29 2 2 -51 -23 127 -32 -22
7 0 43 -81 -17 9 9 -3
24 40 20 -3 15 -7 0 7
21 -6 2 21 -1 4 5 17
8 -2 5 -33 23 21 -75 -39
-1 -7 24 -7 29 -42 33 -1
14 45 7 41 1 26 18 6
14 127 127 -59 39 42 -35 1
-77 41 -111 -59 54 -52 4 -31
-26 16 7 -63 -24 -79 -26 41
-74 20 15 -63 -26 -117 -5 127
3 37 -18 127 -44 16 -5 -29
127 -3 -6 -40 -40 -127 -127 -30
-9 -26 49 47 -7 -3 -127 -69
-27 -40 22 -27 -11 -82 71 -99
15 1 127 69 65 -127 -55 -119
36 10 -31 -63 -26 127 -102 3
20 47 -35 28 -17 127 5 60
-127 -12 13 -127 -9 70 -24 -47
-35 -4 3 -127 -35 -5 5 -8
36 -127 127 29 -68 4 -57 127
00000000: fa00 fb93 38e0 07f8 ecf7 b72e 018d f610
00000010: fc0b 0eeb 0bfa 00f5 f9ea f215 09d8 0721
00000020: 0d1f 150a d809 1703 0f2e ec04 93eb cd13
00000030: b20b fdef 1105 c20b f6e5 f9f0 f9ff fa97
00000040: 1d13 2f0b 1efa cb94 2fee d8d5 02ef 5709
00000050: 0aec 0bf5 0e14 fd81 e302 02cd e97f e0ea
00000060: 0700 2baf ef09 09fd 1828 14fd 0ff9 0007
00000070: 15fa 0215 ff04 0511 08fe 05df 1715 b5d9
00000080: fff9 18f9 1dd6 21ff 0e2d 0729 011a 1206
00000090: 0e7f 7fc5 272a dd01 b329 91c5 36cc 04e1
000000a0: e610 07c1 e8b1 e629 b614 0fc1 e68b fb7f
000000b0: 0325 ee7f d410 fbe3 7ffd fad8 d881 81e2
000000c0: f7e6 312f f9fd 81bb e5d8 16e5 f5ae 479d
000000d0: 0f01 7f45 4181 c989 240a e1c1 e67f 9a03
000000e0: 142f dd1c ef7f 053c 81f4 0d81 f746 e8d1
000000f0: ddfc 0381 ddfb 05f8 2481 7f1d bc04 c77f

mobilenet_v2_alpha_0.35/conv2d_17/Conv2D i1 [24, 1, 1, 144]
-25 59 20 30 47 96 -54 -6
-13 16 -36 -14 0 42 35 100
8 -3 -13 -27 6 27 5 7
-19 -22 69 -5 15 -33 -23 -2
43 72 -27 -40 -14 -86 -26 -42
-6 -12 -1 1 -17 60 -18 13
-2 -32 37 78 -8 28 2 47
3 51 59 -60 49 -48 9 69
-15 -58 8 -63 -34 20 -25 48
45 -43 -1 19 3 -6 -2 -26
0 -30 17 127 36 10 -5 17
63 21 -53 -22 3 66 39 11
-19 20 41 -19 -93 26 119 27
-4 -16 21 -65 24 84 -21 -34
45 30 -42 30 25 -33 -38 -17
-3 109 15 47 2 1 5 36
10 0 6 -24 -13 -12 -40 41
6 -33 -25 65 14 37 24 72
2 -22 -9 22 27 -43 73 -97
31 -126 -30 -89 25 64 45 -63
-48 36 58 -17 -109 17 35 51
95 -46 -25 -15 -15 13 -92 -57
-3 79 -13 25 13 50 25 17
-38 -28 22 -36 91 64 -29 4
-32 10 -6 44 -45 1 -23 -71
-80 43 -6 52 106 -32 3 79
-35 -12 54 -14 -75 24 -73 -34
-36 -51 -30 13 -4 23 -117 84
54 -48 -127 -29 16 -19 28 88
-18 67 9 50 -40 -19 52 -101
60 69 13 53 100 -9 40 -1
-53 -75 2 47 -16 42 2 -3
00000000: e73b 141e 2f60 cafa f310 dcf2 002a 2364
00000010: 08fd f3e5 061b 0507 edea 45fb 0fdf e9fe
00000020: 2b48 e5d8 f2aa e6d6 faf4 ff01 ef3c ee0d
00000030: fee0 254e f81c 022f 0333 3bc4 31d0 0945
00000040: f1c6 08c1 de14 e730 2dd5 ff13 03fa fee6
00000050: 00e2 117f 240a fb11 3f15 cbea 0342 270b
00000060: ed14 29ed a31a 771b fcf0 15bf 1854 ebde
00000070: 2d1e d61e 19df daef fd6d 0f2f 0201 0524
00000080: 0a00 06e8 f3f4 d829 06df e741 0e25 1848
00000090: 02ea f716 1bd5 499f 1f82 e2a7 1940 2dc1
000000a0: d024 3aef 9311 2333 5fd2 e7f1 f10d a4c7
000000b0: fd4f f319 0d32 1911 dae4 16dc 5b40 e304
000000c0: e00a fa2c d301 e9b9 b02b fa34 6ae0 034f
000000d0: ddf4 36f2 b518 b7de dccd e20d fc17 8b54
000000e0: 36d0 81e3 10ed 1c58 ee43 0932 d8ed 349b
000000f0: 3c45 0d35 64f7 28ff cbb5 022f f02a 02fd

mobilenet_v2_alpha_0.35/conv2d_18/Conv2D i1 [144, 1, 1, 24]
-103 26 -111 -23 52 -64 -60 78
-94 14 91 20 -40 -111 -8 -46
-90 46 -39 17 90 37 -127 70
44 7 119 22 -59 -53 54 -40
-44 68 -17 29 107 62 36 36
-127 71 -42 -55 22 -46 -31 -58
16 20 119 21 -44 -1 -60 40
65 33 -81 -102 -82 -11 60 127
-96 22 81 78 85 -47 94 -32
-15 -27 7 34 -26 2 16 -127
-44 1 4 20 4 26 -5 -3
-20 41 -49 -60 -6 -17 -31 -4
-104 29 -49 -85 6 80 -21 -45
82 26 -14 -127 -11 87 2 -4
10 -56 6 -55 70 63 -20 -24
0 2 21 -8 -2 23 -1 127
-6 -3 21 12 -14 2 36 26
2 25 1 34 18 4 -6 -4
-29 -19 18 26 1 6 -54 -104
-98 -111 74 -45 -8 -2 -5 47
127 -47 -94 -44 0 28 -38 -71
-127 -38 25 -83 98 -11 -8 28
-20 0 25 -34 -20 18 32 15
-21 -57 -58 10 16 -43 -29 -45
1 -52 -63 -41 7 -87 -74 33
-127 -119 2 15 -44 -21 -6 -7
-55 31 -109 28 42 78 6 -1
-70 64 48 13 -18 10 -124 -57
-69 127 -17 33 -73 -25 -13 63
-93 50 43 -68 82 26 60 12
17 -36 -61 -56 -26 38 27 21
-127 17 -57 -36 -6 -29 -62 -11
00000000: 991a 91e9 34c0 c44e a20e 5b14 d891 f8d2
00000010: a62e d911 5a25 8146 2c07 7716 c5cb 36d8
00000020: d444 ef1d 6b3e 2424 8147 d6c9 16d2 e1c6
00000030: 1014 7715 d4ff c428 4121 af9a aef5 3c7f
00000040: a016 514e 55d1 5ee0 f1e5 0722 e602 1081
00000050: d401 0414 041a fbfd ec29 cfc4 faef e1fc
00000060: 981d cfab 0650 ebd3 521a f281 f557 02fc
00000070: 0ac8 06c9 463f ece8 0002 15f8 fe17 ff7f
00000080: fafd 150c f202 241a 0219 0122 1204 fafc
00000090: e3ed 121a 0106 ca98 9e91 4ad3 f8fe fb2f
000000a0: 7fd1 a2d4 001c dab9 81da 19ad 62f5 f81c
000000b0: ec00 19de ec12 200f ebc7 c60a 10d5 e3d3
000000c0: 01cc c1d7 07a9 b621 8189 020f d4eb faf9
000000d0: c91f 931c 2a4e 06ff ba40 300d ee0a 84c7
000000e0: bb7f ef21 b7e7 f33f a332 2bbc 521a 3c0c
000000f0: 11dc c3c8 e626 1b15 8111 c7dc fae3 c2f5

mobilenet_v2_alpha_0.35/batch_normalization_28/FusedBatchNormV3;mobilenet_v2_alpha_0.35/depthwise_conv2d_9/depthwise;mobilenet_v2_alpha_0.35/depthwise_conv2d_10/depthwise i1 [1, 3, 3, 144]
-80 -46 20 2 -35 6 23 70
56 27 -28 -31 -11 1 -13 6
-8 28 26 -14 -27 -4 27 52
10 -13 -22 43 36 -60 24 -3
40 -5 49 5 -107 4 18 15
11 7 52 25 -23 -17 0 3
0 -22 48 18 7 40 -25 26
-19 -33 -38 27 105 4 -13 -81
-93 48 41 35 12 4 -10 31
127 34 31 6 16 11 -10 -10
10 -7 4 32 -16 28 92 23
20 21 -20 43 24 19 -22 69
-101 -1 3 -7 4 -17 32 7
12 0 -19 46 2 12 127 -99
-42 4 16 -15 -2 23 -5 -42
9 41 -127 23 12 77 15 47
40 9 41 3 -27 -5 -127 -29
22 33 94 -30 -12 -29 10 -127
-65 6 10 49 -53 38 -35 -35
127 33 -127 114 18 54 87 -77
-7 -12 -15 61 3 -20 89 -30
80 -18 -3 127 42 -69 78 24
-26 -60 -34 -44 -127 31 -5 11
126 -50 112 -31 32 -112 21 -6
127 91 -26 41 -10 -106 -19 -19
-127 88 -28 10 127 -66 38 42
33 -127 46 -91 127 -40 103 -8
103 127 87 10 7 127 -32 91
4 -8 9 127 1 -39 119 68
127 102 -70 -1 51 127 -44 125
16 -31 4 -89 16 113 -37 -6
27 -39 -30 127 127 121 -10 -68
00000000: b0d2 1402 dd06 1746 381b e4e1 f501 f306
00000010: f81c 1af2 e5fc 1b34 0af3 ea2b 24c4 18fd
00000020: 28fb 3105 9504 120f 0b07 3419 e9ef 0003
00000030: 00ea 3012 0728 e71a eddf da1b 6904 f3af
00000040: a330 2923 0c04 f61f 7f22 1f06 100b f6f6
00000050: 0af9 0420 f01c 5c17 1415 ec2b 1813 ea45
00000060: 9bff 03f9 04ef 2007 0c00 ed2e 020c 7f9d
00000070: d604 10f1 fe17 fbd6 0929 8117 0c4d 0f2f
00000080: 2809 2903 e5fb 81e3 1621 5ee2 f4e3 0a81
00000090: bf06 0a31 cb26 dddd 7f21 8172 1236 57b3
000000a0: f9f4 f13d 03ec 59e2 50ee fd7f 2abb 4e18
000000b0: e6c4 ded4 811f fb0b 7ece 70e1 2090 15fa
000000c0: 7f5b e629 f696 eded 8158 e40a 7fbe 262a
000000d0: 2181 2ea5 7fd8 67f8 677f 570a 077f e05b
000000e0: 04f8 097f 01d9 7744 7f66 baff 337f d47d
000000f0: 10e1 04a7 1071 dbfa 1bd9 e27f 7f79 f6bc

mobilenet_v2_alpha_0.35/conv2d_19/Conv2D i1 [24, 1, 1, 144]
-45 55 -3 -42 -15 15 -50 121
18 -14 35 -9 4 29 6 -12
32 14 3 36 63 -66 -7 -15
-34 13 -42 -124 -2 -11 26 -21
2 1 19 19 -3 29 23 -24
-16 39 39 -9 13 25 -18 -15
-22 5 -13 -36 -18 -10 -24 9
7 -10 15 -51 27 27 19 -13
-3 -125 57 -20 -22 49 6 -34
3 -53 -20 8 70 -4 21 -19
30 -4 -7 127 38 18 19 -3
-25 33 -2 8 19 12 -11 -19
-21 42 -13 60 12 10 -11 1
28 28 1 -63 80 -3 18 1
11 11 -8 -59 4 24 20 -8
-17 24 32 18 -23 19 12 -33
20 -109 18 11 -23 33 -20 59
4 50 -40 10 -34 54 58 19
-10 82 35 -57 23 -33 -22 32
8 22 -6 7 -28 -4 -8 50
8 -45 15 62 -3 -23 -9 10
-48 -31 8 -41 25 30 -6 -54
-15 -15 -26 -15 34 88 -112 -50
51 -28 -9 -52 41 0 13 -30
45 -45 13 -28 74 -39 -11 -74
77 -70 -14 -13 -79 -1 -24 61
0 -40 32 50 102 -23 9 46
-39 -56 -127 -17 -74 -114 -25 -34
31 -23 21 60 -33 59 31 -16
-73 29 73 9 -70 14 13 -13
-27 2 32 -38 4 19 -106 49
-35 -10 -36 7 -48 39 -13 29
00000000: d337 fdd6 f10f ce79 12f2 23f7 041d 06f4
00000010: 200e 0324 3fbe f9f1 de0d d684 fef5 1aeb
00000020: 0201 1313 fd1d 17e8 f027 27f7 0d19 eef1
00000030: ea05 f3dc eef6 e809 07f6 0fcd 1b1b 13f3
00000040: fd83 39ec ea31 06de 03cb ec08 46fc 15ed
00000050: 1efc f97f 2612 13fd e721 fe08 130c f5ed
00000060: eb2a f33c 0c0a f501 1c1c 01c1 50fd 1201
00000070: 0b0b f8c5 0418 14f8 ef18 2012 e913 0cdf
00000080: 1493 120b e921 ec3b 0432 d80a de36 3a13
00000090: f652 23c7 17df ea20 0816 fa07 e4fc f832
000000a0: 08d3 0f3e fde9 f70a d0e1 08d7 191e faca
000000b0: f1f1 e6f1 2258 90ce 33e4 f7cc 2900 0de2
000000c0: 2dd3 0de4 4ad9 f5b6 4dba f2f3 b1ff e83d
000000d0: 00d8 2032 66e9 092e d9c8 81ef b68e e7de
000000e0: 1fe9 153c df3b 1ff0 b71d 4909 ba0e 0df3
000000f0: e502 20da 0413 9631 ddf6 dc07 d027 f31d

mobilenet_v2_alpha_0.35/conv2d_20/Conv2D i1 [144, 1, 1, 24]
-95 13 8 -27 -3 19 33 7
-21 4 -7 127 -47 13 14 -81
-104 37 70 -10 67 44 35 59
-46 -21 29 9 -50 -35 17 21
-10 50 -28 10 17 127 -84 42
-40 13 -61 31 -26 67 65 -68
-57 127 41 44 -96 -63 -16 -120
63 0 -21 -116 -53 20 -3 -33
62 23 78 -49 70 8 -63 10
15 109 108 23 -87 10 -84 56
-93 -7 -95 -38 -104 54 84 -2
-6 14 -49 12 -127 -89 -81 7
14 -23 -127 -7 52 27 -43 35
3 28 -34 -19 -14 21 -56 -36
-26 -3 65 68 18 2 34 43
-127 -74 -22 78 36 27 -49 9
56 -50 2 -54 -43 104 -20 83
-65 16 -5 44 -27 69 -17 -36
28 -33 -27 -80 33 -8 -34 -25
-36 22 17 127 -73 64 -30 -60
78 25 9 -48 45 -13 24 32
-36 67 -44 -12 -7 -47 -19 -11
127 -12 -45 -14 10 88 59 10
15 -20 93 22 19 -23 18 36
-95 6 -8 -47 7 4 70 2
-108 47 -11 -81 -83 46 -69 89
-31 4 36 7 40 -62 73 127
-29 -22 35 67 71 -5 73 3
20 20 -9 39 83 15 -1 -5
25 6 40 16 127 97 15 3
-91 -67 73 58 29 -7 38 -21
18 -50 4 -25 6 5 -127 78
00000000: a10d 08e5 fd13 2107 eb04 f97f d10d 0eaf
00000010: 9825 46f6 432c 233b d2eb 1d09 cedd 1115
00000020: f632 e40a 117f ac2a d80d c31f e643 41bc
00000030: c77f 292c a0c1 f088 3f00 eb8c cb14 fddf
00000040: 3e17 4ecf 4608 c10a 0f6d 6c17 a90a ac38
00000050: a3f9 a1da 9836 54fe fa0e cf0c 81a7 af07
00000060: 0ee9 81f9 341b d523 031c deed f215 c8dc
00000070: e6fd 4144 1202 222b 81b6 ea4e 241b cf09
00000080: 38ce 02ca d568 ec53 bf10 fb2c e545 efdc
00000090: 1cdf e5b0 21f8 dee7 dc16 117f b740 e2c4
000000a0: 4e19 09d0 2df3 1820 dc43 d4f4 f9d1 edf5
000000b0: 7ff4 d3f2 0a58 3b0a 0fec 5d16 13e9 1224
000000c0: a106 f8d1 0704 4602 942f f5af ad2e bb59
000000d0: e104 2407 28c2 497f e3ea 2343 47fb 4903
000000e0: 1414 f727 530f fffb 1906 2810 7f61 0f03
000000f0: a5bd 493a 1df9 26eb 12ce 04e7 0605 814e
