image_classification/src/experiments_outputs/2025_06_30_20_45_29/quantized_models/quantized_model.tflite (tflite, 636632 bytes, 53 tensors)

mobilenet_v2_alpha_0.35/conv2d/Conv2D i1 [16, 3, 3, 3]
000000 f7 e9 fd cd 92 e5 17 41 07 eb e1 f5 ae 81 de 1e
       -9 -23 -3 -51 -110 -27 23 65 7 -21 -31 -11 -82 -127 -34 30
000010 31 05 f9 04 fa e2 f0 f7 fe ef fb c4 87 ec 19 3d
       49 5 -7 4 -6 -30 -16 -9 -2 -17 -5 -60 -121 -20 25 61
000020 06 01 06 06 af 81 e8 21 3d 07 01 fe 04 ea f7 fa
       6 1 6 6 -81 -127 -24 33 61 7 1 -2 4 -22 -9 -6
000030 09 03 03 fe fd 01 ad 38 24 81 46 42 de 15 18 c0
       9 3 3 -2 -3 1 -83 56 36 -127 70 66 -34 21 24 -64
000040 1c 23 8a 29 41 de 0a 07 16 f4 f3 e0 10 19 cb 30
       28 35 -118 41 65 -34 10 7 22 -12 -13 -32 16 25 -53 48
000050 1f 00 00 00 00 00 00 00 00 00 00 00 00 00 00 00
       31 0 0 0 0 0 0 0 0 0 0 0 0 0 0 0
000060 00 00 00 00 00 00 00 00 00 00 00 00 f3 f6 e4 f2
       0 0 0 0 0 0 0 0 0 0 0 0 -13 -10 -28 -14
000070 e7 ea e4 dc df da d7 e2 9d 81 b3 cb bf e2 d6 e0
       -25 -22 -28 -36 -33 -38 -41 -30 -99 -127 -77 -53 -65 -30 -42 -32
000080 ea bb c5 c6 ea e4 f3 62 e1 c2 55 e9 cd 2d f0 d8
       -22 -69 -59 -58 -22 -28 -13 98 -31 -62 85 -23 -51 45 -16 -40
000090 7f e2 a8 76 e0 ac 38 eb d1 2c 0a da 1f fe e9 f8
       127 -30 -88 118 -32 -84 56 -21 -47 44 10 -38 31 -2 -23 -8
0000a0 fa 09 00 00 00 00 00 00 00 00 00 00 00 00 00 00
       -6 9 0 0 0 0 0 0 0 0 0 0 0 0 0 0
0000b0 00 00 00 00 00 00 00 00 00 00 00 00 00 00 00 00
       0 0 0 0 0 0 0 0 0 0 0 0 0 0 0 0
0000c0 00 00 00 00 00 00 00 00 00 00 00 00 00 00 00 00
       0 0 0 0 0 0 0 0 0 0 0 0 0 0 0 0
0000d0 00 00 00 00 00 00 00 00 00 00 00 00 00 00 00 00
       0 0 0 0 0 0 0 0 0 0 0 0 0 0 0 0
0000e0 00 00 00 00 00 00 00 00 00 00 00 00 00 00 00 00
       0 0 0 0 0 0 0 0 0 0 0 0 0 0 0 0
0000f0 00 00 00 00 00 00 00 00 00 00 00 00 00 00 00 00
       0 0 0 0 0 0 0 0 0 0 0 0 0 0 0 0

mobilenet_v2_alpha_0.35/batch_normalization_1/FusedBatchNormV3;mobilenet_v2_alpha_0.35/depthwise_conv2d/depthwise;mobilenet_v2_alpha_0.35/conv2d_11/Conv2D i1 [1, 3, 3, 16]
000000 ff 02 81 f3 03 1d ee c6 31 40 c3 d0 81 db fa 49
       -1 2 -127 -13 3 29 -18 -58 49 64 -61 -48 -127 -37 -6 73
000010 fe 00 9d 14 81 f9 c8 df 5f d9 81 7f 86 04 fc 5c
       -2 0 -99 20 -127 -7 -56 -33 95 -39 -127 127 -122 4 -4 92
000020 ff 02 ff 09 05 fe f0 f2 72 05 ac 5b 16 42 05 22
       -1 2 -1 9 5 -2 -16 -14 114 5 -84 91 22 66 5 34
000030 fa 02 0d 14 04 7f d6 fe 31 54 cd d6 99 d9 81 70
       -6 2 13 20 4 127 -42 -2 49 84 -51 -42 -103 -39 -127 112
000040 7f d9 0b 7f 58 43 81 e7 41 de df 15 10 01 b7 7f
       127 -39 11 127 88 67 -127 -25 65 -34 -33 21 16 1 -73 127
000050 10 81 11 17 03 e9 ba fa 60 ef b0 ce ca 32 12 27
       16 -127 17 23 3 -23 -70 -6 96 -17 -80 -50 -54 50 18 39
000060 00 01 55 03 fb 57 eb fc 6b 7f 00 eb ea 7f ad 2f
       0 1 85 3 -5 87 -21 -4 107 127 0 -21 -22 127 -83 47
000070 ff 00 29 60 0c 38 d3 bc 72 ff f6 ed 29 0e c0 3d
       -1 0 41 96 12 56 -45 -68 114 -1 -10 -19 41 14 -64 61
000080 02 fe 24 1c fa f6 ea 81 7f bd f9 e5 02 2c 15 03
       2 -2 36 28 -6 -10 -22 -127 127 -67 -7 -27 2 44 21 3

mobilenet_v2_alpha_0.35/conv2d_1/Conv2D i1 [8, 1, 1, 16]
000000 ff ff 04 01 fe 01 02 00 00 00 00 02 00 00 7f 12
       -1 -1 4 1 -2 1 2 0 0 0 0 2 0 0 127 18
000010 04 f3 01 03 0b 81 03 00 01 00 00 2a 00 00 01 d3
       4 -13 1 3 11 -127 3 0 1 0 0 42 0 0 1 -45
000020 c8 81 ff 02 06 00 03 00 00 00 00 fd 00 00 ff 0b
       -56 -127 -1 2 6 0 3 0 0 0 0 -3 0 0 -1 11
000030 2a d7 7f 03 34 0d 04 00 00 00 00 dc 00 00 0b e1
       42 -41 127 3 52 13 4 0 0 0 0 -36 0 0 11 -31
000040 81 a2 ff f8 01 02 f8 00 ff 00 00 f7 00 00 02 fb
       -127 -94 -1 -8 1 2 -8 0 -1 0 0 -9 0 0 2 -5
000050 25 d4 81 04 40 ff 05 00 01 00 00 c5 00 00 0a e6
       37 -44 -127 4 64 -1 5 0 1 0 0 -59 0 0 10 -26
000060 07 fa f7 f7 0b 7f f5 00 ff 00 00 2e 00 00 04 05
       7 -6 -9 -9 11 127 -11 0 -1 0 0 46 0 0 4 5
000070 f2 0f fa 00 7f 03 ff 00 00 00 00 fc 00 00 02 0b
       -14 15 -6 0 127 3 -1 0 0 0 0 -4 0 0 2 11

mobilenet_v2_alpha_0.35/conv2d_2/Conv2D i1 [48, 1, 1, 8]
000000 00 00 00 00 00 00 00 00 c7 1d 48 ef c5 0d 38 81
       0 0 0 0 0 0 0 0 -57 29 72 -17 -59 13 56 -127
000010 0b f9 8d f8 81 fd 1d fe fc fd 8a f9 81 04 fe fc
       11 -7 -115 -8 -127 -3 29 -2 -4 -3 -118 -7 -127 4 -2 -4
000020 61 7f 3d 0f a2 e8 f7 9a 03 c7 5f 52 8a 7f ed 0c
       97 127 61 15 -94 -24 -9 -102 3 -57 95 82 -118 127 -19 12
000030 0b 21 22 3e e6 2f 30 7f 0b fa 8d fa 81 07 18 f9
       11 33 34 62 -26 47 48 127 11 -6 -115 -6 -127 7 24 -7
000040 81 30 de f5 2f e0 bf 5f 00 fb 58 09 7f fa ee fb
       -127 48 -34 -11 47 -32 -65 95 0 -5 88 9 127 -6 -18 -5
000050 09 fb 14 42 e8 4b 17 7f 7f f9 00 fb ff ff 0c 01
       9 -5 20 66 -24 75 23 127 127 -7 0 -5 -1 -1 12 1
000060 32 0c 38 2b d2 14 0f 81 00 08 7e f9 7f ee 25 09
       50 12 56 43 -46 20 15 -127 0 8 126 -7 127 -18 37 9
000070 fc 10 1e 39 ef 35 16 7f e4 a6 a8 85 81 b8 f9 60
       -4 16 30 57 -17 53 22 127 -28 -90 -88 -123 -127 -72 -7 96
000080 00 00 00 00 00 00 00 00 09 fa ed 0d 81 4a 46 e6
       0 0 0 0 0 0 0 0 9 -6 -19 13 -127 74 70 -26
000090 08 f3 de 00 1f f9 f3 7f 00 00 48 7f a5 38 e6 d0
       8 -13 -34 0 31 -7 -13 127 0 0 72 127 -91 56 -26 -48
0000a0 81 19 0d c3 e0 12 ef 16 f5 ee 81 b2 37 b9 ce 68
       -127 25 13 -61 -32 18 -17 22 -11 -18 -127 -78 55 -71 -50 104
0000b0 13 7b 01 0e 01 fa 81 08 f5 ef f6 c7 1d 87 15 81
       19 123 1 14 1 -6 -127 8 -11 -17 -10 -57 29 -121 21 -127
0000c0 e7 0c a2 e0 7f cc c8 4f 00 00 00 00 00 00 00 00
       -25 12 -94 -32 127 -52 -56 79 0 0 0 0 0 0 0 0
0000d0 39 50 68 3c 81 57 a6 e3 f7 ff 7f 06 75 44 fc 20
       57 80 104 60 -127 87 -90 -29 -9 -1 127 6 117 68 -4 32
0000e0 e7 da 4d 7f 9b 58 41 56 81 09 00 01 fe ff f6 fd
       -25 -38 77 127 -101 88 65 86 -127 9 0 1 -2 -1 -10 -3
0000f0 fd e2 df dc 0c b7 c9 81 f6 f6 81 03 94 ee 13 fb
       -3 -30 -33 -36 12 -73 -55 -127 -10 -10 -127 3 -108 -18 19 -5

mobilenet_v2_alpha_0.35/batch_normalization_4/FusedBatchNormV3;mobilenet_v2_alpha_0.35/depthwise_conv2d_1/depthwise;mobilenet_v2_alpha_0.35/depthwise_conv2d_3/depthwise i1 [1, 3, 3, 48]
000000 fd de 05 9d 05 95 b3 d8 ef 12 1e d0 f6 70 fa 94
       -3 -34 5 -99 5 -107 -77 -40 -17 18 30 -48 -10 112 -6 -108
000010 26 31 d7 c1 fc 9a 90 25 0b 19 e8 81 21 81 30 cb
       38 49 -41 -63 -4 -102 -112 37 11 25 -24 -127 33 -127 48 -53
000020 06 7f 38 db a7 63 ad b8 a9 a2 cd e2 56 4a 2f eb
       6 127 56 -37 -89 99 -83 -72 -87 -94 -51 -30 86 74 47 -21
000030 44 08 68 8a 1f 59 81 ce 0c 04 2f 4c 59 6d bf 92
       68 8 104 -118 31 89 -127 -50 12 4 47 76 89 109 -65 -110
000040 2b 3e c0 81 31 e3 38 63 65 2b 90 46 52 14 5e ef
       43 62 -64 -127 49 -29 56 99 101 43 -112 70 82 20 94 -17
000050 74 38 08 81 a3 6b 87 cb 5f fa 71 d6 7f a7 36 08
       116 56 8 -127 -93 107 -121 -53 95 -6 113 -42 127 -89 54 8
000060 21 13 ef f7 40 61 b8 94 28 fc 16 71 b5 07 00 00
       33 19 -17 -9 64 97 -72 -108 40 -4 22 113 -75 7 0 0
000070 2d 29 ce 0f be 7f 7f 1c 8b ec a7 fa 15 6b 27 00
       45 41 -50 15 -66 127 127 28 -117 -20 -89 -6 21 107 39 0
000080 a0 03 31 de d1 f7 f9 7f fd 6c 7f 07 2b 0e fd 0c
       -96 3 49 -34 -47 -9 -7 127 -3 108 127 7 43 14 -3 12
000090 1e f5 01 9a e5 86 3a b7 d6 57 12 fe e1 7f 33 81
       30 -11 1 -102 -27 -122 58 -73 -42 87 18 -2 -31 127 51 -127
0000a0 37 2d 1b e0 b8 b8 b7 ca 06 1e fe 76 be ed 14 7f
       55 45 27 -32 -72 -72 -73 -54 6 30 -2 118 -66 -19 20 127
0000b0 d2 32 c2 03 98 72 9c c9 96 2f c9 af aa 6f 09 da
       -46 50 -62 3 -104 114 -100 -55 -106 47 -55 -81 -86 111 9 -38
0000c0 4f 7f 81 81 3b 7f 6f ce 7f 81 fb 07 7f 7e 7f 8c
       79 127 -127 -127 59 127 111 -50 127 -127 -5 7 127 126 127 -116
0000d0 52 3f 66 83 39 e4 13 81 7f 63 fd bb 81 24 00 1c
       82 63 102 -125 57 -28 19 -127 127 99 -3 -69 -127 36 0 28
0000e0 6a fd 81 fd 81 7f 81 d4 7f 47 79 5c 04 81 41 7f
       106 -3 -127 -3 -127 127 -127 -44 127 71 121 92 4 -127 65 127
0000f0 37 61 14 f4 06 79 31 81 56 15 0e 11 9d 04 34 fc
       55 97 20 -12 6 121 49 -127 86 21 14 17 -99 4 52 -4

mobilenet_v2_alpha_0.35/conv2d_3/Conv2D i1 [8, 1, 1, 48]
000000 00 f8 01 f9 1d f0 f4 18 1d 0d 00 dd b9 f0 01 00
       0 -8 1 -7 29 -16 -12 24 29 13 0 -35 -71 -16 1 0
000010 00 03 ee dd 10 f0 7b fc 27 00 ea 07 f9 31 ed 02
       0 3 -18 -35 16 -16 123 -4 39 0 -22 7 -7 49 -19 2
000020 23 f9 e2 18 01 fe 14 fd 81 82 28 60 ed 86 10 f7
       35 -7 -30 24 1 -2 20 -3 -127 -126 40 96 -19 -122 16 -9
000030 00 fa 96 14 ff fe e9 0b fd 9d 01 02 00 d6 d9 2f
       0 -6 -106 20 -1 -2 -23 11 -3 -99 1 2 0 -42 -39 47
000040 00 d9 fd f9 0b 15 fd e5 f7 00 09 8f 19 02 01 81
       0 -39 -3 -7 11 21 -3 -27 -9 0 9 -113 25 2 1 -127
000050 29 03 ff 08 0d ef 16 00 09 01 0f f8 f5 ff af 05
       41 3 -1 8 13 -17 22 0 9 1 15 -8 -11 -1 -81 5
000060 00 f8 03 03 15 12 e2 f7 ed 05 3e 6d fb 00 0b 05
       0 -8 3 3 21 18 -30 -9 -19 5 62 109 -5 0 11 5
000070 00 0b f5 a5 d0 13 10 fa 0a 00 e6 fc f4 81 c6 fc
       0 11 -11 -91 -48 19 16 -6 10 0 -26 -4 -12 -127 -58 -4
000080 b2 00 f0 2b 05 f8 fd f3 07 de dd 13 d2 11 f8 f2
       -78 0 -16 43 5 -8 -3 -13 7 -34 -35 19 -46 17 -8 -14
000090 00 de fa fc 09 db 39 06 ec f7 ae 40 f6 f5 f6 02
       0 -34 -6 -4 9 -37 57 6 -20 -9 -82 64 -10 -11 -10 2
0000a0 00 f0 27 7f e0 d8 1a 01 fc 00 d3 fa 12 b7 5c f8
       0 -16 39 127 -32 -40 26 1 -4 0 -45 -6 18 -73 92 -8
0000b0 bf ea 33 bd ff ff 04 1f f8 d1 e8 20 24 f0 fd f6
       -65 -22 51 -67 -1 -1 4 31 -8 -47 -24 32 36 -16 -3 -10
0000c0 00 0e d8 91 18 21 e8 b3 1f e9 fa fb f3 73 f4 ca
       0 14 -40 -111 24 33 -24 -77 31 -23 -6 -5 -13 115 -12 -54
0000d0 00 4f 07 05 0b 18 05 d0 01 00 ec e4 63 01 22 db
       0 79 7 5 11 24 5 -48 1 0 -20 -28 99 1 34 -37
0000e0 d6 fc a9 fa 82 7f 92 fa 08 01 0b 0b dd 17 ec 00
       -42 -4 -87 -6 -126 127 -110 -6 8 1 11 11 -35 23 -20 0
0000f0 00 02 06 03 e8 ff 02 0e f1 09 ff 22 d4 fe fd f8
       0 2 6 3 -24 -1 2 14 -15 9 -1 34 -44 -2 -3 -8

mobilenet_v2_alpha_0.35/conv2d_4/Conv2D i1 [48, 1, 1, 8]
000000 81 d5 ce ac 10 5d fe 3c 0b ad 46 b4 f0 d8 81 d9
       -127 -43 -50 -84 16 93 -2 60 11 -83 70 -76 -16 -40 -127 -39
000010 00 00 00 00 00 00 00 00 81 0f 43 fc d9 a4 04 f5
       0 0 0 0 0 0 0 0 -127 15 67 -4 -39 -92 4 -11
000020 d0 e8 c7 5a c8 d8 81 e4 8b 0a 20 ec fe 7f f6 0b
       -48 -24 -57 90 -56 -40 -127 -28 -117 10 32 -20 -2 127 -10 11
000030 e8 0c 9a 7f e7 06 1d e3 bd 19 1b 28 df 7f fc df
       -24 12 -102 127 -25 6 29 -29 -67 25 27 40 -33 127 -4 -33
000040 02 59 3e dd 2e fd 7f ee 14 f5 7f 7f f1 00 06 e6
       2 89 62 -35 46 -3 127 -18 20 -11 127 127 -15 0 6 -26
000050 e7 fd 81 9e 0b 18 f8 ff 2e f4 0b 11 f0 08 f4 7f
       -25 -3 -127 -98 11 24 -8 -1 46 -12 11 17 -16 8 -12 127
000060 81 11 42 15 de 7a ea f6 ea e7 2e 1c 02 bc 1d 7f
       -127 17 66 21 -34 122 -22 -10 -22 -25 46 28 2 -68 29 127
000070 81 d4 fa f1 af 98 6d ea fd 03 9a 36 e1 04 7f 3a
       -127 -44 -6 -15 -81 -104 109 -22 -3 3 -102 54 -31 4 127 58
000080 fc 7f 03 08 13 01 e5 0a ce fd ff 01 e3 bf 0b 7f
       -4 127 3 8 19 1 -27 10 -50 -3 -1 1 -29 -65 11 127
000090 18 f5 3a 8f b8 05 81 10 03 86 21 aa c2 fc 81 f6
       24 -11 58 -113 -72 5 -127 16 3 -122 33 -86 -62 -4 -127 -10
0000a0 07 df 4d 81 f0 0f ab 15 14 a8 06 f1 7f 13 e6 c5
       7 -33 77 -127 -16 15 -85 21 20 -88 6 -15 127 19 -26 -59
0000b0 68 ad bd 07 b0 7f ba 0b 81 40 0b e8 f1 ad 04 de
       104 -83 -67 7 -80 127 -70 11 -127 64 11 -24 -15 -83 4 -34
0000c0 08 30 ff fa 25 06 7f 0a e9 14 0b f5 d2 fb 1a 81
       8 48 -1 -6 37 6 127 10 -23 20 11 -11 -46 -5 26 -127
0000d0 7f 22 79 7d c5 81 21 d5 7f 0b 0f 00 ee 7a fc 53
       127 34 121 125 -59 -127 33 -43 127 11 15 0 -18 122 -4 83
0000e0 f2 eb 0d 06 09 df f3 7f 25 56 47 c0 fa 00 7f 38
       -14 -21 13 6 9 -33 -13 127 37 86 71 -64 -6 0 127 56
0000f0 0e de 1c 81 d1 f2 85 f5 fe fe 7f 58 0a 01 fd f1
       14 -34 28 -127 -47 -14 -123 -11 -2 -2 127 88 10 1 -3 -15

mobilenet_v2_alpha_0.35/batch_normalization_7/FusedBatchNormV3;mobilenet_v2_alpha_0.35/depthwise_conv2d_2/depthwise;mobilenet_v2_alpha_0.35/depthwise_conv2d_3/depthwise i1 [1, 3, 3, 48]
000000 c2 b3 7f 00 07 f6 ef 01 05 e6 d2 f2 4e 06 03 e5
       -62 -77 127 0 7 -10 -17 1 5 -26 -46 -14 78 6 3 -27
000010 fa fe 11 ef 7f f8 0c 05 00 f7 f9 03 00 04 d2 de
       -6 -2 17 -17 127 -8 12 5 0 -9 -7 3 0 4 -46 -34
000020 ea 03 04 07 fb 03 07 f6 f9 03 0c d5 f7 88 ae e9
       -22 3 4 7 -5 3 7 -10 -7 3 12 -43 -9 -120 -82 -23
000030 8e 81 5c be 25 99 2c eb fe 20 7f fc 7f f1 cd 4c
       -114 -127 92 -66 37 -103 44 -21 -2 32 127 -4 127 -15 -51 76
000040 04 0c 81 ad ef ec ff 03 18 fc d8 06 be f3 81 c1
       4 12 -127 -83 -17 -20 -1 3 24 -4 -40 6 -66 -13 -127 -63
000050 1a e9 f9 d6 06 81 5d fc d0 d9 d3 9d 02 69 0e 05
       26 -23 -7 -42 6 -127 93 -4 -48 -39 -45 -99 2 105 14 5
000060 f6 e2 6b fd ff 2e ec 2e 01 fe ab 00 19 f3 03 d1
       -10 -30 107 -3 -1 46 -20 46 1 -2 -85 0 25 -13 3 -47
000070 02 f3 1e e6 b8 fa 15 01 fd 02 37 00 f9 05 ef 13
       2 -13 30 -26 -72 -6 21 1 -3 2 55 0 -7 5 -17 19
000080 04 f9 fe 0c 13 02 d4 07 fe 8e 15 ad 07 04 01 f7
       4 -7 -2 12 19 2 -44 7 -2 -114 21 -83 7 4 1 -9
000090 4b 2c 0d f6 ee 29 f3 00 e6 99 b2 70 b7 a8 e7 35
       75 44 13 -10 -18 41 -13 0 -26 -103 -78 112 -73 -88 -25 53
0000a0 13 d2 07 7f a4 eb 72 ef 0d 7f 18 01 d5 22 6a 43
       19 -46 7 127 -92 -21 114 -17 13 127 24 1 -43 34 106 67
0000b0 8c e1 04 0f 1d 09 d7 ac 03 f5 ea 1b 81 7f 81 d3
       -116 -31 4 15 29 9 -41 -84 3 -11 -22 27 -127 127 -127 -45
0000c0 7f 7c 30 7f 81 7f 7f 81 7f 7f fa 81 89 7f 7f 81
       127 124 48 127 -127 127 127 -127 127 127 -6 -127 -119 127 127 -127
0000d0 81 7f a7 0f f3 7f a4 81 7f cc 81 81 7f 81 9b 7f
       -127 127 -89 15 -13 127 -92 -127 127 -52 -127 -127 127 -127 -101 127
0000e0 7f d6 7f ed 7f 79 84 7f 7f 9f e4 7f 70 96 79 de
       127 -42 127 -19 127 121 -124 127 127 -97 -28 127 112 -106 121 -34
0000f0 0c 1b 3e f1 07 84 e3 6b a3 ea 3f 0a f4 ff ec 3f
       12 27 62 -15 7 -124 -29 107 -93 -22 63 10 -12 -1 -20 63

mobilenet_v2_alpha_0.35/conv2d_5/Conv2D i1 [8, 1, 1, 48]
000000 f1 fb 00 a4 f4 81 ec f5 0a 05 23 12 02 ff 2c f2
       -15 -5 0 -92 -12 -127 -20 -11 10 5 35 18 2 -1 44 -14
000010 01 c6 07 0d 02 b7 08 4a f0 c2 cb 28 e7 fb f2 ea
       1 -58 7 13 2 -73 8 74 -16 -62 -53 40 -25 -5 -14 -22
000020 fc 17 c8 17 e4 f9 69 da 30 00 02 02 d1 08 e2 df
       -4 23 -56 23 -28 -7 105 -38 48 0 2 2 -47 8 -30 -33
000030 14 15 00 cb 15 f1 fc 3d b5 34 0a 1b 23 d2 16 c0
       20 21 0 -53 21 -15 -4 61 -75 52 10 27 35 -46 22 -64
000040 81 28 02 15 1e 9c fe f1 e3 fe 18 d3 e6 ee ed f5
       -127 40 2 21 30 -100 -2 -15 -29 -2 24 -45 -26 -18 -19 -11
000050 c7 0b 0f 29 24 05 de 25 d4 00 ce 1d 05 e0 00 03
       -57 11 15 41 36 5 -34 37 -44 0 -50 29 5 -32 0 3
000060 fe 05 00 12 13 11 d9 ff 05 1b 75 2b 10 13 17 0d
       -2 5 0 18 19 17 -39 -1 5 27 117 43 16 19 23 13
000070 e8 12 f0 04 fe ee 13 f3 0e d1 fd f8 14 0e a9 7f
       -24 18 -16 4 -2 -18 19 -13 14 -47 -3 -8 20 14 -87 127
000080 07 3b f1 32 41 02 f2 08 ef 00 30 a9 c2 0f 14 bf
       7 59 -15 50 65 2 -14 8 -17 0 48 -87 -62 15 20 -65
000090 e7 12 00 de f5 ff 3c 27 ec 11 70 cd 0e f9 f7 e9
       -25 18 0 -34 -11 -1 60 39 -20 17 112 -51 14 -7 -9 -23
0000a0 eb fb 12 e8 03 03 fa 09 ec 59 ed fe e1 f2 7f 71
       -21 -5 18 -24 3 3 -6 9 -20 89 -19 -2 -31 -14 127 113
0000b0 f3 95 1e a7 27 f9 1d 07 27 00 ce c5 5b fb d9 6d
       -13 -107 30 -89 39 -7 29 7 39 0 -50 -59 91 -5 -39 109
0000c0 e6 ec 00 de e0 e4 f3 30 d1 1a fa 1d e4 ca 43 d4
       -26 -20 0 -34 -32 -28 -13 48 -47 26 -6 29 -28 -54 67 -44
0000d0 3a 0e 09 12 60 43 e4 00 dd f5 19 a1 1e d0 04 12
       58 14 9 18 96 67 -28 0 -35 -11 25 -95 30 -48 4 18
0000e0 c4 1d 2f 55 0a c2 ed 20 fd 00 81 0a 10 cd 04 f3
       -60 29 47 85 10 -62 -19 32 -3 0 -127 10 16 -51 4 -13
0000f0 2b ed 00 b3 ea 7f f3 d3 fe db f0 ea fc f0 26 e9
       43 -19 0 -77 -22 127 -13 -45 -2 -37 -16 -22 -4 -16 38 -23

mobilenet_v2_alpha_0.35/conv2d_6/Conv2D i1 [48, 1, 1, 8]
000000 49 ee 75 7f 03 be 04 fa 06 81 04 f9 0e 0e 01 f8
       73 -18 117 127 3 -66 4 -6 6 -127 4 -7 14 14 1 -8
000010 85 26 81 d9 e8 70 ee 05 e9 f4 7f 47 f6 19 03 fc
       -123 38 -127 -39 -24 112 -18 5 -23 -12 127 71 -10 25 3 -4
000020 7f 06 f6 2a 12 a1 07 07 12 18 cd 7f 5e 19 f6 a3
       127 6 -10 42 18 -95 7 7 18 24 -51 127 94 25 -10 -93
000030 15 2b cd 7f ba 22 73 e1 1c df 03 81 22 9c 9d 2d
       21 43 -51 127 -70 34 115 -31 28 -33 3 -127 34 -100 -99 45
000040 ee e2 b6 7f a4 ef 1b 47 15 00 81 a5 00 ee fc ff
       -18 -30 -74 127 -92 -17 27 71 21 0 -127 -91 0 -18 -4 -1
000050 06 3a ee 01 35 0f 7f fd 04 f0 eb b1 7f 84 bb 52
       6 58 -18 1 53 15 127 -3 4 -16 -21 -79 127 -124 -69 82
000060 81 db f1 db 05 7f 01 03 74 2f ff 1a 58 7e d5 7f
       -127 -37 -15 -37 5 127 1 3 116 47 -1 26 88 126 -43 127
000070 85 06 0f 01 04 7f f6 13 e4 a5 ec e7 a3 d1 fe 7f
       -123 6 15 1 4 127 -10 19 -28 -91 -20 -25 -93 -47 -2 127
000080 d5 66 f4 05 7f 86 d9 6d c1 a2 11 cb 7f c6 f4 4f
       -43 102 -12 5 127 -122 -39 109 -63 -94 17 -53 127 -58 -12 79
000090 d0 e6 9f 7f 0e d5 ec 0c 48 7f ed 36 84 45 21 e6
       -48 -26 -97 127 14 -43 -20 12 72 127 -19 54 -124 69 33 -26
0000a0 30 18 2d 81 47 ff ee d4 ec 0b 18 7f f0 13 0a ed
       48 24 45 -127 71 -1 -18 -44 -20 11 24 127 -16 19 10 -19
0000b0 81 0c fc ac 11 5d de 41 16 0b 1f 81 ec 03 d6 fc
       -127 12 -4 -84 17 93 -34 65 22 11 31 -127 -20 3 -42 -4
0000c0 7f f3 c9 15 fe 8d 0e f0 af df 28 e8 e1 81 12 13
       127 -13 -55 21 -2 -115 14 -16 -81 -33 40 -24 -31 -127 18 19
0000d0 5c 2c 3b 81 37 f4 f9 08 f6 13 0c 01 e5 da 81 10
       92 44 59 -127 55 -12 -7 8 -10 19 12 1 -27 -38 -127 16
0000e0 2f 3b c1 7f e6 3b 7e b9 fe f9 a3 6b 24 81 b0 f5
       47 59 -63 127 -26 59 126 -71 -2 -7 -93 107 36 -127 -80 -11
0000f0 01 13 22 81 25 00 f9 2a 81 0e e7 de 01 73 0a 15
       1 19 34 -127 37 0 -7 42 -127 14 -25 -34 1 115 10 21

mobilenet_v2_alpha_0.35/batch_normalization_10/FusedBatchNormV3;mobilenet_v2_alpha_0.35/depthwise_conv2d_3/depthwise i1 [1, 3, 3, 48]
000000 5b 3c c8 cc 8c 43 bf cd 2c 3e bf 59 15 34 1b a9
       91 60 -56 -52 -116 67 -65 -51 44 62 -65 89 21 52 27 -87
000010 c1 31 b1 19 20 eb 50 8e 3d c9 75 32 2e d3 a2 13
       -63 49 -79 25 32 -21 80 -114 61 -55 117 50 46 -45 -94 19
000020 ce 6c 3f 37 d8 3e b9 38 db 43 ac 58 c9 21 bc 32
       -50 108 63 55 -40 62 -71 56 -37 67 -84 88 -55 33 -68 50
000030 78 5f a7 b3 7f 3f 7b 84 55 5d a9 68 7f 4c 4c 9d
       120 95 -89 -77 127 63 123 -124 85 93 -87 104 127 76 76 -99
000040 b3 63 f6 b5 4b d2 19 81 4e b7 23 52 58 81 1f 94
       -77 99 -10 -75 75 -46 25 -127 78 -73 35 82 88 -127 31 -108
000050 a0 53 5c 4e c4 56 98 52 b1 5c 9d dd b5 b5 9d 4d
       -96 83 92 78 -60 86 -104 82 -79 92 -99 -35 -75 -75 -99 77
000060 35 26 d4 d8 65 0a 12 f4 29 32 d3 34 55 22 2d d8
       53 38 -44 -40 101 10 18 -12 41 50 -45 52 85 34 45 -40
000070 d8 42 49 3e 30 da ae bd 24 eb 81 22 39 a4 6c f1
       -40 66 73 62 48 -38 -82 -67 36 -21 -127 34 57 -92 108 -15
000080 c8 ea 2a 21 e2 1c ce 25 cb 2d ca ca de c1 d9 1e
       -56 -22 42 33 -30 28 -50 37 -53 45 -54 -54 -34 -63 -39 30
000090 5e 5d ac 9c 73 4d 64 7f 51 5e a2 10 a1 5e 44 b3
       94 93 -84 -100 115 77 100 127 81 94 -94 16 -95 94 68 -77
0000a0 a1 45 81 34 4e c4 10 fe 60 95 ee 53 52 18 83 7f
       -95 69 -127 52 78 -60 16 -2 96 -107 -18 83 82 24 -125 127
0000b0 a2 5d 62 52 b6 5d 9c 58 b5 5d 9f 7f ab 5b a1 53
       -94 93 98 82 -74 93 -100 88 -75 93 -97 127 -85 91 -95 83
0000c0 7f 7f 81 81 71 7f 81 d5 7f 7f 81 f6 91 7f 7f 81
       127 127 -127 -127 113 127 -127 -43 127 127 -127 -10 -111 127 127 -127
0000d0 81 7f 12 81 7f 81 7f 19 7f 81 0f 7f 7f 1c 09 93
       -127 127 18 -127 127 -127 127 25 127 -127 15 127 127 28 9 -109
0000e0 81 ae 7f 7f 81 7f 81 7f 81 7f 81 bd 81 7f 81 7f
       -127 -82 127 127 -127 127 -127 127 -127 127 -127 -67 -127 127 -127 127
0000f0 48 3a b3 c7 c5 36 ee bb 3b 44 bf e3 3a 31 44 bc
       72 58 -77 -57 -59 54 -18 -69 59 68 -65 -29 58 49 68 -68

mobilenet_v2_alpha_0.35/conv2d_7/Conv2D i1 [16, 1, 1, 48]
000000 03 7f e8 01 ff bf fe fe 28 f2 03 f3 fc fb 07 ce
       3 127 -24 1 -1 -65 -2 -2 40 -14 3 -13 -4 -5 7 -50
000010 1d 20 fc 04 c6 14 ff f3 f3 e1 0b fa 19 eb f8 00
       29 32 -4 4 -58 20 -1 -13 -13 -31 11 -6 25 -21 -8 0
000020 e4 ef fe 3c e8 1a 09 1b ed 1a 06 1d 09 fb 19 ee
       -28 -17 -2 60 -24 26 9 27 -19 26 6 29 9 -5 25 -18
000030 0b b8 ce 1c 0d 09 e8 e4 fb 16 04 9d db 81 16 21
       11 -72 -50 28 13 9 -24 -28 -5 22 4 -99 -37 -127 22 33
000040 01 4e 4d 3a c1 25 eb 14 93 3a 06 f8 fb c9 5b 0b
       1 78 77 58 -63 37 -21 20 -109 58 6 -8 -5 -55 91 11
000050 18 0b 20 dd ca e7 ca 33 34 0e 07 54 40 d5 c7 8a
       24 11 32 -35 -54 -25 -54 51 52 14 7 84 64 -43 -57 -118
000060 1d f0 10 f0 09 f5 f4 02 ef 81 fd ed 0b f9 eb f7
       29 -16 16 -16 9 -11 -12 2 -17 -127 -3 -19 11 -7 -21 -9
000070 06 05 0c fe 00 01 0d ff 5e fe ff f1 01 f3 f9 15
       6 5 12 -2 0 1 13 -1 94 -2 -1 -15 1 -13 -7 21
000080 e0 02 28 08 25 df 11 0a dc ad 09 09 a5 fd f9 f6
       -32 2 40 8 37 -33 17 10 -36 -83 9 9 -91 -3 -7 -10
000090 f6 31 ff 13 fc cd 00 0d 81 05 e9 fb ef 1c f9 0b
       -10 49 -1 19 -4 -51 0 13 -127 5 -23 -5 -17 28 -7 11
0000a0 01 12 fe 05 57 1b f3 06 e7 01 00 d0 fa f1 07 fd
       1 18 -2 5 87 27 -13 6 -25 1 0 -48 -6 -15 7 -3
0000b0 ff fc 2d 3a f0 ff 1a eb 2d 04 14 fb 13 01 e8 fa
       -1 -4 45 58 -16 -1 26 -21 45 4 20 -5 19 1 -24 -6
0000c0 d9 ee fc e7 16 f3 fb 11 0d 07 27 ed fd d8 08 fb
       -39 -18 -4 -25 22 -13 -5 17 13 7 39 -19 -3 -40 8 -5
0000d0 f7 16 41 0c e2 c4 07 c7 4e 0f 1e 2b 05 f5 19 18
       -9 22 65 12 -30 -60 7 -57 78 15 30 43 5 -11 25 24
0000e0 1c 19 7f 0a f6 f7 1b db f0 c5 05 0f 57 fe d9 c6
       28 25 127 10 -10 -9 27 -37 -16 -59 5 15 87 -2 -39 -58
0000f0 f5 f6 30 f6 fc fc 01 07 0d 02 fc 09 fb f8 81 06
       -11 -10 48 -10 -4 -4 1 7 13 2 -4 9 -5 -8 -127 6

mobilenet_v2_alpha_0.35/conv2d_8/Conv2D i1 [96, 1, 1, 16]
000000 f2 07 2b e8 19 81 10 01 f0 ee 4b ff 1c 3b 07 f9
       -14 7 43 -24 25 -127 16 1 -16 -18 75 -1 28 59 7 -7
000010 dd 0e 81 ea 0a fb 08 1a 58 b2 e8 1f 04 dd de ec
       -35 14 -127 -22 10 -5 8 26 88 -78 -24 31 4 -35 -34 -20
000020 a2 81 bd b1 56 f7 3f 4e d2 21 e5 44 04 f1 fd d5
       -94 -127 -67 -79 86 -9 63 78 -46 33 -27 68 4 -15 -3 -43
000030 e7 ca 02 34 f4 05 f7 f5 03 ea 14 7f d7 02 02 29
       -25 -54 2 52 -12 5 -9 -11 3 -22 20 127 -41 2 2 41
000040 c0 0d e2 e2 f2 de db 0d 7f 4b 3c 22 df 3d f7 6d
       -64 13 -30 -30 -14 -34 -37 13 127 75 60 34 -33 61 -9 109
000050 13 0c 37 68 81 17 8f ae 21 34 7f 98 fc d0 f6 ed
       19 12 55 104 -127 23 -113 -82 33 52 127 -104 -4 -48 -10 -19
000060 0e 0d a6 7f 32 df d0 07 0b d9 5a 04 2b 04 3d f0
       14 13 -90 127 50 -33 -48 7 11 -39 90 4 43 4 61 -16
000070 16 1a ed 2c d1 7f 04 21 aa 0c d1 ff 22 3f 36 2d
       22 26 -19 44 -47 127 4 33 -86 12 -47 -1 34 63 54 45
000080 12 e5 30 f7 4f 7f f8 11 f3 d2 29 06 f7 da ee 0c
       18 -27 48 -9 79 127 -8 17 -13 -46 41 6 -9 -38 -18 12
000090 0b 4e 23 6b 94 11 da fe 1d 9b 5a 82 a3 04 81 d7
       11 78 35 107 -108 17 -38 -2 29 -101 90 -126 -93 4 -127 -41
0000a0 f8 e7 1a 69 d3 d3 c3 25 47 3c 81 e6 ee ff d9 f2
       -8 -25 26 105 -45 -45 -61 37 71 60 -127 -26 -18 -1 -39 -14
0000b0 4e de 22 fd e4 ef 59 02 17 d8 f7 f4 ec f9 7f 5a
       78 -34 34 -3 -28 -17 89 2 23 -40 -9 -12 -20 -7 127 90
0000c0 0d 39 26 d8 81 b4 02 5f 0c e6 08 09 08 1a eb fa
       13 57 38 -40 -127 -76 2 95 12 -26 8 9 8 26 -21 -6
0000d0 aa 33 1d fb 28 12 c9 08 1f 10 16 f4 f9 f9 f0 81
       -86 51 29 -5 40 18 -55 8 31 16 22 -12 -7 -7 -16 -127
0000e0 1c 0e 06 d4 6d 79 fd 7f d4 af 10 21 3a 3d 2e 09
       28 14 6 -44 109 121 -3 127 -44 -81 16 33 58 61 46 9
0000f0 0a d3 81 ac 63 84 2a 40 bb 2b c1 61 22 f9 32 e4
       10 -45 -127 -84 99 -124 42 64 -69 43 -63 97 34 -7 50 -28

mobilenet_v2_alpha_0.35/batch_normalization_13/FusedBatchNormV3;mobilenet_v2_alpha_0.35/depthwise_conv2d_4/depthwise;mobilenet_v2_alpha_0.35/depthwise_conv2d_6/depthwise i1 [1, 3, 3, 96]
000000 3b 02 31 f9 04 39 02 20 d1 1b 8a 03 cb 07 00 81
       59 2 49 -7 4 57 2 32 -47 27 -118 3 -53 7 0 -127
000010 f2 2a 14 2c 0d fc 12 1f 0b 29 06 ff d1 04 07 0a
       -14 42 20 44 13 -4 18 31 11 41 6 -1 -47 4 7 10
000020 fd 08 01 fc ef 10 fc b1 dd e7 35 1a 0b e1 fe d5
       -3 8 1 -4 -17 16 -4 -79 -35 -25 53 26 11 -31 -2 -43
000030 0e 0d 1a fe 31 01 0f e9 f0 04 fc 07 ee f3 f7 2e
       14 13 26 -2 49 1 15 -23 -16 4 -4 7 -18 -13 -9 46
000040 02 f4 ea f8 08 ff fd 34 05 e1 0e f9 ea 09 11 f6
       2 -12 -22 -8 8 -1 -3 52 5 -31 14 -7 -22 9 17 -10
000050 7f d5 fa 0b fb f4 d6 e3 a5 27 c1 00 d3 21 fa 1b
       127 -43 -6 11 -5 -12 -42 -29 -91 39 -63 0 -45 33 -6 27
000060 7f 81 7f 12 81 27 15 0a d2 7f 10 fb c8 0c 15 66
       127 -127 127 18 -127 39 21 10 -46 127 16 -5 -56 12 21 102
000070 f8 ec 37 d8 7f e9 f8 14 df 7f f9 1a 81 10 01 0f
       -8 -20 55 -40 127 -23 -8 20 -33 127 -7 26 -127 16 1 15
000080 ce eb e0 0f ec 01 09 16 28 93 10 e9 62 ed 17 c2
       -50 -21 -32 15 -20 1 9 22 40 -109 16 -23 98 -19 23 -62
000090 e7 f7 33 81 25 7f 11 b8 e0 72 04 0a 81 81 81 17
       -25 -9 51 -127 37 127 17 -72 -32 114 4 10 -127 -127 -127 23
0000a0 57 cd 92 1e f7 16 fd 7f 81 f9 1a d4 ad f9 c4 fb
       87 -51 -110 30 -9 22 -3 127 -127 -7 26 -44 -83 -7 -60 -5
0000b0 53 27 ee e9 13 f6 1c 2c 17 d1 90 c7 ce 22 4e f8
       83 39 -18 -23 19 -10 28 44 23 -47 -112 -57 -50 34 78 -8
0000c0 04 10 0f ff ee f3 00 f9 e3 19 81 fd e0 fd 09 1d
       4 16 15 -1 -18 -13 0 -7 -29 25 -127 -3 -32 -3 9 29
0000d0 f5 13 03 f3 00 f7 f5 f0 10 0c 17 01 0f f3 11 05
       -11 19 3 -13 0 -9 -11 -16 16 12 23 1 15 -13 17 5
0000e0 0b 05 fc 08 22 14 ec b6 fd 46 d5 f7 d2 28 fa e8
       11 5 -4 8 34 20 -20 -74 -3 70 -43 -9 -46 40 -6 -24
0000f0 0f 10 29 ff 24 e6 09 14 fc ba f8 fc f7 0e f8 07
       15 16 41 -1 36 -26 9 20 -4 -70 -8 -4 -9 14 -8 7

mobilenet_v2_alpha_0.35/conv2d_9/Conv2D i1 [16, 1, 1, 96]
000000 e9 fa ae 27 fe c3 0b fe ee b7 ec 03 ce 06 0b 0e
       -23 -6 -82 39 -2 -61 11 -2 -18 -73 -20 3 -50 6 11 14
000010 ca e0 f4 f4 10 1f f1 d6 f8 c6 fd 0f d6 ee e5 e3
       -54 -32 -12 -12 16 31 -15 -42 -8 -58 -3 15 -42 -18 -27 -29
000020 b5 00 1e 18 04 1e 0a ec 0e fb 08 f7 e2 23 eb e4
       -75 0 30 24 4 30 10 -20 14 -5 8 -9 -30 35 -21 -28
000030 3f 10 fa cc f4 68 44 c4 f1 cd f4 ef 20 11 ff 0b
       63 16 -6 -52 -12 104 68 -60 -15 -51 -12 -17 32 17 -1 11
000040 ed 17 ea 1d 2d fd c1 e6 ea 05 d6 08 e0 d5 81 2f
       -19 23 -22 29 45 -3 -63 -26 -22 5 -42 8 -32 -43 -127 47
000050 1b fa f4 09 f3 13 21 c0 12 cb 18 fe eb 02 e5 15
       27 -6 -12 9 -13 19 33 -64 18 -53 24 -2 -21 2 -27 21
000060 da 13 fa f4 ff 27 2f db 02 0d ff 1c fa 31 00 0a
       -38 19 -6 -12 -1 39 47 -37 2 13 -1 28 -6 49 0 10
000070 fe f3 f9 50 c8 05 7a 4c 0c d1 5a 17 d6 1a e8 0f
       -2 -13 -7 80 -56 5 122 76 12 -47 90 23 -42 26 -24 15
000080 bf bc 03 f8 31 f4 19 c0 0d f2 20 54 42 39 f5 0b
       -65 -68 3 -8 49 -12 25 -64 13 -14 32 84 66 57 -11 11
000090 0e 14 0c 12 c0 cc de 0d 36 25 1b 34 ed ba ba fd
       14 20 12 18 -64 -52 -34 13 54 37 27 52 -19 -70 -70 -3
0000a0 2b e7 de 33 54 3b ea 01 e0 11 ff 21 e8 19 23 10
       43 -25 -34 51 84 59 -22 1 -32 17 -1 33 -24 25 35 16
0000b0 26 17 70 09 26 4a 02 de 43 01 b0 e6 1e d4 0f 7f
       38 23 112 9 38 74 2 -34 67 1 -80 -26 30 -44 15 127
0000c0 1c 01 21 12 24 ff ee 29 07 11 05 f9 03 e5 e5 1d
       28 1 33 18 36 -1 -18 41 7 17 5 -7 3 -27 -27 29
0000d0 f1 f8 25 06 19 f0 25 10 ef 27 bf 9a 0b eb 21 22
       -15 -8 37 6 25 -16 37 16 -17 39 -65 -102 11 -21 33 34
0000e0 11 1c 17 34 16 34 1f c0 0a 1c e0 f7 20 19 1d a1
       17 28 23 52 22 52 31 -64 10 28 -32 -9 32 25 29 -95
0000f0 18 ff d1 21 19 e3 0b 09 17 0b 01 e7 32 fa c1 06
       24 -1 -47 33 25 -29 11 9 23 11 1 -25 50 -6 -63 6

mobilenet_v2_alpha_0.35/conv2d_10/Conv2D i1 [96, 1, 1, 16]
000000 f1 ef e6 86 a5 07 94 06 cd f3 fe 7e db 47 7f 99
       -15 -17 -26 -122 -91 7 -108 6 -51 -13 -2 126 -37 71 127 -103
000010 52 e4 27 50 d5 d1 43 1d d1 1f 1b 41 29 c3 8c 7f
       82 -28 39 80 -43 -47 67 29 -47 31 27 65 41 -61 -116 127
000020 d2 03 18 42 29 d8 05 bc 69 02 2f 1c 98 cb 07 7f
       -46 3 24 66 41 -40 5 -68 105 2 47 28 -104 -53 7 127
000030 28 dd 20 81 04 01 22 21 af d2 d4 66 32 09 26 e0
       40 -35 32 -127 4 1 34 33 -81 -46 -44 102 50 9 38 -32
000040 06 d3 04 d6 15 81 1b 0c 16 f3 33 f9 f6 1b f4 f7
       6 -45 4 -42 21 -127 27 12 22 -13 51 -7 -10 27 -12 -9
000050 ed 1f f2 02 01 72 0a 81 24 d3 de f2 0f ce e4 ee
       -19 31 -14 2 1 114 10 -127 36 -45 -34 -14 15 -50 -28 -18
000060 ac f4 7f cc 76 7a e7 f8 3d b2 bf 09 ab d1 fe b3
       -84 -12 127 -52 118 122 -25 -8 61 -78 -65 9 -85 -47 -2 -77
000070 bb 4a 3a 46 d4 22 c5 d9 df 59 e2 55 e4 de 81 a4
       -69 74 58 70 -44 34 -59 -39 -33 89 -30 85 -28 -34 -127 -92
000080 53 fe 23 f3 e9 41 fd f3 7f 09 44 08 f6 36 f3 e9
       83 -2 35 -13 -23 65 -3 -13 127 9 68 8 -10 54 -13 -23
000090 ec b6 63 0e 1c 20 f4 81 07 1f df fe e5 f5 1c f3
       -20 -74 99 14 28 32 -12 -127 7 31 -33 -2 -27 -11 28 -13
0000a0 fc e8 02 30 0c 7f e1 82 20 da 1d de ea c3 04 da
       -4 -24 2 48 12 127 -31 -126 32 -38 29 -34 -22 -61 4 -38
0000b0 2a 1e 0c 7f f7 da c8 1e ff f6 f8 fd 01 20 19 ce
       42 30 12 127 -9 -38 -56 30 -1 -10 -8 -3 1 32 25 -50
0000c0 89 57 d5 1c 37 e0 04 f2 5b d3 2f 4c 81 e1 56 50
       -119 87 -43 28 55 -32 4 -14 91 -45 47 76 -127 -31 86 80
0000d0 f6 ed 13 08 ae 81 f6 3a 22 35 ed 0b 09 2d 05 e1
       -10 -19 19 8 -82 -127 -10 58 34 53 -19 11 9 45 5 -31
0000e0 81 e8 f2 22 10 07 19 fd 02 e4 1e 2f 15 f3 3e 09
       -127 -24 -14 34 16 7 25 -3 2 -28 30 47 21 -13 62 9
0000f0 c8 d7 bd 6c 22 0b d0 fd 05 4f ea b4 a3 73 81 03
       -56 -41 -67 108 34 11 -48 -3 5 79 -22 -76 -93 115 -127 3

mobilenet_v2_alpha_0.35/batch_normalization_16/FusedBatchNormV3;mobilenet_v2_alpha_0.35/depthwise_conv2d_5/depthwise;mobilenet_v2_alpha_0.35/depthwise_conv2d_6/depthwise i1 [1, 3, 3, 96]
000000 19 b2 ef 74 f4 3a 2c 0d 81 15 c8 ff 48 1f 97 00
       25 -78 -17 116 -12 58 44 13 -127 21 -56 -1 72 31 -105 0
000010 f4 30 2a 59 22 09 f7 c2 34 62 51 0a 13 0a 31 2f
       -12 48 42 89 34 9 -9 -62 52 98 81 10 19 10 49 47
000020 f2 0c 9a cb 2b ff ec 2c 1e 81 2d f5 7f ac 1f 14
       -14 12 -102 -53 43 -1 -20 44 30 -127 45 -11 127 -84 31 20
000030 11 89 d4 fb fe e7 08 69 cf 56 92 f4 31 3c 35 e6
       17 -119 -44 -5 -2 -25 8 105 -49 86 -110 -12 49 60 53 -26
000040 16 e6 81 0c eb 95 ff d2 dd ef 05 16 ff 2f e7 d0
       22 -26 -127 12 -21 -107 -1 -46 -35 -17 5 22 -1 47 -25 -48
000050 01 ac b3 f8 bd 51 94 db 2d 97 df fd 0b 25 9d 22
       1 -84 -77 -8 -67 81 -108 -37 45 -105 -33 -3 11 37 -99 34
000060 f9 7f 7f 2b f4 e7 09 40 34 28 81 e5 64 31 95 fe
       -7 127 127 43 -12 -25 9 64 52 40 -127 -27 100 49 -107 -2
000070 07 42 81 74 24 5c aa cf cb 1e 7f 02 4c 21 44 34
       7 66 -127 116 36 92 -86 -49 -53 30 127 2 76 33 68 52
000080 10 81 81 23 35 e4 fb d9 7f 9d 93 0e d5 46 e5 25
       16 -127 -127 35 53 -28 -5 -39 127 -99 -109 14 -43 70 -27 37
000090 02 81 87 ce 24 a9 a3 ac 7f 7f bf e8 e8 ee 60 7f
       2 -127 -121 -50 36 -87 -93 -84 127 127 -65 -24 -24 -18 96 127
0000a0 e2 7f 8a d3 04 97 d7 1d 98 fd 0b f0 eb 81 84 81
       -30 127 -118 -45 4 -105 -41 29 -104 -3 11 -16 -21 -127 -124 -127
0000b0 3a f7 89 c7 ee 75 07 81 e0 e8 4c 01 38 93 8d 40
       58 -9 -119 -57 -18 117 7 -127 -32 -24 76 1 56 -109 -115 64
0000c0 f1 ee da eb ea e9 2c fa 4d 1b fd 1a 09 31 e0 fa
       -15 -18 -38 -21 -22 -23 44 -6 77 27 -3 26 9 49 -32 -6
0000d0 03 f3 01 ed 08 04 3b 2f e5 d7 13 ee 0c 06 0e 32
       3 -13 1 -19 8 4 59 47 -27 -41 19 -18 12 6 14 50
0000e0 ea e6 c8 17 49 f7 18 d2 07 4e 21 fa 89 b0 25 19
       -22 -26 -56 23 73 -9 24 -46 7 78 33 -6 -119 -80 37 25
0000f0 e6 13 f1 03 f0 dd 1a f5 cd 14 83 fa cf c3 ec 20
       -26 19 -15 3 -16 -35 26 -11 -51 20 -125 -6 -49 -61 -20 32

mobilenet_v2_alpha_0.35/conv2d_11/Conv2D i1 [16, 1, 1, 96]
000000 0b 63 bb c0 d9 c6 11 d4 a3 f1 0f ab 01 fc 0a f5
       11 99 -69 -64 -39 -58 17 -44 -93 -15 15 -85 1 -4 10 -11
000010 d4 df 28 ad 17 00 0a e9 01 03 a3 15 9c 41 e8 df
       -44 -33 40 -83 23 0 10 -23 1 3 -93 21 -100 65 -24 -33
000020 aa 04 e7 66 e1 ae ce 6e ab 30 0f 1e b8 dd b2 17
       -86 4 -25 102 -31 -82 -50 110 -85 48 15 30 -72 -35 -78 23
000030 11 cd 9b 30 17 2e ed e1 15 08 ce 34 75 3e f5 35
       17 -51 -101 48 23 46 -19 -31 21 8 -50 52 117 62 -11 53
000040 67 be 0e 0b 0b ed dd 0b 93 c8 30 b0 94 16 04 e3
       103 -66 14 11 11 -19 -35 11 -109 -56 48 -80 -108 22 4 -29
000050 d8 7f f4 bd 01 f7 6e 4d ea 0c 18 fd e8 b1 06 11
       -40 127 -12 -67 1 -9 110 77 -22 12 24 -3 -24 -79 6 17
000060 03 25 49 ea 11 34 23 f6 81 38 0d 36 e9 0e 04 fd
       3 37 73 -22 17 52 35 -10 -127 56 13 54 -23 14 4 -3
000070 15 1c e2 f2 23 d8 e3 37 40 15 1d ea c8 1e 14 45
       21 28 -30 -14 35 -40 -29 55 64 21 29 -22 -56 30 20 69
000080 13 f8 2d 03 0e f5 04 21 de ce f3 a2 a1 f4 18 17
       19 -8 45 3 14 -11 4 33 -34 -50 -13 -94 -95 -12 24 23
000090 fa 10 dc a4 78 00 30 17 a4 00 f3 9a 30 01 11 14
       -6 16 -36 -92 120 0 48 23 -92 0 -13 -102 48 1 17 20
0000a0 2f fc 0a 14 fa 30 95 4c ff cf d1 35 4e 17 f1 ef
       47 -4 10 20 -6 48 -107 76 -1 -49 -47 53 78 23 -15 -17
0000b0 11 28 08 d3 44 1a 15 21 29 01 1e 07 1e 2c 18 14
       17 40 8 -45 68 26 21 33 41 1 30 7 30 44 24 20
0000c0 04 25 e2 04 40 32 f3 ee 86 98 d0 fe 08 f0 ef 09
       4 37 -30 4 64 50 -13 -18 -122 -104 -48 -2 8 -16 -17 9
0000d0 12 22 c9 f2 dc d8 d6 11 fd 0d f7 d9 0a 25 c4 7f
       18 34 -55 -14 -36 -40 -42 17 -3 13 -9 -39 10 37 -60 127
0000e0 df f2 c1 21 ce fa e2 17 1b e8 db fc a7 d6 12 09
       -33 -14 -63 33 -50 -6 -30 23 27 -24 -37 -4 -89 -42 18 9
0000f0 13 06 3e eb ee dc 35 2d b2 e3 0d 34 07 1c d3 ec
       19 6 62 -21 -18 -36 53 45 -78 -29 13 52 7 28 -45 -20

mobilenet_v2_alpha_0.35/conv2d_12/Conv2D i1 [96, 1, 1, 16]
000000 26 2e 8f 30 81 2b 56 09 f8 0b f4 fb df bc ef 3d
       38 46 -113 48 -127 43 86 9 -8 11 -12 -5 -33 -68 -17 61
000010 10 d4 2c 7f 05 ee e5 0f 32 fc 03 d7 2c de eb 00
       16 -44 44 127 5 -18 -27 15 50 -4 3 -41 44 -34 -21 0
000020 81 19 10 f4 0d 19 c5 2b e8 65 f5 6e 09 f5 c6 98
       -127 25 16 -12 13 25 -59 43 -24 101 -11 110 9 -11 -58 -104
000030 e3 ab 11 f3 d4 ff f4 01 17 56 81 0d 00 f8 f4 0d
       -29 -85 17 -13 -44 -1 -12 1 23 86 -127 13 0 -8 -12 13
000040 04 08 ee ea f6 81 1e f1 f2 29 2d f6 0d 08 f8 17
       4 8 -18 -22 -10 -127 30 -15 -14 41 45 -10 13 8 -8 23
000050 ba c7 27 28 0e ed f0 f5 dc e4 0a f3 eb 5b 8e 7f
       -70 -57 39 40 14 -19 -16 -11 -36 -28 10 -13 -21 91 -114 127
000060 de f4 2d cf 24 15 81 3e e3 ee 3b d4 1f cd ef a3
       -34 -12 45 -49 36 21 -127 62 -29 -18 59 -44 31 -51 -17 -93
000070 1f 81 fa 2c 5a ed b8 19 0f 09 01 e3 dd 31 22 0e
       31 -127 -6 44 90 -19 -72 25 15 9 1 -29 -35 49 34 14
000080 be 95 db dc 71 0a e0 e7 c5 53 f8 6b 7f fc 90 ca
       -66 -107 -37 -36 113 10 -32 -25 -59 83 -8 107 127 -4 -112 -54
000090 2a eb 28 05 04 42 02 f1 7f 60 05 42 54 60 f5 dd
       42 -21 40 5 4 66 2 -15 127 96 5 66 84 96 -11 -35
0000a0 0d 16 11 13 f2 23 02 0c ee e7 fa 7f ff 1f 08 f9
       13 22 17 19 -14 35 2 12 -18 -25 -6 127 -1 31 8 -7
0000b0 f8 b2 fb 89 21 6d 51 b8 e3 c5 d8 b7 07 81 85 75
       -8 -78 -5 -119 33 109 81 -72 -29 -59 -40 -73 7 -127 -123 117
0000c0 4c 17 34 0c 08 f3 c5 12 8f da af f9 e0 81 f5 1d
       76 23 52 12 8 -13 -59 18 -113 -38 -81 -7 -32 -127 -11 29
0000d0 fd e5 0b 81 09 1f 30 d7 dd ce fd 53 02 f7 2a bb
       -3 -27 11 -127 9 31 48 -41 -35 -50 -3 83 2 -9 42 -69
0000e0 fd e8 30 0c 19 d1 f0 7f fc 2f dd 18 1a 12 ef eb
       -3 -24 48 12 25 -47 -16 127 -4 47 -35 24 26 18 -17 -21
0000f0 e7 fb 06 44 13 05 01 f7 f4 f8 e7 7f 03 0f f7 05
       -25 -5 6 68 19 5 1 -9 -12 -8 -25 127 3 15 -9 5

mobilenet_v2_alpha_0.35/batch_normalization_19/FusedBatchNormV3;mobilenet_v2_alpha_0.35/depthwise_conv2d_6/depthwise i1 [1, 3, 3, 96]
000000 ba 42 48 49 9e 51 5b 56 55 58 5a 65 ac 5b a8 5a
       -70 66 72 73 -98 81 91 86 85 88 90 101 -84 91 -88 90
000010 49 7f 94 81 85 4d 81 55 47 7f 60 b4 5c 41 bb 54
       73 127 -108 -127 -123 77 -127 85 71 127 96 -76 92 65 -69 84
000020 76 9b 53 81 b5 b4 a5 ad 48 ce 94 ad 2c ad 50 32
       118 -101 83 -127 -75 -76 -91 -83 72 -50 -108 -83 44 -83 80 50
000030 a1 34 30 c6 81 66 54 c2 a1 ae 10 5d 45 b2 b2 aa
       -95 52 48 -58 -127 102 84 -62 -95 -82 16 93 69 -78 -78 -86
000040 41 7f af 88 43 a7 41 51 d2 94 c2 b2 8a 8f 9b 56
       65 127 -81 -120 67 -89 65 81 -46 -108 -62 -78 -118 -113 -101 86
000050 3f 99 64 9d 69 a5 01 47 be 4d 5d 51 4a 2b 62 b5
       63 -103 100 -99 105 -91 1 71 -66 77 93 81 74 43 98 -75
000060 a0 52 6c 5e 81 5c d1 74 70 66 c6 b0 a9 7f 90 7b
       -96 82 108 94 -127 92 -47 116 112 102 -58 -80 -87 127 -112 123
000070 6f dc ae ea 81 6c 98 7f 5e 79 ca 98 ac 59 9a 64
       111 -36 -82 -22 -127 108 -104 127 94 121 -54 -104 -84 89 -102 100
000080 7f 9d 64 86 9a aa 90 81 5f b9 87 96 55 a9 72 a8
       127 -99 100 -122 -102 -86 -112 -127 95 -71 -121 -106 85 -87 114 -88
000090 9a 42 51 b2 8f 6f 67 95 9f a6 6d 68 55 88 b9 9d
       -102 66 81 -78 -113 111 103 -107 -97 -90 109 104 85 -120 -71 -99
0000a0 58 78 a5 81 6f aa 61 67 a6 02 a2 90 34 97 8f 7f
       88 120 -91 -127 111 -86 97 103 -90 2 -94 -112 52 -105 -113 127
0000b0 4e 8c 7f af 7b a1 9b 4c 86 65 69 67 61 4a 7b a0
       78 -116 127 -81 123 -95 -101 76 -122 101 105 103 97 74 123 -96
0000c0 dd 2d 29 2c af 2a e1 3c 23 15 e1 c9 d8 33 d0 2b
       -35 45 41 44 -81 42 -31 60 35 21 -31 -55 -40 51 -48 43
0000d0 23 d1 ef 2e bb 38 b2 2f 2f 48 cd b2 eb 26 dc 2f
       35 -47 -17 46 -69 56 -78 47 47 72 -51 -78 -21 38 -36 47
0000e0 47 d7 23 a6 d6 e7 ce cc 2a db d5 bd 2d d9 2f 94
       71 -41 35 -90 -42 -25 -50 -52 42 -37 -43 -67 45 -39 47 -108
0000f0 c7 23 1f de 9d 1d 29 cd dc d8 5b 21 20 ca e4 ee
       -57 35 31 -34 -99 29 41 -51 -36 -40 91 33 32 -54 -28 -18

mobilenet_v2_alpha_0.35/conv2d_13/Conv2D i1 [24, 1, 1, 96]
000000 01 c9 3c f6 f7 cf fd f6 2b dc fb 19 2e f1 e5 0a
       1 -55 60 -10 -9 -49 -3 -10 43 -36 -5 25 46 -15 -27 10
000010 c0 f3 0d f4 04 94 fe 0a fe fd 07 ef 02 f3 1d 04
       -64 -13 13 -12 4 -108 -2 10 -2 -3 7 -17 2 -13 29 4
000020 11 f4 c6 07 c0 d9 28 01 ef ee f3 f5 1f f7 fc ff
       17 -12 -58 7 -64 -39 40 1 -17 -18 -13 -11 31 -9 -4 -1
000030 10 0a 13 0f 01 25 07 04 00 ca 0d 2f af f7 e2 e5
       16 10 19 15 1 37 7 4 0 -54 13 47 -81 -9 -30 -27
000040 7f 03 2a f5 f2 dd 06 e0 d5 0b 10 db 06 01 16 05
       127 3 42 -11 -14 -35 6 -32 -43 11 16 -37 6 1 22 5
000050 f3 18 1a 0f 0a e9 07 f9 02 25 2b cf df 05 24 c4
       -13 24 26 15 10 -23 7 -7 2 37 43 -49 -33 5 36 -60
000060 d4 e9 0b cb 1d a3 00 4a 4f e8 54 10 e0 13 e1 24
       -44 -23 11 -53 29 -93 0 74 79 -24 84 16 -32 19 -31 36
000070 bc ef cd 2a 17 cb ce 41 e3 11 1a ee 46 10 2a e1
       -68 -17 -51 42 23 -53 -50 65 -29 17 26 -18 70 16 42 -31
000080 e7 0c b8 d9 f8 1e 99 ef ca ea e4 c6 04 4a 62 23
       -25 12 -72 -39 -8 30 -103 -17 -54 -22 -28 -58 4 74 98 35
000090 e5 bf 04 18 e0 28 17 a6 13 f2 ef dd c7 da e8 d0
       -27 -65 4 24 -32 40 23 -90 19 -14 -17 -35 -57 -38 -24 -48
0000a0 95 1b 04 ef ef 03 44 05 1e e4 9c 0b 4f e6 dc c0
       -107 27 4 -17 -17 3 68 5 30 -28 -100 11 79 -26 -36 -64
0000b0 28 dd 20 20 38 61 01 52 10 3d 7f 1a 36 42 17 09
       40 -35 32 32 56 97 1 82 16 61 127 26 54 66 23 9
0000c0 13 17 dd 12 2c 07 52 06 f7 18 00 e5 08 cf e2 b1
       19 23 -35 18 44 7 82 6 -9 24 0 -27 8 -49 -30 -79
0000d0 19 2d df 0d 47 fe 40 ef 4a ed 28 05 ed 67 f4 1d
       25 45 -33 13 71 -2 64 -17 74 -19 40 5 -19 103 -12 29
0000e0 cb d2 22 fd f6 d2 f3 0e fb d9 ec b2 29 07 e5 ab
       -53 -46 34 -3 -10 -46 -13 14 -5 -39 -20 -78 41 7 -27 -85
0000f0 fa e2 f8 0e 01 f4 3b d4 01 12 d2 42 06 02 11 1c
       -6 -30 -8 14 1 -12 59 -44 1 18 -46 66 6 2 17 28

mobilenet_v2_alpha_0.35/conv2d_14/Conv2D i1 [144, 1, 1, 24]
000000 ae 39 1c a9 49 04 11 23 d4 27 9d be 7f f3 08 e6
       -82 57 28 -87 73 4 17 35 -44 39 -99 -66 127 -13 8 -26
000010 22 29 15 f3 9a e5 fa 0c 43 f0 05 ff db fb 1c 7f
       34 41 21 -13 -102 -27 -6 12 67 -16 5 -1 -37 -5 28 127
000020 0b 67 0e ec e3 2f 1b da c4 e0 11 36 0b 3c f5 ca
       11 103 14 -20 -29 47 27 -38 -60 -32 17 54 11 60 -11 -54
000030 f4 05 e0 45 43 bd 21 b1 2a 0a de 37 eb 25 04 13
       -12 5 -32 69 67 -67 33 -79 42 10 -34 55 -21 37 4 19
000040 0c 09 12 28 7f f7 46 54 a3 dc 00 45 bd 7b 1a 87
       12 9 18 40 127 -9 70 84 -93 -36 0 69 -67 123 26 -121
000050 81 f2 ae 1e e3 d2 48 ed 3b f8 03 cc eb cd 32 4d
       -127 -14 -82 30 -29 -46 72 -19 59 -8 3 -52 -21 -51 50 77
000060 fe 1d e3 00 03 81 f2 d6 db 31 7c ee 26 26 0d 24
       -2 29 -29 0 3 -127 -14 -42 -37 49 124 -18 38 38 13 36
000070 eb 40 b7 4b e8 5f 99 6f 0b 16 68 e4 fd 4a 5c 50
       -21 64 -73 75 -24 95 -103 111 11 22 104 -28 -3 74 92 80
000080 0e e8 02 40 10 5a 1c 81 e3 37 1f d5 20 18 ff 32
       14 -24 2 64 16 90 28 -127 -29 55 31 -43 32 24 -1 50
000090 81 f3 01 23 40 00 39 5c fa e7 2e 1d ee 44 0c 0d
       -127 -13 1 35 64 0 57 92 -6 -25 46 29 -18 68 12 13
0000a0 48 a9 f7 3e c2 e9 f9 e9 09 d4 c7 05 f9 1f 45 81
       72 -87 -9 62 -62 -23 -7 -23 9 -44 -57 5 -7 31 69 -127
0000b0 dd 0b ec fa 0a 08 d4 c7 d3 c3 1c f1 fe e4 13 de
       -35 11 -20 -6 10 8 -44 -57 -45 -61 28 -15 -2 -28 19 -34
0000c0 16 05 0d 0c 0f 11 18 b7 22 65 d2 e9 fd d3 bf 19
       22 5 13 12 15 17 24 -73 34 101 -46 -23 -3 -45 -65 25
0000d0 f2 03 ee 7f f3 e6 fc f6 dc f4 ff f5 e3 15 e6 96
       -14 3 -18 127 -13 -26 -4 -10 -36 -12 -1 -11 -29 21 -26 -106
0000e0 64 cb 1a 91 ff fd df c7 7f 1e 30 1f 30 ce 1d e4
       100 -53 26 -111 -1 -3 -33 -57 127 30 48 31 48 -50 29 -28
0000f0 ad 30 ff 96 5a 0d 19 29 5a e5 77 d2 c8 df ed e2
       -83 48 -1 -106 90 13 25 41 90 -27 119 -46 -56 -33 -19 -30

mobilenet_v2_alpha_0.35/batch_normalization_22/FusedBatchNormV3;mobilenet_v2_alpha_0.35/depthwise_conv2d_7/depthwise;mobilenet_v2_alpha_0.35/depthwise_conv2d_10/depthwise i1 [1, 3, 3, 144]
000000 1a 01 1d ff 07 14 11 e4 01 0d ea fd 08 e9 01 10
       26 1 29 -1 7 20 17 -28 1 13 -22 -3 8 -23 1 16
000010 25 04 fb 11 f9 f9 e1 18 11 f6 13 df f3 e8 df ec
       37 4 -5 17 -7 -7 -31 24 17 -10 19 -33 -13 -24 -33 -20
000020 20 16 2a e7 03 f1 ee 0a ff 09 cc fb f2 09 ff 0b
       32 22 42 -25 3 -15 -18 10 -1 9 -52 -5 -14 9 -1 11
000030 f5 1c d3 e8 f9 0b 21 ff ff 24 0f f4 08 01 ce 10
       -11 28 -45 -24 -7 11 33 -1 -1 36 15 -12 8 1 -50 16
000040 09 f2 1b fc 0c 01 db 0b 2f 4c f1 af e7 20 02 e5
       9 -14 27 -4 12 1 -37 11 47 76 -15 -81 -25 32 2 -27
000050 31 f6 13 fd aa 9a 08 04 f8 fc 0a 1e 98 ad 22 eb
       49 -10 19 -3 -86 -102 8 4 -8 -4 10 30 -104 -83 34 -21
000060 19 14 f2 1e ff 0e 0b 0a e4 11 11 04 0a 05 2b 27
       25 20 -14 30 -1 14 11 10 -28 17 17 4 10 5 43 39
000070 0f fb 15 ff f1 fd fa 1b f7 07 e5 01 10 f6 0e 13
       15 -5 21 -1 -15 -3 -6 27 -9 7 -27 1 16 -10 14 19
000080 20 11 e8 2a d6 12 f8 ef fc fd 14 0c 17 eb fc f2
       32 17 -24 42 -42 18 -8 -17 -4 -3 20 12 23 -21 -4 -14
000090 7f fa 9f ef d0 e4 fa 8e 81 0e 01 c3 cf c7 fa 7f
       127 -6 -97 -17 -48 -28 -6 -114 -127 14 1 -61 -49 -57 -6 127
0000a0 7f 09 8c 7f 81 84 fe 34 7f 82 36 c9 97 89 e3 0a
       127 9 -116 127 -127 -124 -2 52 127 -126 54 -55 -105 -119 -29 10
0000b0 07 7f 50 d4 12 98 04 ed 27 f1 a6 30 fc 25 fc 7f
       7 127 80 -44 18 -104 4 -19 39 -15 -90 48 -4 37 -4 127
0000c0 eb 05 16 e8 47 b4 2a d8 08 47 7f ec d8 45 dd aa
       -21 5 22 -24 71 -76 42 -40 8 71 127 -20 -40 69 -35 -86
0000d0 f1 06 39 27 08 01 07 47 7f 93 9e b8 ea 7f 00 85
       -15 6 57 39 8 1 7 71 127 -109 -98 -72 -22 127 0 -123
0000e0 c1 13 ff 07 81 a7 e1 f1 1a 06 24 97 9d dc 7f 2f
       -63 19 -1 7 -127 -89 -31 -15 26 6 36 -105 -99 -36 127 47
0000f0 ad 22 c0 39 05 7f 0e 37 de f3 04 f9 7f a0 61 7f
       -83 34 -64 57 5 127 14 55 -34 -13 4 -7 127 -96 97 127

mobilenet_v2_alpha_0.35/conv2d_15/Conv2D i1 [24, 1, 1, 144]
000000 3d e6 31 bd de 0d e2 05 ff fe fd f7 be 1e ce 0a
       61 -26 49 -67 -34 13 -30 5 -1 -2 -3 -9 -66 30 -50 10
000010 2f da e9 d4 08 bd d2 f2 ea 15 38 fe 52 d3 aa fe
       47 -38 -23 -44 8 -67 -46 -14 -22 21 56 -2 82 -45 -86 -2
000020 cc ea 03 e6 1f 11 0b cb e6 55 03 d8 fd b2 19 19
       -52 -22 3 -26 31 17 11 -53 -26 85 3 -40 -3 -78 25 25
000030 10 81 03 29 02 fa be 29 1d 27 33 20 01 d7 1e f7
       16 -127 3 41 2 -6 -66 41 29 39 51 32 1 -41 30 -9
000040 32 ef 08 e7 1d d0 31 52 ef fa 11 e4 16 cc ed 49
       50 -17 8 -25 29 -48 49 82 -17 -6 17 -28 22 -52 -19 73
000050 f4 55 cb f8 c4 1e 1a cc 4a f7 f6 ff af eb f0 f8
       -12 85 -53 -8 -60 30 26 -52 74 -9 -10 -1 -81 -21 -16 -8
000060 1b 4c 08 13 15 ca f5 1f ef 1f e3 61 e0 2b 17 02
       27 76 8 19 21 -54 -11 31 -17 31 -29 97 -32 43 23 2
000070 2a c6 c9 02 03 1e 11 1e e4 39 0a cf 42 38 0b a0
       42 -58 -55 2 3 30 17 30 -28 57 10 -49 66 56 11 -96
000080 ed 57 15 45 fb 2d 63 ba f4 df f8 e8 14 c1 e0 c4
       -19 87 21 69 -5 45 99 -70 -12 -33 -8 -24 20 -63 -32 -60
000090 b5 27 20 d7 f6 01 c8 53 09 4b c2 38 e2 13 d6 4e
       -75 39 32 -41 -10 1 -56 83 9 75 -62 56 -30 19 -42 78
0000a0 11 ae fa 62 a6 e5 3e ea ba 30 ee 29 32 13 2a 02
       17 -82 -6 98 -90 -27 62 -22 -70 48 -18 41 50 19 42 2
0000b0 28 02 b1 d1 c0 92 18 29 fb 09 0c 04 24 fe 54 d8
       40 2 -79 -47 -64 -110 24 41 -5 9 12 4 36 -2 84 -40
0000c0 d8 9d 01 20 e2 f6 be ec 1d 16 ef 17 f1 64 c4 39
       -40 -99 1 32 -30 -10 -66 -20 29 22 -17 23 -15 100 -60 57
0000d0 34 0a 1c a5 d1 f7 23 fa af e1 1f 10 0d 13 df da
       52 10 28 -91 -47 -9 35 -6 -81 -31 31 16 13 19 -33 -38
0000e0 7f cd c4 af c2 31 ad 2b 12 37 39 dd e4 e4 0f f5
       127 -51 -60 -81 -62 49 -83 43 18 55 57 -35 -28 -28 15 -11
0000f0 06 cc 33 bb 27 0e 1f a9 34 02 d4 1d fa ee b3 a0
       6 -52 51 -69 39 14 31 -87 52 2 -44 29 -6 -18 -77 -96

mobilenet_v2_alpha_0.35/conv2d_16/Conv2D i1 [144, 1, 1, 24]
000000 b7 ef 49 30 fa 7f 14 46 c5 15 f7 91 03 bc 0f 1c
       -73 -17 73 48 -6 127 20 70 -59 21 -9 -111 3 -68 15 28
000010 2d 01 d5 ac e1 d4 2a 04 0e e4 fb 1e fa fa 02 fe
       45 1 -43 -84 -31 -44 42 4 14 -28 -5 30 -6 -6 2 -2
000020 81 f1 fa 24 2e 2f dc 0b e4 0b fd da e7 31 fe f5
       -127 -15 -6 36 46 47 -36 11 -28 11 -3 -38 -25 49 -2 -11
000030 e6 ad f2 40 c3 03 2f 09 c1 ba e6 ac e3 cc 7f 16
       -26 -83 -14 64 -61 3 47 9 -63 -70 -26 -84 -29 -52 127 22
000040 58 fa 08 ed e2 cc 9e 2a 07 27 e9 10 97 be dc 07
       88 -6 8 -19 -30 -52 -98 42 7 39 -23 16 -105 -66 -36 7
000050 4e fd f7 4e c4 e9 bd f8 cf 0e f9 44 cf aa 29 7f
       78 -3 -9 78 -60 -23 -67 -8 -49 14 -7 68 -49 -86 41 127
000060 4d 0c 0b c4 c8 d6 72 30 d1 02 e8 f6 0f 53 00 81
       77 12 11 -60 -56 -42 114 48 -47 2 -24 -10 15 83 0 -127
000070 f3 17 fc af 0c 2d 20 13 e0 0f 21 4c ea e7 d6 0d
       -13 23 -4 -81 12 45 32 19 -32 15 33 76 -22 -25 -42 13
000080 4a e5 02 25 81 0d f9 12 a4 db ae ee 96 e8 d0 0c
       74 -27 2 37 -127 13 -7 18 -92 -37 -82 -18 -106 -24 -48 12
000090 fc 11 cc 25 47 42 14 df b1 ef 20 97 d1 03 a2 81
       -4 17 -52 37 71 66 20 -33 -79 -17 32 -105 -47 3 -94 -127
0000a0 0e c9 c0 dc ab 24 11 e9 21 d8 92 ec ff 57 a3 31
       14 -55 -64 -36 -85 36 17 -23 33 -40 -110 -20 -1 87 -93 49
0000b0 0a 4f db ee 1d 00 81 df a1 d6 dd 21 d4 dc 39 fb
       10 79 -37 -18 29 0 -127 -33 -95 -42 -35 33 -44 -36 57 -5
0000c0 43 08 06 ce 22 1b 18 0a 21 e4 f6 4b 09 e9 7f 43
       67 8 6 -50 34 27 24 10 33 -28 -10 75 9 -23 127 67
0000d0 e8 ce 03 07 1f e6 e6 40 ff d7 da f2 49 05 53 12
       -24 -50 3 7 31 -26 -26 64 -1 -41 -38 -14 73 5 83 18
0000e0 25 ff fc b3 06 28 e8 fe 61 ff 17 7f 3f ea e0 1a
       37 -1 -4 -77 6 40 -24 -2 97 -1 23 127 63 -22 -32 26
0000f0 ef d9 fa 55 2e 03 1b ec c0 d5 05 fd fa 4c fb 7f
       -17 -39 -6 85 46 3 27 -20 -64 -43 5 -3 -6 76 -5 127

mobilenet_v2_alpha_0.35/batch_normalization_25/FusedBatchNormV3;mobilenet_v2_alpha_0.35/depthwise_conv2d_8/depthwise;mobilenet_v2_alpha_0.35/depthwise_conv2d_10/depthwise i1 [1, 3, 3, 144]
000000 fa fe ff 94 39 e0 08 f9 ec f6 b6 2f 02 81 f6 0f
       -6 -2 -1 -108 57 -32 8 -7 -20 -10 -74 47 2 -127 -10 15
000010 01 0d 0c ea 0a f9 01 f6 f7 e8 f3 13 08 d8 0a 25
       1 13 12 -22 10 -7 1 -10 -9 -24 -13 19 8 -40 10 37
000020 0e 1f 17 0c d5 08 16 01 0f 30 ed 04 96 e9 cb 16
       14 31 23 12 -43 8 22 1 15 48 -19 4 -106 -23 -53 22
000030 b0 08 fb f5 16 05 c0 0c f9 e4 f6 ed fb fe fa 95
       -80 8 -5 -11 22 5 -64 12 -7 -28 -10 -19 -5 -2 -6 -107
000040 21 12 2e 0a 12 fa c8 87 2d ee d8 ce 02 f2 58 0a
       33 18 46 10 18 -6 -56 -121 45 -18 -40 -50 2 -14 88 10
000050 09 eb 0d f7 0d 12 fc 81 df 00 01 cc ec 7f dd e8
       9 -21 13 -9 13 18 -4 -127 -33 0 1 -52 -20 127 -35 -24
000060 07 02 2e b0 ee 05 07 f9 17 24 12 ff 0e f8 fe 08
       7 2 46 -80 -18 5 7 -7 23 36 18 -1 14 -8 -2 8
000070 15 fc 01 13 ff 02 07 15 0b fc 04 de 17 0f ab d9
       21 -4 1 19 -1 2 7 21 11 -4 4 -34 23 15 -85 -39
000080 00 fa 15 f8 19 d5 21 fe 0b 36 09 2f 04 1a 14 08
       0 -6 21 -8 25 -43 33 -2 11 54 9 47 4 26 20 8
000090 0b 7f 7f c4 25 2b dc 00 b5 26 8e c6 33 ca 03 e3
       11 127 127 -60 37 43 -36 0 -75 38 -114 -58 51 -54 3 -29
0000a0 ec 0c 07 c0 eb b7 e6 2b b6 14 0f bf e2 87 fc 7f
       -20 12 7 -64 -21 -73 -26 43 -74 20 15 -65 -30 -121 -4 127
0000b0 03 26 ec 7f d6 10 f8 e4 7f fc fb db da 81 81 e1
       3 38 -20 127 -42 16 -8 -28 127 -4 -5 -37 -38 -127 -127 -31
0000c0 f4 e1 33 31 fa fd 81 ba e8 da 12 e4 f6 a9 4b 9d
       -12 -31 51 49 -6 -3 -127 -70 -24 -38 18 -28 -10 -87 75 -99
0000d0 13 01 7f 44 38 81 c4 81 26 0f e2 be e6 7f 99 02
       19 1 127 68 56 -127 -60 -127 38 15 -30 -66 -26 127 -103 2
0000e0 15 2a df 1e ef 7f 05 3d 81 f2 0c 81 fa 4b e5 cf
       21 42 -33 30 -17 127 5 61 -127 -14 12 -127 -6 75 -27 -49
0000f0 de fb 04 81 dc fb 05 fa 25 81 7f 1f bd 03 c7 7f
       -34 -5 4 -127 -36 -5 5 -6 37 -127 127 31 -67 3 -57 127

mobilenet_v2_alpha_0.35/conv2d_17/Conv2D i1 [24, 1, 1, 144]
000000 db 30 fc 2c 3a 4f c9 10 f6 06 cd 03 04 23 1a 61
       -37 48 -4 44 58 79 -55 16 -10 6 -51 3 4 35 26 97
000010 0b fd 03 d3 0a 1d 0f 06 f1 e6 40 fc 1e de ec 06
       11 -3 3 -45 10 29 15 6 -15 -26 64 -4 30 -34 -20 6
000020 37 4e f4 df d3 a6 e4 f2 f1 e6 fd fe ef 25 d7 fa
       55 78 -12 -33 -45 -90 -28 -14 -15 -26 -3 -2 -17 37 -41 -6
000030 ef d3 24 56 f5 12 f4 26 fa 28 47 bd 29 e5 0d 36
       -17 -45 36 86 -11 18 -12 38 -6 40 71 -67 41 -27 13 54
000040 fc dc 05 c4 e2 f8 f4 3a 41 d5 f0 15 0e 0f f9 e8
       -4 -36 5 -60 -30 -8 -12 58 65 -43 -16 21 14 15 -7 -24
000050 1a f0 2c 7f 16 15 f2 07 2b 10 d3 ea fd 39 1f 00
       26 -16 44 127 22 21 -14 7 43 16 -45 -22 -3 57 31 0
000060 ee 16 27 f1 a8 28 6d 14 f4 dd 18 cf 12 56 f4 ef
       -18 22 39 -15 -88 40 109 20 -12 -35 24 -49 18 86 -12 -17
000070 1b 18 d1 0c 05 e9 e3 e3 f5 64 27 37 01 12 fa 31
       27 24 -47 12 5 -23 -29 -29 -11 100 39 55 1 18 -6 49
000080 03 04 f6 eb f0 fc e3 2f fd fa f9 6c 1c 0f 2b 55
       3 4 -10 -21 -16 -4 -29 47 -3 -6 -7 108 28 15 43 85
000090 09 ec fd 0c 05 df 50 af 13 8c d3 bf 01 33 04 cd
       9 -20 -3 12 5 -33 80 -81 19 -116 -45 -65 1 51 4 -51
0000a0 e1 25 33 f2 a5 04 17 1f 3e e9 de ff f5 0b a6 d1
       -31 37 51 -14 -91 4 23 31 62 -23 -34 -1 -11 11 -90 -47
0000b0 e7 41 f6 27 1b 1b 0c 19 d2 fc 0f e3 6c 28 e6 0b
       -25 65 -10 39 27 27 12 25 -46 -4 15 -29 108 40 -26 11
0000c0 e6 12 fd 28 c2 03 02 b7 bf 24 f4 23 4a d4 14 39
       -26 18 -3 40 -62 3 2 -73 -65 36 -12 35 74 -44 20 57
0000d0 ef e2 2b f0 c1 0c c2 ef e6 c6 db 06 ee f9 b4 46
       -17 -30 43 -16 -63 12 -62 -17 -26 -58 -37 6 -18 -7 -76 70
0000e0 31 d0 a8 dc 14 f9 0e 40 00 1b f2 21 f2 e9 37 aa
       49 -48 -88 -36 20 -7 14 64 0 27 -14 33 -14 -23 55 -86
0000f0 0e 32 1f 3f 52 ef 20 03 ca c2 0b 44 f4 0c 08 f2
       14 50 31 63 82 -17 32 3 -54 -62 11 68 -12 12 8 -14
