image_classification/src/experiments_outputs/mlruns/696791047101946500/310aff0852934705a8a07829747e03b9/artifacts/2025_06_30_13_37_49/quantized_models/quantized_model.tflite (tflite, 636632 bytes, 53 tensors)

mobilenet_v2_alpha_0.35/conv2d/Conv2D i1 [16, 3, 3, 3]
00000000: fbe8 ffc5 82e1 0d33 03f4 e9fb b281 e314
00000010: 2201 fb03 fced f9fe 02ed fdc6 84ee 1e42
00000020: 09fc ff02 b281 ec23 3e08 fefa 01e9 f5fb
00000030: 06fc 01ff fd02 ae3d 1f81 4c3f db0e 12c3
00000040: 2023 8d30 46ea 110e 17f2 f0dc 0e17 c02a
00000050: 1d00 0000 0000 0000 0000 0000 0000 0000
00000060: 0000 0000 0000 0000 0000 0000 f6e7 ede9
00000070: d0ec f1d9 f1e3 caed b581 d5d7 c2eb f3f5
00000080: f4e4 e3e9 f5ed f65f dfc1 4de4 cc33 f8de
00000090: 7fe2 a677 e3b0 3cf1 d42a 0ad5 2004 edfc
000000a0: 020c 0000 0000 0000 0000 0000 0000 0000
000000b0: 0000 0000 0000 0000 0000 0000 0000 0000
000000c0: 0000 0000 0000 0000 0000 0000 0000 0000
000000d0: 0000 0000 0000 0000 0000 0000 0000 0000
000000e0: 0000 0000 0000 0000 0000 0000 0000 0000
000000f0: 0000 0000 0000 0000 0000 0000 0000 0000
-5 -24 -1 -59 -126 -31 13 51
3 -12 -23 -5 -78 -127 -29 20
34 1 -5 3 -4 -19 -7 -2
2 -19 -3 -58 -124 -18 30 66
9 -4 -1 2 -78 -127 -20 35
62 8 -2 -6 1 -23 -11 -5
6 -4 1 -1 -3 2 -82 61
31 -127 76 63 -37 14 18 -61
32 35 -115 48 70 -22 17 14
23 -14 -16 -36 14 23 -64 42
29 0 0 0 0 0 0 0
0 0 0 0 0 0 0 0
0 0 0 0 0 0 0 0
0 0 0 0 -10 -25 -19 -23
-48 -20 -15 -39 -15 -29 -54 -19
-75 -127 -43 -41 -62 -21 -13 -11
-12 -28 -29 -23 -11 -19 -10 95
-33 -63 77 -28 -52 51 -8 -34
127 -30 -90 119 -29 -80 60 -15
-44 42 10 -43 32 4 -19 -4
2 12 0 0 0 0 0 0
0 0 0 0 0 0 0 0
0 0 0 0 0 0 0 0
0 0 0 0 0 0 0 0
0 0 0 0 0 0 0 0
0 0 0 0 0 0 0 0
0 0 0 0 0 0 0 0
0 0 0 0 0 0 0 0
0 0 0 0 0 0 0 0
0 0 0 0 0 0 0 0
0 0 0 0 0 0 0 0
0 0 0 0 0 0 0 0

mobilenet_v2_alpha_0.35/batch_normalization_1/FusedBatchNormV3;mobilenet_v2_alpha_0.35/depthwise_conv2d/depthwise;mobilenet_v2_alpha_0.35/conv2d_11/Conv2D i1 [1, 3, 3, 16]
00000000: ff01 81f3 031f eec6 3140 c3d5 81db f84a
00000010: fe00 9e14 81f9 c8df 5fd9 817f 8604 f961
00000020: ff01 0009 0500 f0f2 7205 ac5b 1642 0228
00000030: fb02 0f14 037f d6fe 3154 cdd9 99d9 8173
00000040: 7fd7 0c7f 5843 81e7 41de df16 1001 b67f
00000050: 1281 1317 03ec bafa 60ef b0cf ca32 0f2a
00000060: 0100 5603 fb5b ebfc 6b7f 00ee ea7f a82b
00000070: ffff 2a60 0c3c d3bc 72ff f6ef 290e ba34
00000080: 01fe 261c fafa ea81 7fbd f9e6 022c 0f02
-1 1 -127 -13 3 31 -18 -58
49 64 -61 -43 -127 -37 -8 74
-2 0 -98 20 -127 -7 -56 -33
95 -39 -127 127 -122 4 -7 97
-1 1 0 9 5 0 -16 -14
114 5 -84 91 22 66 2 40
-5 2 15 20 3 127 -42 -2
49 84 -51 -39 -103 -39 -127 115
127 -41 12 127 88 67 -127 -25
65 -34 -33 22 16 1 -74 127
18 -127 19 23 3 -20 -70 -6
96 -17 -80 -49 -54 50 15 42
1 0 86 3 -5 91 -21 -4
107 127 0 -18 -22 127 -88 43
-1 -1 42 96 12 60 -45 -68
114 -1 -10 -17 41 14 -70 52
1 -2 38 28 -6 -6 -22 -127
127 -67 -7 -26 2 44 15 2

mobilenet_v2_alpha_0.35/conv2d_1/Conv2D i1 [8, 1, 1, 16]
00000000: 00ff 0301 0000 0100 0000 00fe 0000 7f12
00000010: 05f5 fb03 0981 0300 0000 002d 0000 03d4
00000020: c781 0103 00ff 0300 0100 0003 0000 fe0c
00000030: 27d9 7f02 3505 0300 0000 00d1 0000 0de1
00000040: 819f fd01 0101 0100 0100 00fb 0000 04f4
00000050: 2ecd 8104 4103 0500 0100 00cc 0000 02ee
00000060: 05f9 fefd 0f7f fb00 0000 0032 0000 0504
00000070: ef0e fd01 7f00 0000 0000 00fa 0000 0211
0 -1 3 1 0 0 1 0
0 0 0 -2 0 0 127 18
5 -11 -5 3 9 -127 3 0
0 0 0 45 0 0 3 -44
-57 -127 1 3 0 -1 3 0
1 0 0 3 0 0 -2 12
39 -39 127 2 53 5 3 0
0 0 0 -47 0 0 13 -31
-127 -97 -3 1 1 1 1 0
1 0 0 -5 0 0 4 -12
46 -51 -127 4 65 3 5 0
1 0 0 -52 0 0 2 -18
5 -7 -2 -3 15 127 -5 0
0 0 0 50 0 0 5 4
-17 14 -3 1 127 0 0 0
0 0 0 -6 0 0 2 17

mobilenet_v2_alpha_0.35/conv2d_2/Conv2D i1 [48, 1, 1, 8]
00000000: 0000 0000 0000 0000 cb1a 3eff b8fc 2d81
00000010: 0005 81f9 89fa 0efc fff8 84f5 81ff ffff
00000020: 4d7f 46fc b2f9 f293 f6db 543e 8163 d309
00000030: ff2a 2144 da29 2e7f fefe 81f2 81f8 1001
00000040: 934f e5fd 26ff 9f7f 03e4 720b 7f07 f7fc
00000050: 0a03 1a43 ea4e 0d7f 7ff9 01fc ff02 0d03
00000060: 1f12 4438 b82d 2081 0d0a 7f0c 6705 2b03
00000070: 0511 0c2e ea32 117f 04cf e29e 81d2 f023
00000080: 0000 0000 0000 0000 1f22 cd1f 816c 2bda
00000090: 01f1 f10b 1e00 f77f 06fc 567f a946 e6d0
000000a0: 8109 18be f009 fd0e ead7 91ad 49c5 e17f
000000b0: 126f fb09 01f4 8104 0100 e6b6 1193 0781
000000c0: 02fd 91e5 7fe8 cd6c 0000 0000 0000 0000
000000d0: 3d58 6240 8170 b5da f8f5 7212 7f14 fb09
000000e0: cdcf 4c7f ab3f 4f1d 810b 0000 fe00 f5fc
000000f0: f6ee ebdf 16ca d581 eef2 8604 81f2 14f3
0 0 0 0 0 0 0 0
-53 26 62 -1 -72 -4 45 -127
0 5 -127 -7 -119 -6 14 -4
-1 -8 -124 -11 -127 -1 -1 -1
77 127 70 -4 -78 -7 -14 -109
-10 -37 84 62 -127 99 -45 9
-1 42 33 68 -38 41 46 127
-2 -2 -127 -14 -127 -8 16 1
-109 79 -27 -3 38 -1 -97 127
3 -28 114 11 127 7 -9 -4
10 3 26 67 -22 78 13 127
127 -7 1 -4 -1 2 13 3
31 18 68 56 -72 45 32 -127
13 10 127 12 103 5 43 3
5 17 12 46 -22 50 17 127
4 -49 -30 -98 -127 -46 -16 35
0 0 0 0 0 0 0 0
31 34 -51 31 -127 108 43 -38
1 -15 -15 11 30 0 -9 127
6 -4 86 127 -87 70 -26 -48
-127 9 24 -66 -16 9 -3 14
-22 -41 -111 -83 73 -59 -31 127
18 111 -5 9 1 -12 -127 4
1 0 -26 -74 17 -109 7 -127
2 -3 -111 -27 127 -24 -51 108
0 0 0 0 0 0 0 0
61 88 98 64 -127 112 -75 -38
-8 -11 114 18 127 20 -5 9
-51 -49 76 127 -85 63 79 29
-127 11 0 0 -2 0 -11 -4
-10 -18 -21 -33 22 -54 -43 -127
-18 -14 -122 4 -127 -14 20 -13

mobilenet_v2_alpha_0.35/batch_normalization_4/FusedBatchNormV3;mobilenet_v2_alpha_0.35/depthwise_conv2d_1/depthwise;mobilenet_v2_alpha_0.35/depthwise_conv2d_3/depthwise i1 [1, 3, 3, 48]
00000000: fde1 059c 0498 b0d8 ec11 1ed0 f671 fa8f
00000010: 2635 d6c2 f99b 8f2a 0b19 ec81 2181 32cb
00000020: 047f 3cda a762 a6b7 aaa2 c4e2 534a 32ea
00000030: 440c 6689 215b 81cb 0806 2f4a 5977 bf95
00000040: 2b3e bf81 2be4 3769 642b 9b44 5212 62ee
00000050: 7337 0b81 a272 82ca 5ffa 66d5 7fa7 3a04
00000060: 2118 f0f4 4161 b792 22fa 166f b505 0002
00000070: 2d28 cd13 bb7f 7f1f 8bec aff9 1469 2a01
00000080: a000 35dd d6fe fc7f fd6b 7608 270f fe0b
00000090: 1efa fe99 e388 39b8 d359 12fd e17f 3881
000000a0: 3732 1ce3 beb8 b5ca 061e 0176 beec 167f
000000b0: cf31 c901 9772 99c7 972e c4af a86f 0add
000000c0: 4f7f 8181 377f 69cd 7f81 fb06 7f7c 7f8d
000000d0: 5240 6883 38e5 1381 7f63 01bb 8122 021d
000000e0: 69fd 81fb 817f 81d3 7f47 705b 0781 457f
000000f0: 3762 13f3 0179 2d81 5915 0d0f 9d00 3406
-3 -31 5 -100 4 -104 -80 -40
-20 17 30 -48 -10 113 -6 -113
38 53 -42 -62 -7 -101 -113 42
11 25 -20 -127 33 -127 50 -53
4 127 60 -38 -89 98 -90 -73
-86 -94 -60 -30 83 74 50 -22
68 12 102 -119 33 91 -127 -53
8 6 47 74 89 119 -65 -107
43 62 -65 -127 43 -28 55 105
100 43 -101 68 82 18 98 -18
115 55 11 -127 -94 114 -126 -54
95 -6 102 -43 127 -89 58 4
33 24 -16 -12 65 97 -73 -110
34 -6 22 111 -75 5 0 2
45 40 -51 19 -69 127 127 31
-117 -20 -81 -7 20 105 42 1
-96 0 53 -35 -42 -2 -4 127
-3 107 118 8 39 15 -2 11
30 -6 -2 -103 -29 -120 57 -72
-45 89 18 -3 -31 127 56 -127
55 50 28 -29 -66 -72 -75 -54
6 30 1 118 -66 -20 22 127
-49 49 -55 1 -105 114 -103 -57
-105 46 -60 -81 -88 111 10 -35
79 127 -127 -127 55 127 105 -51
127 -127 -5 6 127 124 127 -115
82 64 104 -125 56 -27 19 -127
127 99 1 -69 -127 34 2 29
105 -3 -127 -5 -127 127 -127 -45
127 71 112 91 7 -127 69 127
55 98 19 -13 1 121 45 -127
89 21 13 15 -99 0 52 6

mobilenet_v2_alpha_0.35/conv2d_3/Conv2D i1 [8, 1, 1, 48]
00000000: 00fe 01ff 17f5 f415 3205 0bd8 bcf3 fffd
00000010: 0009 fddb 0cf5 79f9 2100 df07 0030 ee09
00000020: 1aff f80c 03fa 0d04 8c81 285e e989 02ec
00000030: 0003 9614 0201 f109 01a6 0201 01db e130
00000040: 00da f7f5 0817 fbec f600 0185 2304 fd81
00000050: 2d0b 0303 02f0 1dfd 0708 07fa f000 b103
00000060: 00e8 0103 1512 e1fb ec01 3b66 0007 0202
00000070: 0014 f7ae ce17 0ffa 0a00 d100 f281 c4fa
00000080: b2fc de30 0603 04f1 0ad9 ef0e d50e ffed
00000090: 00d9 f7fd 0ed7 3207 ecf8 ad41 fcf2 f3fe
000000a0: 00e9 307f e4d4 1f0c 0100 e3f7 13b4 5af8
000000b0: bddb 3ab5 0001 0422 fbcd fa1f 2be7 f8f9
000000c0: 000d ce9d 0916 ebbd 08d8 ff00 ef79 dfc4
000000d0: 004a 1102 0512 ffd5 fb00 f8d8 4f09 24ca
000000e0: daf8 cff6 8e7f aaef 0008 000c e317 ec06
000000f0: 00f3 0bff e0fc 0013 db07 f62a cbfe faf3
0 -2 1 -1 23 -11 -12 21
50 5 11 -40 -68 -13 -1 -3
0 9 -3 -37 12 -11 121 -7
33 0 -33 7 0 48 -18 9
26 -1 -8 12 3 -6 13 4
-116 -127 40 94 -23 -119 2 -20
0 3 -106 20 2 1 -15 9
1 -90 2 1 1 -37 -31 48
0 -38 -9 -11 8 23 -5 -20
-10 0 1 -123 35 4 -3 -127
45 11 3 3 2 -16 29 -3
7 8 7 -6 -16 0 -79 3
0 -24 1 3 21 18 -31 -5
-20 1 59 102 0 7 2 2
0 20 -9 -82 -50 23 15 -6
10 0 -47 0 -14 -127 -60 -6
-78 -4 -34 48 6 3 4 -15
10 -39 -17 14 -43 14 -1 -19
0 -39 -9 -3 14 -41 50 7
-20 -8 -83 65 -4 -14 -13 -2
0 -23 48 127 -28 -44 31 12
1 0 -29 -9 19 -76 90 -8
-67 -37 58 -75 0 1 4 34
-5 -51 -6 31 43 -25 -8 -7
0 13 -50 -99 9 22 -21 -67
8 -40 -1 0 -17 121 -33 -60
0 74 17 2 5 18 -1 -43
-5 0 -8 -40 79 9 36 -54
-38 -8 -49 -10 -114 127 -86 -17
0 8 0 12 -29 23 -20 6
0 -13 11 -1 -32 -4 0 19
-37 7 -10 42 -53 -2 -6 -13

mobilenet_v2_alpha_0.35/conv2d_4/Conv2D i1 [48, 1, 1, 8]
00000000: 9f0b dca9 ed7f 0416 0785 4fb0 0102 81e0
00000010: 0000 0000 0000 0000 810d 15ee dd9f 11e6
00000020: e0e1 d457 cce3 81ed 870e 1bdf fe7f 0310
00000030: e2e1 817e e6fb 0cf4 a61c 1402 e87f fe04
00000040: 1c69 3cc5 2801 7f10 ffeb 7f5c 0b06 02ec
00000050: ce06 8198 f026 f112 23ff 0a14 e608 017f
00000060: 9b06 2a25 047f 050a eef2 190f 00e9 027f
00000070: 81c3 fee2 9782 34df 0816 be35 0111 7f0f
00000080: 007f 0203 1500 e509 bafe 0e0f e8ac 047f
00000090: 0eed 22b3 c0ff 8102 fc81 2eb6 c402 88fd
000000a0: 09d3 4991 fefe 8119 119f 04f0 7f1a e3b7
000000b0: 7dc4 e420 8169 ad2c 8140 f7f4 e69a ffd0
000000c0: 0734 fefa 2404 7f0c e20c 01f6 d200 0b81
000000d0: 6030 627f c99f 1ae1 7f05 050e f770 f94d
000000e0: f4ee 0807 06e7 037f 0775 5aa8 23e8 7f43
000000f0: 0fe0 2381 dcf6 abf2 0004 7f4e 0601 01f4
-97 11 -36 -87 -19 127 4 22
7 -123 79 -80 1 2 -127 -32
0 0 0 0 0 0 0 0
-127 13 21 -18 -35 -97 17 -26
-32 -31 -44 87 -52 -29 -127 -19
-121 14 27 -33 -2 127 3 16
-30 -31 -127 126 -26 -5 12 -12
-90 28 20 2 -24 127 -2 4
28 105 60 -59 40 1 127 16
-1 -21 127 92 11 6 2 -20
-50 6 -127 -104 -16 38 -15 18
35 -1 10 20 -26 8 1 127
-101 6 42 37 4 127 5 10
-18 -14 25 15 0 -23 2 127
-127 -61 -2 -30 -105 -126 52 -33
8 22 -66 53 1 17 127 15
0 127 2 3 21 0 -27 9
-70 -2 14 15 -24 -84 4 127
14 -19 34 -77 -64 -1 -127 2
-4 -127 46 -74 -60 2 -120 -3
9 -45 73 -111 -2 -2 -127 25
17 -97 4 -16 127 26 -29 -73
125 -60 -28 32 -127 105 -83 44
-127 64 -9 -12 -26 -102 -1 -48
7 52 -2 -6 36 4 127 12
-30 12 1 -10 -46 0 11 -127
96 48 98 127 -55 -97 26 -31
127 5 5 14 -9 112 -7 77
-12 -18 8 7 6 -25 3 127
7 117 90 -88 35 -24 127 67
15 -32 35 -127 -36 -10 -85 -14
0 4 127 78 6 1 1 -12

mobilenet_v2_alpha_0.35/batch_normalization_7/FusedBatchNormV3;mobilenet_v2_alpha_0.35/depthwise_conv2d_2/depthwise;mobilenet_v2_alpha_0.35/depthwise_conv2d_3/depthwise i1 [1, 3, 3, 48]
00000000: c6b1 7f01 09f9 ef01 02e4 d0f5 4d06 01e4
00000010: f9ff 10ee 7ff9 1204 00f8 f701 0002 d0e2
00000020: e803 0507 0504 04f7 fa03 0cd5 f78d afe9
00000030: 9181 5cbe 2599 2eeb fb1f 7ffd 7ff4 c94c
00000040: 040c 81aa efec 0102 1afd d607 bef0 81c6
00000050: 18e6 f9d8 0981 5cfc d0d9 d4a1 016e 0c05
00000060: f9e2 6bff 002e ec2c 00fe a801 19f3 01cf
00000070: 01f5 1be2 b9fa 14ff fe02 3601 f903 f017
00000080: 01f8 000e 1803 d608 028e 15af 0703 01f7
00000090: 4d2f 0dfd ef2b f2ff e497 b174 bbab e538
000000a0: 12d4 047f a5eb 7ceb 0e7f 1700 d321 6c45
000000b0: 86df 0710 2109 d3ac 07f5 ea19 817f 81d2
000000c0: 7f7f 307f 817f 7f81 7f7f fb81 907f 7f81
000000d0: 817f a511 f47f a281 7fcd 8281 7f81 9b7f
000000e0: 7fd4 7fed 7f75 867f 7f9f e47f 7198 75de
000000f0: 0e1b 3ef8 0784 e169 9fea 3e0c f7ff e942
-58 -79 127 1 9 -7 -17 1
2 -28 -48 -11 77 6 1 -28
-7 -1 16 -18 127 -7 18 4
0 -8 -9 1 0 2 -48 -30
-24 3 5 7 5 4 4 -9
-6 3 12 -43 -9 -115 -81 -23
-111 -127 92 -66 37 -103 46 -21
-5 31 127 -3 127 -12 -55 76
4 12 -127 -86 -17 -20 1 2
26 -3 -42 7 -66 -16 -127 -58
24 -26 -7 -40 9 -127 92 -4
-48 -39 -44 -95 1 110 12 5
-7 -30 107 -1 0 46 -20 44
0 -2 -88 1 25 -13 1 -49
1 -11 27 -30 -71 -6 20 -1
-2 2 54 1 -7 3 -16 23
1 -8 0 14 24 3 -42 8
2 -114 21 -81 7 3 1 -9
77 47 13 -3 -17 43 -14 -1
-28 -105 -79 116 -69 -85 -27 56
18 -44 4 127 -91 -21 124 -21
14 127 23 0 -45 33 108 69
-122 -33 7 16 33 9 -45 -84
7 -11 -22 25 -127 127 -127 -46
127 127 48 127 -127 127 127 -127
127 127 -5 -127 -112 127 127 -127
-127 127 -91 17 -12 127 -94 -127
127 -51 -126 -127 127 -127 -101 127
127 -44 127 -19 127 117 -122 127
127 -97 -28 127 113 -104 117 -34
14 27 62 -8 7 -124 -31 105
-97 -22 62 12 -9 -1 -23 66

mobilenet_v2_alpha_0.35/conv2d_5/Conv2D i1 [8, 1, 1, 48]
00000000: f1f8 00a8 f181 f3eb 12fd 2220 0002 50f1
00000010: f6d1 0710 06c0 0d59 fab5 cf2c e0fe f1f7
00000020: fc1b be17 dffb 79e0 3900 ffe4 c801 dfcf
00000030: 080f 00cb 0cf6 fa42 c519 0424 19d2 12c3
00000040: 811a 0213 23a9 f8f5 ea05 1bcf e9f0 f8f5
00000050: c80e 1032 17f3 d824 da00 cf10 05e7 0000
00000060: 0503 0008 0704 df07 0317 7d2d 1201 0b0d
00000070: f309 f209 e9f7 08fa 12cf 03f5 1f09 a37f
00000080: 0c39 fb3c 5106 f211 f200 33a4 bf09 10c5
00000090: ed05 00ed 00ff 2c22 f80a 71c2 0e01 10e7
000000a0: f0fe 16dd 0209 0811 f254 faf9 ecf4 7f5d
000000b0: eea9 1aa4 3bf8 1bff 1800 beb3 55fc e860
000000c0: e8ee 00da deeb f630 d11b 021c e9ce 49cb
000000d0: 3618 1418 5d48 e105 d5f8 2fa4 22df ff0f
000000e0: c61a 3662 02d0 ec25 0100 81fd 08d1 0bf4
000000f0: 1cf8 00b0 f17f f4da 03dd fcfa fbf3 33f2
-15 -8 0 -88 -15 -127 -13 -21
18 -3 34 32 0 2 80 -15
-10 -47 7 16 6 -64 13 89
-6 -75 -49 44 -32 -2 -15 -9
-4 27 -66 23 -33 -5 121 -32
57 0 -1 -28 -56 1 -33 -49
8 15 0 -53 12 -10 -6 66
-59 25 4 36 25 -46 18 -61
-127 26 2 19 35 -87 -8 -11
-22 5 27 -49 -23 -16 -8 -11
-56 14 16 50 23 -13 -40 36
-38 0 -49 16 5 -25 0 0
5 3 0 8 7 4 -33 7
3 23 125 45 18 1 11 13
-13 9 -14 9 -23 -9 8 -6
18 -49 3 -11 31 9 -93 127
12 57 -5 60 81 6 -14 17
-14 0 51 -92 -65 9 16 -59
-19 5 0 -19 0 -1 44 34
-8 10 113 -62 14 1 16 -25
-16 -2 22 -35 2 9 8 17
-14 84 -6 -7 -20 -12 127 93
-18 -87 26 -92 59 -8 27 -1
24 0 -66 -77 85 -4 -24 96
-24 -18 0 -38 -34 -21 -10 48
-47 27 2 28 -23 -50 73 -53
54 24 20 24 93 72 -31 5
-43 -8 47 -92 34 -33 -1 15
-58 26 54 98 2 -48 -20 37
1 0 -127 -3 8 -47 11 -12
28 -8 0 -80 -15 127 -12 -38
3 -35 -4 -6 -5 -13 51 -14

mobilenet_v2_alpha_0.35/conv2d_6/Conv2D i1 [48, 1, 1, 8]
00000000: 3aef 7f6b 04be 01fd 0681 02fa 0f0b 02f8
00000010: 8f20 95ff f27f fd0a f0f6 7f57 fd1b 05f9
00000020: 63ea 2a2a 0a81 0e00 0f1e b87f 6e27 eb9d
00000030: fc1b bb7f c651 67bc 02a9 2781 46ac af49
00000040: eedf b97f 9eed 1940 1703 819e fee9 fe03
00000050: 0137 edfd 3810 7f01 c1b0 15c1 7f8c ce5d
00000060: 9701 e4dd f57f ef02 7b27 0218 706d d67f
00000070: 81ff 11f9 0377 f213 e681 07f1 84e2 1c6b
00000080: c972 ee08 7fa4 f96c cb9a 03d6 7fc4 f545
00000090: c8df a27f 07e8 ee16 3341 fe19 8124 ffc4
000000a0: 2321 3681 5202 eeca f109 117f fa11 05f1
000000b0: 9302 f5ca 047f ee0b 1c0e 4281 01fe d502
000000c0: 7fea c516 ff88 08f3 8ada 24f2 da81 21dc
000000d0: 290e 3381 20e4 f41d ed14 0902 dcdc 8113
000000e0: 2633 c877 d53c 7fba f1da 917f 3ac0 b839
000000f0: f809 2581 22f4 0130 8407 dcc9 f87f 030a
58 -17 127 107 4 -66 1 -3
6 -127 2 -6 15 11 2 -8
-113 32 -107 -1 -14 127 -3 10
-16 -10 127 87 -3 27 5 -7
99 -22 42 42 10 -127 14 0
15 30 -72 127 110 39 -21 -99
-4 27 -69 127 -58 81 103 -68
2 -87 39 -127 70 -84 -81 73
-18 -33 -71 127 -98 -19 25 64
23 3 -127 -98 -2 -23 -2 3
1 55 -19 -3 56 16 127 1
-63 -80 21 -63 127 -116 -50 93
-105 1 -28 -35 -11 127 -17 2
123 39 2 24 112 109 -42 127
-127 -1 17 -7 3 119 -14 19
-26 -127 7 -15 -124 -30 28 107
-55 114 -18 8 127 -92 -7 108
-53 -102 3 -42 127 -60 -11 69
-56 -33 -94 127 7 -24 -18 22
51 65 -2 25 -127 36 -1 -60
35 33 54 -127 82 2 -18 -54
-15 9 17 127 -6 17 5 -15
-109 2 -11 -54 4 127 -18 11
28 14 66 -127 1 -2 -43 2
127 -22 -59 22 -1 -120 8 -13
-118 -38 36 -14 -38 -127 33 -36
41 14 51 -127 32 -28 -12 29
-19 20 9 2 -36 -36 -127 19
38 51 -56 119 -43 60 127 -70
-15 -38 -111 127 58 -64 -72 57
-8 9 37 -127 34 -12 1 48
-124 7 -36 -55 -8 127 3 10

mobilenet_v2_alpha_0.35/batch_normalization_10/FusedBatchNormV3;mobilenet_v2_alpha_0.35/depthwise_conv2d_3/depthwise i1 [1, 3, 3, 48]
00000000: 5a3e cacf 8a44 c1ce 2c3b be56 1733 21af
00000010: c033 af17 1dea 568b 41c7 7632 2fd3 a31b
00000020: ca76 3e38 d73f be3a db43 ab59 c822 bc38
00000030: 785b afb7 7742 7f89 525d ac6b 7f4b 4da6
00000040: aa60 f5b2 4ad4 1781 51af 294e 5281 2193
00000050: b154 5c4e c451 9b55 b15f 9ce0 b1b4 a34c
00000060: 3125 dcd8 740a 10f8 2a34 d734 5720 2edf
00000070: d444 493d 32da b1bb 23e4 8121 399f 6cf9
00000080: d0e6 2b1f e11a cf22 cf27 d0d0 ddbf d81b
00000090: 5d59 b09f 7d4c 657f 5160 a612 a957 47b9
000000a0: 9f46 8131 4dc6 10fd 6098 f056 5120 817f
000000b0: a865 6053 b956 9a59 b85b 9b7f aa5c a459
000000c0: 7f7f 8181 7f7f 84d7 7f7f 81f3 947f 7f81
000000d0: 817f 1181 7f81 7f19 7f81 127f 7f1c 0b92
000000e0: 81a9 7f7f 817f 817f 817f 81c2 817f 817f
000000f0: 4638 b7c5 c538 f0be 3c42 c3df 3c32 46be
90 62 -54 -49 -118 68 -63 -50
44 59 -66 86 23 51 33 -81
-64 51 -81 23 29 -22 86 -117
65 -57 118 50 47 -45 -93 27
-54 118 62 56 -41 63 -66 58
-37 67 -85 89 -56 34 -68 56
120 91 -81 -73 119 66 127 -119
82 93 -84 107 127 75 77 -90
-86 96 -11 -78 74 -44 23 -127
81 -81 41 78 82 -127 33 -109
-79 84 92 78 -60 81 -101 85
-79 95 -100 -32 -79 -76 -93 76
49 37 -36 -40 116 10 16 -8
42 52 -41 52 87 32 46 -33
-44 68 73 61 50 -38 -79 -69
35 -28 -127 33 57 -97 108 -7
-48 -26 43 31 -31 26 -49 34
-49 39 -48 -48 -35 -65 -40 27
93 89 -80 -97 125 76 101 127
81 96 -90 18 -87 87 71 -71
-97 70 -127 49 77 -58 16 -3
96 -104 -16 86 81 32 -127 127
-88 101 96 83 -71 86 -102 89
-72 91 -101 127 -86 92 -92 89
127 127 -127 -127 127 127 -124 -41
127 127 -127 -13 -108 127 127 -127
-127 127 17 -127 127 -127 127 25
127 -127 18 127 127 28 11 -110
-127 -87 127 127 -127 127 -127 127
-127 127 -127 -62 -127 127 -127 127
70 56 -73 -59 -59 56 -16 -66
60 66 -61 -33 60 50 70 -66

mobilenet_v2_alpha_0.35/conv2d_7/Conv2D i1 [16, 1, 1, 48]
00000000: 077f fbfd 00c3 04fe 2c01 00f9 f8f9 05d6
00000010: 1821 fb06 d10a fbf6 f9e7 14f9 16ee 0100
00000020: fbfa 093a f913 0814 fc0a 0115 05fb 1def
00000030: 0ab4 dd19 1706 e0db f908 02ae e381 1b1a
00000040: f15b 5332 c42e ef11 9435 1302 e8d3 6306
00000050: 1315 1fd3 d0d5 c62d 2a1a f55a 3ae7 c181
00000060: 1bf4 0fe6 02f4 fd00 ef81 fcfd 0afa df01
00000070: ff06 0607 fc00 0cff 5b03 00f0 fde9 0108
00000080: eb03 2009 1fe4 1001 dfa7 0807 aa05 f3f8
00000090: f430 010e 04d6 fe03 8104 ecfa fb17 0106
000000a0: 0012 ff06 5318 fa07 e9fc 00d4 fbfb 0afb
000000b0: 0701 233a f0fb 14ee 1808 0f03 09fe e8fe
000000c0: ddef 01f9 0afb 0503 0ff7 27d7 fbc7 f7fd
000000d0: fa19 3209 dccc fbc7 5412 0f3a 12fc 2c18
000000e0: 1d0e 7f14 f503 23de f1c2 1219 5afe d1b7
000000f0: eff4 2ff4 f3fc 0207 0afd ff08 09f3 8103
7 127 -5 -3 0 -61 4 -2
44 1 0 -7 -8 -7 5 -42
24 33 -5 6 -47 10 -5 -10
-7 -25 20 -7 22 -18 1 0
-5 -6 9 58 -7 19 8 20
-4 10 1 21 5 -5 29 -17
10 -76 -35 25 23 6 -32 -37
-7 8 2 -82 -29 -127 27 26
-15 91 83 50 -60 46 -17 17
-108 53 19 2 -24 -45 99 6
19 21 31 -45 -48 -43 -58 45
42 26 -11 90 58 -25 -63 -127
27 -12 15 -26 2 -12 -3 0
-17 -127 -4 -3 10 -6 -33 1
-1 6 6 7 -4 0 12 -1
91 3 0 -16 -3 -23 1 8
-21 3 32 9 31 -28 16 1
-33 -89 8 7 -86 5 -13 -8
-12 48 1 14 4 -42 -2 3
-127 4 -20 -6 -5 23 1 6
0 18 -1 6 83 24 -6 7
-23 -4 0 -44 -5 -5 10 -5
7 1 35 58 -16 -5 20 -18
24 8 15 3 9 -2 -24 -2
-35 -17 1 -7 10 -5 5 3
15 -9 39 -41 -5 -57 -9 -3
-6 25 50 9 -36 -52 -5 -57
84 18 15 58 18 -4 44 24
29 14 127 20 -11 3 35 -34
-15 -62 18 25 90 -2 -47 -73
-17 -12 47 -12 -13 -4 2 7
10 -3 -1 8 9 -13 -127 3

mobilenet_v2_alpha_0.35/conv2d_8/Conv2D i1 [96, 1, 1, 16]
00000000: de18 190d 2b93 09dd f2d5 7fee 1335 17f4
00000010: f10b 81f4 0b00 0010 43c1 e012 d9d7 e9e7
00000020: e288 c4b3 7fec 1f36 d241 de1a 16fc f9e5
00000030: e6e5 f131 f80c e102 01f2 047f bf03 090a
00000040: a7ff 16d0 1207 d303 6c40 3315 a02a eb7f
00000050: 251d 0a6c 8129 b6b1 0d11 689d e2c8 0fff
00000060: 0a0b 957f 48cc cd11 08c7 6d0e 3320 44e1
00000070: 210c b50c cc7f fa28 912d ec1d 332f 4d48
00000080: 16f1 45f6 4a7f 07ff d4ca 3afd 00d5 fd0d
00000090: 093d 2535 8122 e0fb fcdd 4385 c4fa 8cee
000000a0: 06e4 4a72 c3f2 c507 2249 81ea 060e f7ed
000000b0: 61ed 1808 dcf1 73f7 03d3 f9ef e6f7 7f7f
000000c0: 143c 2adc 81c6 0043 01ec 0ffe 0815 dc06
000000d0: 9750 04ef 1c03 b100 1621 ee01 f912 f481
000000e0: 1cfa b901 767f 0e49 e7b1 2e11 0920 490c
000000f0: 0fa6 81b1 7fe2 3138 ee3a b653 1a07 39ec
-34 24 25 13 43 -109 9 -35
-14 -43 127 -18 19 53 23 -12
-15 11 -127 -12 11 0 0 16
67 -63 -32 18 -39 -41 -23 -25
-30 -120 -60 -77 127 -20 31 54
-46 65 -34 26 22 -4 -7 -27
-26 -27 -15 49 -8 12 -31 2
1 -14 4 127 -65 3 9 10
-89 -1 22 -48 18 7 -45 3
108 64 51 21 -96 42 -21 127
37 29 10 108 -127 41 -74 -79
13 17 104 -99 -30 -56 15 -1
10 11 -107 127 72 -52 -51 17
8 -57 109 14 51 32 68 -31
33 12 -75 12 -52 127 -6 40
-111 45 -20 29 51 47 77 72
22 -15 69 -10 74 127 7 -1
-44 -54 58 -3 0 -43 -3 13
9 61 37 53 -127 34 -32 -5
-4 -35 67 -123 -60 -6 -116 -18
6 -28 74 114 -61 -14 -59 7
34 73 -127 -22 6 14 -9 -19
97 -19 24 8 -36 -15 115 -9
3 -45 -7 -17 -26 -9 127 127
20 60 42 -36 -127 -58 0 67
1 -20 15 -2 8 21 -36 6
-105 80 4 -17 28 3 -79 0
22 33 -18 1 -7 18 -12 -127
28 -6 -71 1 118 127 14 73
-25 -79 46 17 9 32 73 12
15 -90 -127 -79 127 -30 49 56
-18 58 -74 83 26 7 57 -20

mobilenet_v2_alpha_0.35/batch_normalization_13/FusedBatchNormV3;mobilenet_v2_alpha_0.35/depthwise_conv2d_4/depthwise;mobilenet_v2_alpha_0.35/depthwise_conv2d_6/depthwise i1 [1, 3, 3, 96]
00000000: 3a04 30f9 023a 011f cf1b 8102 c609 0181
00000010: f322 1a2b 0e00 1020 0c28 04f8 ca05 060b
00000020: fb0a fe02 f312 fba7 e2e7 381c 0ee0 fdd1
00000030: 0f0d 1dfe 3100 0deb f207 fd0a edf5 f135
00000040: 03f5 eef9 0900 f93c 03de 0efe f10c 10f8
00000050: 7fd8 f90b faf7 d6e2 a225 c002 d226 fd1b
00000060: 7f81 7f15 8127 110b d27f fcfa c10e 1569
00000070: f8e8 3ed6 7fec f413 de7f f916 8111 ff0b
00000080: c9ec dd13 ef01 0b0f 2a94 0de8 69ed 16bc
00000090: e8f7 3881 247f 10b9 dc63 0511 8181 8118
000000a0: 53cb 951e f91b fc7f 81f6 1bd3 aefa c2fb
000000b0: 5724 eded 11f9 1c2d 19c9 81c9 cd26 4dfa
000000c0: 0310 0eff eff2 fff9 e318 89fe dafb 081e
000000d0: f40b 07f2 01fa f4f3 0f09 19f8 04f3 1106
000000e0: 0606 f70b 2415 edac ff49 d1f9 d327 fce3
000000f0: 110f 2d02 21e5 0816 f8bb fbfe fb10 eefd
58 4 48 -7 2 58 1 31
-49 27 -127 2 -58 9 1 -127
-13 34 26 43 14 0 16 32
12 40 4 -8 -54 5 6 11
-5 10 -2 2 -13 18 -5 -89
-30 -25 56 28 14 -32 -3 -47
15 13 29 -2 49 0 13 -21
-14 7 -3 10 -19 -11 -15 53
3 -11 -18 -7 9 0 -7 60
3 -34 14 -2 -15 12 16 -8
127 -40 -7 11 -6 -9 -42 -30
-94 37 -64 2 -46 38 -3 27
127 -127 127 21 -127 39 17 11
-46 127 -4 -6 -63 14 21 105
-8 -24 62 -42 127 -20 -12 19
-34 127 -7 22 -127 17 -1 11
-55 -20 -35 19 -17 1 11 15
42 -108 13 -24 105 -19 22 -68
-24 -9 56 -127 36 127 16 -71
-36 99 5 17 -127 -127 -127 24
83 -53 -107 30 -7 27 -4 127
-127 -10 27 -45 -82 -6 -62 -5
87 36 -19 -19 17 -7 28 45
25 -55 -127 -55 -51 38 77 -6
3 16 14 -1 -17 -14 -1 -7
-29 24 -119 -2 -38 -5 8 30
-12 11 7 -14 1 -6 -12 -13
15 9 25 -8 4 -13 17 6
6 6 -9 11 36 21 -19 -84
-1 73 -47 -7 -45 39 -4 -29
17 15 45 2 33 -27 8 22
-8 -69 -5 -2 -5 16 -18 -3

mobilenet_v2_alpha_0.35/conv2d_9/Conv2D i1 [16, 1, 1, 96]
00000000: eaf9 c529 06e3 0afe f8cb f30d e40c f92b
00000010: c9e6 fefe 0228 ffe4 f1db ef0b cef1 dbe8
00000020: b9f0 0e07 fd21 13d1 0f14 fef9 f637 e9f4
00000030: 2a0a 00e6 f27f 52d3 f0e7 04ec 0f19 01fc
00000040: df1e e90e 2cf5 d0da de13 d409 f0db 892d
00000050: 08f3 fc0e 030b 25ba 12da fe01 f1f6 f417
00000060: f301 00f4 fb25 3df0 0fff 0428 f13e e30d
00000070: fdeb f062 c101 7b56 11d8 4810 e310 fe11
00000080: b1ae e3ec 42fc 07bf f9ed 0551 3630 fffe
00000090: 1bf6 1c18 ccb0 e81e 2e24 1027 fdb4 abff
000000a0: 15dd f735 7647 14d7 f300 0626 dbf3 2f09
000000b0: 2a22 7f03 1551 00dc 2efd d4d8 0adf 296c
000000c0: 170c 1820 30f4 e621 0b0e 0ae2 16f0 fa09
000000d0: fffe 381c 2bfd 1a11 ee3b c781 09f0 1e34
000000e0: 172c 1133 1023 2db3 070c 00fe 0f1c 10af
000000f0: 25e9 ca18 15e3 1dfe 3618 0bd8 3d00 d21a
-22 -7 -59 41 6 -29 10 -2
-8 -53 -13 13 -28 12 -7 43
-55 -26 -2 -2 2 40 -1 -28
-15 -37 -17 11 -50 -15 -37 -24
-71 -16 14 7 -3 33 19 -47
15 20 -2 -7 -10 55 -23 -12
42 10 0 -26 -14 127 82 -45
-16 -25 4 -20 15 25 1 -4
-33 30 -23 14 44 -11 -48 -38
-34 19 -44 9 -16 -37 -119 45
8 -13 -4 14 3 11 37 -70
18 -38 -2 1 -15 -10 -12 23
-13 1 0 -12 -5 37 61 -16
15 -1 4 40 -15 62 -29 13
-3 -21 -16 98 -63 1 123 86
17 -40 72 16 -29 16 -2 17
-79 -82 -29 -20 66 -4 7 -65
-7 -19 5 81 54 48 -1 -2
27 -10 28 24 -52 -80 -24 30
46 36 16 39 -3 -76 -85 -1
21 -35 -9 53 118 71 20 -41
-13 0 6 38 -37 -13 47 9
42 34 127 3 21 81 0 -36
46 -3 -44 -40 10 -33 41 108
23 12 24 32 48 -12 -26 33
11 14 10 -30 22 -16 -6 9
-1 -2 56 28 43 -3 26 17
-18 59 -57 -127 9 -16 30 52
23 44 17 51 16 35 45 -77
7 12 0 -2 15 28 16 -81
37 -23 -54 24 21 -29 29 -2
54 24 11 -40 61 0 -46 26

mobilenet_v2_alpha_0.35/conv2d_10/Conv2D i1 [96, 1, 1, 16]
00000000: f711 b99b a81a 9a28 d2d2 0d1c d528 7fac
00000010: 5ae1 4a5b cec3 5713 e1e2 067f 32f2 c759
00000020: 8120 4f64 1ce2 28c4 51f8 f249 a4ec 4d63
00000030: 16f1 f481 00cb 1f12 b2fb c567 2215 5cde
00000040: f4f1 0adc 2681 1100 2ee8 3cf4 e20c edf4
00000050: def9 031b 0560 0f81 05ea d1df f7da e201
00000060: a3e3 5fc9 6028 ffdf 7fc8 b011 a1b4 fd91
00000070: c112 3d28 d31d f5f8 c767 f76d dcd7 81c3
00000080: 3b17 27ff e23b 00fb 7f17 2c1e 215c eae3
00000090: e8b6 7f02 424f f188 0b18 1bf4 c7ca 08e7
000000a0: 04f7 001d 065f e681 edee 14e4 f3df 090d
000000b0: 0c0a 057f 03df d40e fdf5 faf4 1324 1bcf
000000c0: 9e2c e314 56d8 0a15 19f9 0e7f 9bd1 3651
000000d0: ec0c fd01 e981 f428 1a1a fd1d 1225 0fd4
000000e0: 81fe 0018 fdfe 1d0a 08f9 111b 1805 3314
000000f0: ead2 ca77 1b06 f9dd d242 e69f 9f66 8127
-9 17 -71 -101 -88 26 -102 40
-46 -46 13 28 -43 40 127 -84
90 -31 74 91 -50 -61 87 19
-31 -30 6 127 50 -14 -57 89
-127 32 79 100 28 -30 40 -60
81 -8 -14 73 -92 -20 77 99
22 -15 -12 -127 0 -53 31 18
-78 -5 -59 103 34 21 92 -34
-12 -15 10 -36 38 -127 17 0
46 -24 60 -12 -30 12 -19 -12
-34 -7 3 27 5 96 15 -127
5 -22 -47 -33 -9 -38 -30 1
-93 -29 95 -55 96 40 -1 -33
127 -56 -80 17 -95 -76 -3 -111
-63 18 61 40 -45 29 -11 -8
-57 103 -9 109 -36 -41 -127 -61
59 23 39 -1 -30 59 0 -5
127 23 44 30 33 92 -22 -29
-24 -74 127 2 66 79 -15 -120
11 24 27 -12 -57 -54 8 -25
4 -9 0 29 6 95 -26 -127
-19 -18 20 -28 -13 -33 9 13
12 10 5 127 3 -33 -44 14
-3 -11 -6 -12 19 36 27 -49
-98 44 -29 20 86 -40 10 21
25 -7 14 127 -101 -47 54 81
-20 12 -3 1 -23 -127 -12 40
26 26 -3 29 18 37 15 -44
-127 -2 0 24 -3 -2 29 10
8 -7 17 27 24 5 51 20
-22 -46 -54 119 27 6 -7 -35
-46 66 -26 -97 -97 102 -127 39

mobilenet_v2_alpha_0.35/batch_normalization_16/FusedBatchNormV3;mobilenet_v2_alpha_0.35/depthwise_conv2d_5/depthwise;mobilenet_v2_alpha_0.35/depthwise_conv2d_6/depthwise i1 [1, 3, 3, 96]
00000000: 1ab3 f277 f633 2c06 8113 d1fe 551e 8d01
00000010: f733 2a58 2209 f9c5 3264 5609 140c 312f
00000020: ed0a aeca 2902 ec2c 1d81 29f4 7ca0 1d16
00000030: 158a d7fa 00e4 066e d250 98f4 2b3f 34e7
00000040: 18e7 810b eb97 ffd6 deef 0217 002f ead2
00000050: fca8 b1f8 c552 91df 2b9e e003 1127 a81c
00000060: f97f 7f2c f5e2 0c2f 3220 81e3 6e31 84fe
00000070: 0940 8176 315c aad4 cb1d 7f01 4c25 3c32
00000080: 0a81 8121 37e5 fade 7f96 950c d147 e526
00000090: 0381 82cb 29b7 a0aa 7f7f c6e8 e8ef 5e7f
000000a0: e37f 9bd7 fd95 d721 a0fc 07f0 eb81 8c81
000000b0: 31f6 86c8 f477 0782 dfe6 4a04 4391 9e3c
000000c0: f1ec ddea ede6 2ff5 4a15 ee19 0d32 cefa
000000d0: 03f0 ffee 0c05 3d2f e7d8 10ef 0c0a 0e2f
000000e0: e7e9 d314 4ef9 17d3 0743 1ff9 87a2 2517
000000f0: e712 e806 f5ed 19f6 cf15 9df8 cfc4 eb20
26 -77 -14 119 -10 51 44 6
-127 19 -47 -2 85 30 -115 1
-9 51 42 88 34 9 -7 -59
50 100 86 9 20 12 49 47
-19 10 -82 -54 41 2 -20 44
29 -127 41 -12 124 -96 29 22
21 -118 -41 -6 0 -28 6 110
-46 80 -104 -12 43 63 52 -25
24 -25 -127 11 -21 -105 -1 -42
-34 -17 2 23 0 47 -22 -46
-4 -88 -79 -8 -59 82 -111 -33
43 -98 -32 3 17 39 -88 28
-7 127 127 44 -11 -30 12 47
50 32 -127 -29 110 49 -124 -2
9 64 -127 118 49 92 -86 -44
-53 29 127 1 76 37 60 50
10 -127 -127 33 55 -27 -6 -34
127 -106 -107 12 -47 71 -27 38
3 -127 -126 -53 41 -73 -96 -86
127 127 -58 -24 -24 -17 94 127
-29 127 -101 -41 -3 -107 -41 33
-96 -4 7 -16 -21 -127 -116 -127
49 -10 -122 -56 -12 119 7 -126
-33 -26 74 4 67 -111 -98 60
-15 -20 -35 -22 -19 -26 47 -11
74 21 -18 25 13 50 -50 -6
3 -16 -1 -18 12 5 61 47
-25 -40 16 -17 12 10 14 47
-25 -23 -45 20 78 -7 23 -45
7 67 31 -7 -121 -94 37 23
-25 18 -24 6 -11 -19 25 -10
-49 21 -99 -8 -49 -60 -21 32

mobilenet_v2_alpha_0.35/conv2d_11/Conv2D i1 [16, 1, 1, 96]
00000000: 085d c4c5 d8e4 f5e1 b410 08c5 eff3 1d13
00000010: c8e5 0ac2 21f4 f6f2 ec03 c303 ae40 f8e7
00000020: d0fe 065c cec7 c854 c628 0818 bde9 a801
00000030: 23e2 9f4e 1d16 fec1 0617 e12e 7f3a f121
00000040: 70c8 0bfa f8dd bafc 86db 1fd8 b415 1ada
00000050: b565 e3a5 f2fd 3620 d90a fb27 f9da 1e1e
00000060: 0322 3ffd fa3a 1def a141 0532 e416 1907
00000070: 0715 f00a 29d0 f73b 371b 32e4 c427 2135
00000080: fa04 2712 17f4 fb00 e0bd e897 c4dd 27fc
00000090: 0114 d5c8 7fed 2c34 9dfc fb96 0f0d 1621
000000a0: 1fe8 012e e514 9d4a 00da c93a 3214 fde9
000000b0: 0619 06f8 5b37 fd12 29f4 22f9 fd17 1504
000000c0: 0c18 df01 1d28 f1e7 8197 d20b feed e8ff
000000d0: f51c c9ea ddeb d21b 001d f7de 0827 d577
000000e0: c1f5 cc2b d007 cefd 08eb dd02 abd3 1e02
000000f0: 060b 50ea efe1 3914 b4f0 0e3c 0305 dbeb
8 93 -60 -59 -40 -28 -11 -31
-76 16 8 -59 -17 -13 29 19
-56 -27 10 -62 33 -12 -10 -14
-20 3 -61 3 -82 64 -8 -25
-48 -2 6 92 -50 -57 -56 84
-58 40 8 24 -67 -23 -88 1
35 -30 -97 78 29 22 -2 -63
6 23 -31 46 127 58 -15 33
112 -56 11 -6 -8 -35 -70 -4
-122 -37 31 -40 -76 21 26 -38
-75 101 -29 -91 -14 -3 54 32
-39 10 -5 39 -7 -38 30 30
3 34 63 -3 -6 58 29 -17
-95 65 5 50 -28 22 25 7
7 21 -16 10 41 -48 -9 59
55 27 50 -28 -60 39 33 53
-6 4 39 18 23 -12 -5 0
-32 -67 -24 -105 -60 -35 39 -4
1 20 -43 -56 127 -19 44 52
-99 -4 -5 -106 15 13 22 33
31 -24 1 46 -27 20 -99 74
0 -38 -55 58 50 20 -3 -23
6 25 6 -8 91 55 -3 18
41 -12 34 -7 -3 23 21 4
12 24 -33 1 29 40 -15 -25
-127 -105 -46 11 -2 -19 -24 -1
-11 28 -55 -22 -35 -21 -46 27
0 29 -9 -34 8 39 -43 119
-63 -11 -52 43 -48 7 -50 -3
8 -21 -35 2 -85 -45 30 2
6 11 80 -22 -17 -31 57 20
-76 -16 14 60 3 5 -37 -21

mobilenet_v2_alpha_0.35/conv2d_12/Conv2D i1 [96, 1, 1, 16]
00000000: 222e 9733 8113 5004 030e fef5 dcc4 f237
00000010: ffe1 267f f6ef d700 2c15 10c1 1dd8 e50b
00000020: 8115 0cfc 0714 d019 e34a 107a eaeb b4a1
00000030: e6aa 0df9 d8fd f8f9 1858 810c 04f8 eafa
00000040: f404 dff2 fd81 121c f219 0a19 2811 f214
00000050: c2c4 352f 08e7 edfe e4e3 07f3 e85b 917f
00000060: c9e7 fcb6 0afe 8109 ebe5 2c16 5beb c2b2
00000070: f681 d619 61f8 9efc ea11 0bc7 e02f 0501
00000080: cbba cbef 3705 d7e6 d027 fa59 7f02 9eda
00000090: 19e6 35ff 0931 02d5 7f4b 2e31 3c5d f5e4
000000a0: 071d 0a12 fffb f800 05f3 047f eb16 fbf4
000000b0: e6ed f191 1013 27bc e113 15eb 01d8 b57f
000000c0: 5106 2a0a 0fde bdff 81dc bcf0 dfab e30b
000000d0: 13eb 0581 040e 3cf4 02d7 f657 0feb 21e5
000000e0: 11df 2608 09b9 f37f 0f2f cd12 191e edfc
000000f0: e505 0036 1704 0ae8 faf3 ed7f 0415 ef04
34 46 -105 51 -127 19 80 4
3 14 -2 -11 -36 -60 -14 55
-1 -31 38 127 -10 -17 -41 0
44 21 16 -63 29 -40 -27 11
-127 21 12 -4 7 20 -48 25
-29 74 16 122 -22 -21 -76 -95
-26 -86 13 -7 -40 -3 -8 -7
24 88 -127 12 4 -8 -22 -6
-12 4 -33 -14 -3 -127 18 28
-14 25 10 25 40 17 -14 20
-62 -60 53 47 8 -25 -19 -2
-28 -29 7 -13 -24 91 -111 127
-55 -25 -4 -74 10 -2 -127 9
-21 -27 44 22 91 -21 -62 -78
-10 -127 -42 25 97 -8 -98 -4
-22 17 11 -57 -32 47 5 1
-53 -70 -53 -17 55 5 -41 -26
-48 39 -6 89 127 2 -98 -38
25 -26 53 -1 9 49 2 -43
127 75 46 49 60 93 -11 -28
7 29 10 18 -1 -5 -8 0
5 -13 4 127 -21 22 -5 -12
-26 -19 -15 -111 16 19 39 -68
-31 19 21 -21 1 -40 -75 127
81 6 42 10 15 -34 -67 -1
-127 -36 -68 -16 -33 -85 -29 11
19 -21 5 -127 4 14 60 -12
2 -41 -10 87 15 -21 33 -27
17 -33 38 8 9 -71 -13 127
15 47 -51 18 25 30 -19 -4
-27 5 0 54 23 4 10 -24
-6 -13 -19 127 4 21 -17 4

mobilenet_v2_alpha_0.35/batch_normalization_19/FusedBatchNormV3;mobilenet_v2_alpha_0.35/depthwise_conv2d_6/depthwise i1 [1, 3, 3, 96]
00000000: b940 4a4b a64a 6556 5854 5860 ab58 a755
00000010: 4a7f 9388 8945 8158 437f 60b4 5140 b455
00000020: 6ca3 5383 b7bd afa7 42c5 91ae 2faa 5133
00000030: ac37 32c2 8165 52b9 a5b2 0a5b 47a8 b9b0
00000040: 417a b482 43b5 3e4c cd9b c3ad 8d96 9b51
00000050: 4298 60a1 62b0 0447 c04e 5447 4825 62b0
00000060: a358 6964 8159 d06b 6d66 c8b8 a47f 9271
00000070: 68db abec 8168 917f 5d76 ce96 aa57 9a68
00000080: 7d9a 6281 a2a9 9a90 5eb4 8595 53a7 68a6
00000090: 9944 50af 8d6d 5c98 a0aa 6b67 5887 c0a0
000000a0: 5e7f 9a81 65a6 5b63 ac03 a499 338f 907f
000000b0: 5187 7fae 739f 944c 9961 6861 6344 6ea1
000000c0: df2a 2a27 b225 df36 2716 e3ce d634 d62b
000000d0: 26d0 f632 c035 b230 314a d0ae eb20 d22c
000000e0: 3ade 1ea5 dae9 d5ca 23d5 ccba 2ad9 2b98
000000f0: d421 21df 9723 28c3 dedc 5922 22c7 e8f2
-71 64 74 75 -90 74 101 86
88 84 88 96 -85 88 -89 85
74 127 -109 -120 -119 69 -127 88
67 127 96 -76 81 64 -76 85
108 -93 83 -125 -73 -67 -81 -89
66 -59 -111 -82 47 -86 81 51
-84 55 50 -62 -127 101 82 -71
-91 -78 10 91 71 -88 -71 -80
65 122 -76 -126 67 -75 62 76
-51 -101 -61 -83 -115 -106 -101 81
66 -104 96 -95 98 -80 4 71
-64 78 84 71 72 37 98 -80
-93 88 105 100 -127 89 -48 107
109 102 -56 -72 -92 127 -110 113
104 -37 -85 -20 -127 104 -111 127
93 118 -50 -106 -86 87 -102 104
125 -102 98 -127 -94 -87 -102 -112
94 -76 -123 -107 83 -89 104 -90
-103 68 80 -81 -115 109 92 -104
-96 -86 107 103 88 -121 -64 -96
94 127 -102 -127 101 -90 91 99
-84 3 -92 -103 51 -113 -112 127
81 -121 127 -82 115 -97 -108 76
-103 97 104 97 99 68 110 -95
-33 42 42 39 -78 37 -33 54
39 22 -29 -50 -42 52 -42 43
38 -48 -10 50 -64 53 -78 48
49 74 -48 -82 -21 32 -46 44
58 -34 30 -91 -38 -23 -43 -54
35 -43 -52 -70 42 -39 43 -104
-44 33 33 -33 -105 35 40 -61
-34 -36 89 34 34 -57 -24 -14

mobilenet_v2_alpha_0.35/conv2d_13/Conv2D i1 [24, 1, 1, 96]
00000000: f7d0 3f11 05cf fa04 19d2 f914 30e0 f412
00000010: ba05 10ed fb8f 0c00 0b0a 0a05 06f3 1e18
00000020: 0ef2 c301 b7d2 2eff e3f3 fce5 15fa f8fe
00000030: 1708 0f11 ff16 fe09 01d6 0a37 a6f3 dee9
00000040: 7f09 32f5 eee8 f6e4 d30a 0cdf fefd 0712
00000050: f01e 1412 00f9 0dff 0427 16d0 e808 29d0
00000060: d5e8 05d1 f389 f054 43fa 3e0f db18 e11e
00000070: a0f1 cf43 03b9 d448 e40d 16da 471b 22df
00000080: f819 a7cd fe25 81e9 b7e8 d4d5 084b 7021
00000090: e7b9 fa31 d917 1d91 1ceb f4df c4e3 e9c0
000000a0: 8e19 00de f104 3617 33e1 990f 36e4 dfbc
000000b0: 50e6 0a22 464e f15c 1e4e 77fe 3966 1e08
000000c0: 1f1a d40b 1a14 4fed 0c22 e71d 0fc9 d98b
000000d0: 1e38 d5f8 3514 4ff5 4ec5 0400 e879 f023
000000e0: a8bc 2d0d e5ca f30d 0dd1 f89c 3d0c f4ab
000000f0: e7fc fd0a f602 35d4 f90d d15f 09fe 1210
-9 -48 63 17 5 -49 -6 4
25 -46 -7 20 48 -32 -12 18
-70 5 16 -19 -5 -113 12 0
11 10 10 5 6 -13 30 24
14 -14 -61 1 -73 -46 46 -1
-29 -13 -4 -27 21 -6 -8 -2
23 8 15 17 -1 22 -2 9
1 -42 10 55 -90 -13 -34 -23
127 9 50 -11 -18 -24 -10 -28
-45 10 12 -33 -2 -3 7 18
-16 30 20 18 0 -7 13 -1
4 39 22 -48 -24 8 41 -48
-43 -24 5 -47 -13 -119 -16 84
67 -6 62 15 -37 24 -31 30
-96 -15 -49 67 3 -71 -44 72
-28 13 22 -38 71 27 34 -33
-8 25 -89 -51 -2 37 -127 -23
-73 -24 -44 -43 8 75 112 33
-25 -71 -6 49 -39 23 29 -111
28 -21 -12 -33 -60 -29 -23 -64
-114 25 0 -34 -15 4 54 23
51 -31 -103 15 54 -28 -33 -68
80 -26 10 34 70 78 -15 92
30 78 119 -2 57 102 30 8
31 26 -44 11 26 20 79 -19
12 34 -25 29 15 -55 -39 -117
30 56 -43 -8 53 20 79 -11
78 -59 4 0 -24 121 -16 35
-88 -68 45 13 -27 -54 -13 13
13 -47 -8 -100 61 12 -12 -85
-25 -4 -3 10 -10 2 53 -44
-7 13 -47 95 9 -2 18 16

mobilenet_v2_alpha_0.35/conv2d_14/Conv2D i1 [144, 1, 1, 24]
00000000: ce26 38b9 47c5 ff25 e546 81e3 5dbe 0dea
00000010: 184c 23fa a508 0605 2bd0 f109 ec1f 227f
00000020: 1942 21ec fa15 11d0 d9f2 1a19 f920 fbb3
00000030: ccd0 dc5f 48ad 32dc 2afd e73b e733 e5f9
00000040: ff04 2f31 7f38 2646 b0c3 f94a b201 13c2
00000050: 81fc de25 f2dc 3803 101b 15db fbff 1136
00000060: f41a 1dff 33ec 1dd4 eb22 7fda 092b 170c
00000070: f417 b01b ee7a ed51 213c 7fe1 f224 3d44
00000080: 0beb d04f 0532 1ca4 1128 07db 06ef ff1d
00000090: 81db 22f9 23e1 304d 19e3 1a00 e731 fdf6
000000a0: 32d6 0f3b d2ea ecf8 f0ce bafc f10d 3081
000000b0: e90f 06e0 0803 e7c3 ceee 1301 fcf9 fae9
000000c0: 0dd7 0523 f719 0bb2 0a52 f3f7 07f1 cbf8
000000d0: 1ae4 fe7f f7fb f5f3 ff36 e4d6 fae7 f097
000000e0: 7f23 21a9 ef0a dccc 2ee5 11fa 3be1 e8e0
000000f0: ac2c 18b7 5b50 1c4b 47f8 7f8f e694 f0d8
-50 38 56 -71 71 -59 -1 37
-27 70 -127 -29 93 -66 13 -22
24 76 35 -6 -91 8 6 5
43 -48 -15 9 -20 31 34 127
25 66 33 -20 -6 21 17 -48
-39 -14 26 25 -7 32 -5 -77
-52 -48 -36 95 72 -83 50 -36
42 -3 -25 59 -25 51 -27 -7
-1 4 47 49 127 56 38 70
-80 -61 -7 74 -78 1 19 -62
-127 -4 -34 37 -14 -36 56 3
16 27 21 -37 -5 -1 17 54
-12 26 29 -1 51 -20 29 -44
-21 34 127 -38 9 43 23 12
-12 23 -80 27 -18 122 -19 81
33 60 127 -31 -14 36 61 68
11 -21 -48 79 5 50 28 -92
17 40 7 -37 6 -17 -1 29
-127 -37 34 -7 35 -31 48 77
25 -29 26 0 -25 49 -3 -10
50 -42 15 59 -46 -22 -20 -8
-16 -50 -70 -4 -15 13 48 -127
-23 15 6 -32 8 3 -25 -61
-50 -18 19 1 -4 -7 -6 -23
13 -41 5 35 -9 25 11 -78
10 82 -13 -9 7 -15 -53 -8
26 -28 -2 127 -9 -5 -11 -13
-1 54 -28 -42 -6 -25 -16 -105
127 35 33 -87 -17 10 -36 -52
46 -27 17 -6 59 -31 -24 -32
-84 44 24 -73 91 80 28 75
71 -8 127 -113 -26 -108 -16 -40

mobilenet_v2_alpha_0.35/batch_normalization_22/FusedBatchNormV3;mobilenet_v2_alpha_0.35/depthwise_conv2d_7/depthwise;mobilenet_v2_alpha_0.35/depthwise_conv2d_10/depthwise i1 [1, 3, 3, 144]
00000000: 1b00 1bff 0616 0fec 010e eb01 03ea 0310
00000010: 2502 fd13 fbf7 e211 0df4 14d2 00e6 e2f3
00000020: 1e18 25e6 06f0 f008 0008 cbfa f007 fe0d
00000030: f719 d9e1 ff0a 1803 0320 0df8 08fe d50f
00000040: 05f0 1d03 0f01 da11 2b44 f5bb e41a 06e6
00000050: 31f8 15f9 a0b3 090a f9f6 0919 a2b0 20e7
00000060: 0515 f11d 0313 0503 e40f 1006 0b05 2a20
00000070: 0bf9 14ff ef07 041e f705 e305 0ff8 0617
00000080: 1f0c e62a d610 fbf0 ff03 120c 19f1 f8f7
00000090: 7ffb adf2 cfe7 f988 810c ffc5 d0be fd7f
000000a0: 7f0b 977f 8185 ff22 7f82 2db9 9b81 e20d
000000b0: 037f 56d2 0f9a 05eb 2df3 a631 fb23 fb7f
000000c0: e503 15e1 48b3 1ed7 0943 7ff0 df41 e1a5
000000d0: ec0c 3f23 0c00 0542 7f9c a5c0 e979 0681
000000e0: bb12 fe01 81a4 e2fa 1606 2793 b5dc 7f3c
000000f0: a11d c03e 097f 0c35 e0f5 04f9 7fac 577f
27 0 27 -1 6 22 15 -20
1 14 -21 1 3 -22 3 16
37 2 -3 19 -5 -9 -30 17
13 -12 20 -46 0 -26 -30 -13
30 24 37 -26 6 -16 -16 8
0 8 -53 -6 -16 7 -2 13
-9 25 -39 -31 -1 10 24 3
3 32 13 -8 8 -2 -43 15
5 -16 29 3 15 1 -38 17
43 68 -11 -69 -28 26 6 -26
49 -8 21 -7 -96 -77 9 10
-7 -10 9 25 -94 -80 32 -25
5 21 -15 29 3 19 5 3
-28 15 16 6 11 5 42 32
11 -7 20 -1 -17 7 4 30
-9 5 -29 5 15 -8 6 23
31 12 -26 42 -42 16 -5 -16
-1 3 18 12 25 -15 -8 -9
127 -5 -83 -14 -49 -25 -7 -120
-127 12 -1 -59 -48 -66 -3 127
127 11 -105 127 -127 -123 -1 34
127 -126 45 -71 -101 -127 -30 13
3 127 86 -46 15 -102 5 -21
45 -13 -90 49 -5 35 -5 127
-27 3 21 -31 72 -77 30 -41
9 67 127 -16 -33 65 -31 -91
-20 12 63 35 12 0 5 66
127 -100 -91 -64 -23 121 6 -127
-69 18 -2 1 -127 -92 -30 -6
22 6 39 -109 -75 -36 127 60
-95 29 -64 62 9 127 12 53
-32 -11 4 -7 127 -84 87 127

mobilenet_v2_alpha_0.35/conv2d_15/Conv2D i1 [24, 1, 1, 144]
00000000: 2601 3cf3 161a dbe3 02d9 13ee bbe1 e5fb
00000010: f1e4 dfce 00d7 e8de f0f4 2304 4be6 9811
00000020: d4eb f1e7 4f1c d3cf e82d 0bda 07da 2b02
00000030: 1385 f007 d8e2 e049 1a3d 351d e4d3 19cb
00000040: 0db3 14eb 04df fd3e ece7 ffc7 e2bd e27f
00000050: d229 dd05 cbf4 f9de 1abc f7f0 97fc e4fd
00000060: 1723 db06 fada f830 ce22 0954 f4fd 14f9
00000070: 02e0 d929 d906 4c0d 0347 15db 6a26 209f
00000080: f84d f746 fa19 5ccf f8de f4f9 e3d7 02c2
00000090: d915 15e4 1908 b567 2949 c12c fb08 0945
000000a0: 25b7 ec2c e8f0 2ce3 cf14 071f 0307 2bf8
000000b0: 18f5 c6dc f29d 0722 f905 1212 3912 5ee5
000000c0: f4ab ee0d de1b d6fd e534 0318 d070 c622
000000d0: 40e8 14df caf0 f1f8 c8e3 130d 1013 ebca
000000e0: 7fb6 e4ac b926 bd22 d13a 02f6 ed13 070d
000000f0: f1dc 36a0 2cf2 e994 47d9 0f26 e509 d6ba
38 1 60 -13 22 26 -37 -29
2 -39 19 -18 -69 -31 -27 -5
-15 -28 -33 -50 0 -41 -24 -34
-16 -12 35 4 75 -26 -104 17
-44 -21 -15 -25 79 28 -45 -49
-24 45 11 -38 7 -38 43 2
19 -123 -16 7 -40 -30 -32 73
26 61 53 29 -28 -45 25 -53
13 -77 20 -21 4 -33 -3 62
-20 -25 -1 -57 -30 -67 -30 127
-46 41 -35 5 -53 -12 -7 -34
26 -68 -9 -16 -105 -4 -28 -3
23 35 -37 6 -6 -38 -8 48
-50 34 9 84 -12 -3 20 -7
2 -32 -39 41 -39 6 76 13
3 71 21 -37 106 38 32 -97
-8 77 -9 70 -6 25 92 -49
-8 -34 -12 -7 -29 -41 2 -62
-39 21 21 -28 25 8 -75 103
41 73 -63 44 -5 8 9 69
37 -73 -20 44 -24 -16 44 -29
-49 20 7 31 3 7 43 -8
24 -11 -58 -36 -14 -99 7 34
-7 5 18 18 57 18 94 -27
-12 -85 -18 13 -34 27 -42 -3
-27 52 3 24 -48 112 -58 34
64 -24 20 -33 -54 -16 -15 -8
-56 -29 19 13 16 19 -21 -54
127 -74 -28 -84 -71 38 -67 34
-47 58 2 -10 -19 19 7 13
-15 -36 54 -96 44 -14 -23 -108
71 -39 15 38 -27 9 -42 -70

mobilenet_v2_alpha_0.35/conv2d_16/Conv2D i1 [144, 1, 1, 24]
00000000: f2c7 6924 e653 217f 9de9 e293 1a05 db23
00000010: 06ec c6ab 9811 2de4 e3f0 f827 dcfc 1701
00000020: 8102 dc23 2723 dce2 ee07 f6dc fe03 12e5
00000030: e6c4 065e d2ed 1007 bd01 e8ce 02c3 7ff8
00000040: 0d1b f9e6 ebe1 c43a c635 c1f4 b5c5 bf16
00000050: 42dc 1f59 933d c7e3 b3fc 0d20 90cf f37f
00000060: 33e8 08ce e501 7833 cc18 d1fb 0e58 fa81
00000070: 03f7 0db8 eef1 0923 e701 0c0a daec ba23
00000080: 1df5 101d c01b da1c c7fe d8e9 81eb e413
00000090: d1f0 0337 0752 f2db b6d2 20b8 f4ec d781
000000a0: 10da d908 e402 f5db 1794 8aa4 d150 873d
000000b0: 11fa b6d0 de51 818f a7df 086b bee3 320a
000000c0: 3111 2eb0 4a1e 4f06 4bd6 017f 05ac 654d
000000d0: f3d3 f701 04df e356 10cc c836 7ffc 4d2a
000000e0: fdf8 a3ce 284a e41b 7007 2d7d 5f45 e448
000000f0: 01ef 0f68 141d e550 9dfa fb02 1653 e57f
-14 -57 105 36 -26 83 33 127
-99 -23 -30 -109 26 5 -37 35
6 -20 -58 -85 -104 17 45 -28
-29 -16 -8 39 -36 -4 23 1
-127 2 -36 35 39 35 -36 -30
-18 7 -10 -36 -2 3 18 -27
-26 -60 6 94 -46 -19 16 7
-67 1 -24 -50 2 -61 127 -8
13 27 -7 -26 -21 -31 -60 58
-58 53 -63 -12 -75 -59 -65 22
66 -36 31 89 -109 61 -57 -29
-77 -4 13 32 -112 -49 -13 127
51 -24 8 -50 -27 1 120 51
-52 24 -47 -5 14 88 -6 -127
3 -9 13 -72 -18 -15 9 35
-25 1 12 10 -38 -20 -70 35
29 -11 16 29 -64 27 -38 28
-57 -2 -40 -23 -127 -21 -28 19
-47 -16 3 55 7 82 -14 -37
-74 -46 32 -72 -12 -20 -41 -127
16 -38 -39 8 -28 2 -11 -37
23 -108 -118 -92 -47 80 -121 61
17 -6 -74 -48 -34 81 -127 -113
-89 -33 8 107 -66 -29 50 10
49 17 46 -80 74 30 79 6
75 -42 1 127 5 -84 101 77
-13 -45 -9 1 4 -33 -29 86
16 -52 -56 54 127 -4 77 42
-3 -8 -93 -50 40 74 -28 27
112 7 45 125 95 69 -28 72
1 -17 15 104 20 29 -27 80
-99 -6 -5 2 22 83 -27 127

mobilenet_v2_alpha_0.35/batch_normalization_25/FusedBatchNormV3;mobilenet_v2_alpha_0.35/depthwise_conv2d_8/depthwise;mobilenet_v2_alpha_0.35/depthwise_conv2d_10/depthwise i1 [1, 3, 3, 144]
00000000: fc03 fd88 36de 06f8 f3fc b82f fe8b f30f
00000010: fe0b 0bee 0bfa 01f6 f6ef f314 09dc 0820
00000020: 0f1e 160b dd07 1505 0d31 eb05 8fea cf14
00000030: ae0a fdec 1305 c70a f4e7 fbf1 faf9 fea0
00000040: 1c12 310b 18fc d0aa 29ed d9d9 faee 5708
00000050: 0aee 0cf7 1016 fc81 e002 03d2 e87f e2ee
00000060: 0600 28b0 f00d 10fe 1529 17fe 0ffb ff0c
00000070: 1600 0818 ff04 0610 0a05 05dd 1511 bbd5
00000080: fef8 19f6 21dd 27ff 1324 0629 0219 0e0e
00000090: 0e7f 7fcf 2128 dd01 af29 96c4 33ca 03e0
000000a0: ec0d 06c4 e8b1 e828 b516 10c1 e295 fb7f
000000b0: 0323 f27f d30d fae5 7ffb fad8 dc81 81e4
000000c0: f0ea 302b fdfe 81be e4db 18e8 f6a8 46a2
000000d0: 09ff 7f50 3c81 cc97 200a e2b9 df7f 9f05
000000e0: 1335 e01a f07f 043f 81f4 0b81 f84b ead1
000000f0: ddfc 0481 dbfa 09fa 2281 7f1c bc06 c67f
-4 3 -3 -120 54 -34 6 -8
-13 -4 -72 47 -2 -117 -13 15
-2 11 11 -18 11 -6 1 -10
-10 -17 -13 20 9 -36 8 32
15 30 22 11 -35 7 21 5
13 49 -21 5 -113 -22 -49 20
-82 10 -3 -20 19 5 -57 10
-12 -25 -5 -15 -6 -7 -2 -96
28 18 49 11 24 -4 -48 -86
41 -19 -39 -39 -6 -18 87 8
10 -18 12 -9 16 22 -4 -127
-32 2 3 -46 -24 127 -30 -18
6 0 40 -80 -16 13 16 -2
21 41 23 -2 15 -5 -1 12
22 0 8 24 -1 4 6 16
10 5 5 -35 21 17 -69 -43
-2 -8 25 -10 33 -35 39 -1
19 36 6 41 2 25 14 14
14 127 127 -49 33 40 -35 1
-81 41 -106 -60 51 -54 3 -32
-20 13 6 -60 -24 -79 -24 40
-75 22 16 -63 -30 -107 -5 127
3 35 -14 127 -45 13 -6 -27
127 -5 -6 -40 -36 -127 -127 -28
-16 -22 48 43 -3 -2 -127 -66
-28 -37 24 -24 -10 -88 70 -94
9 -1 127 80 60 -127 -52 -105
32 10 -30 -71 -33 127 -97 5
19 53 -32 26 -16 127 4 63
-127 -12 11 -127 -8 75 -22 -47
-35 -4 4 -127 -37 -6 9 -6
34 -127 127 28 -68 6 -58 127

mobilenet_v2_alpha_0.35/conv2d_17/Conv2D i1 [24, 1, 1, 144]
00000000: f331 1212 1c71 d403 efff fb03 e502 0858
00000010: fbef 00fe e326 fd2c ece7 59f6 0bdf f50f
00000020: 1b32 e3dd fded e1e8 f1fa ffff ea42 f60b
00000030: e3db 1849 1323 0a1c e9e5 2fb1 29ec fa2c
00000040: dee7 1ab7 e0f4 ee07 14f5 1820 05e5 0806
00000050: fee3 0d7f 27fb 0aed 7624 cffc f755 0d1b
00000060: 08fb 11f8 8508 4f33 120f 0fc5 0f4b 05d7
00000070: 150c cf1e f0f9 f2f2 ff4a 0c2d 06e7 f00e
00000080: 0cff f2e5 0227 f00e 15e4 f932 0f0f 1142
00000090: fd1c 2716 27ca 3496 0fbf fec6 1c3e 23cf
000000a0: d70b 4b01 b601 012c 3bef fcf0 09f7 ccb1
000000b0: f838 f40b 1c41 1819 e510 04f5 4178 f811
000000c0: faf8 e718 f0f8 11e0 aa22 0045 11f2 1645
000000d0: e7fd 27f2 ce26 cff9 e6e0 ee13 df1f 9a47
000000e0: 3ceb ae08 f7df 473e 0644 1729 df10 19bf
000000f0: 3514 3e2f 7ff3 2d09 ccd2 2df3 0927 ed12
-13 49 18 18 28 113 -44 3
-17 -1 -5 3 -27 2 8 88
-5 -17 0 -2 -29 38 -3 44
-20 -25 89 -10 11 -33 -11 15
27 50 -29 -35 -3 -19 -31 -24
-15 -6 -1 -1 -22 66 -10 11
-29 -37 24 73 19 35 10 28
-23 -27 47 -79 41 -20 -6 44
-34 -25 26 -73 -32 -12 -18 7
20 -11 24 32 5 -27 8 6
-2 -29 13 127 39 -5 10 -19
118 36 -49 -4 -9 85 13 27
8 -5 17 -8 -123 8 79 51
18 15 15 -59 15 75 5 -41
21 12 -49 30 -16 -7 -14 -14
-1 74 12 45 6 -25 -16 14
12 -1 -14 -27 2 39 -16 14
21 -28 -7 50 15 15 17 66
-3 28 39 22 39 -54 52 -106
15 -65 -2 -58 28 62 35 -49
-41 11 75 1 -74 1 1 44
59 -17 -4 -16 9 -9 -52 -79
-8 56 -12 11 28 65 24 25
-27 16 4 -11 65 120 -8 17
-6 -8 -25 24 -16 -8 17 -32
-86 34 0 69 17 -14 22 69
-25 -3 39 -14 -50 38 -49 -7
-26 -32 -18 19 -33 31 -102 71
60 -21 -82 8 -9 -33 71 62
6 68 23 41 -33 16 25 -65
53 20 62 47 127 -13 45 9
-52 -46 45 -13 9 39 -19 18

mobilenet_v2_alpha_0.35/conv2d_18/Conv2D i1 [144, 1, 1, 24]
00000000: ba3c 81f7 18cf a51e 893a 260a d481 bde5
00000010: bf1c e22b 6926 8167 1b0b 7f21 cdc9 21e5
00000020: bf25 fa1f 4f64 1209 a946 d2cb 2ce3 eef2
00000030: 0d00 4e1a 0611 d42a 0e1f d69c d405 307f
00000040: c2fd 1c2d 27e3 35fb ecdd 080f f300 1981
00000050: e1f9 000e 0d1a e9ef ee2f ddcc f7f6 e1f6
00000060: cd35 ced5 0421 fbf1 5af8 e381 fc59 2b1d
00000070: 07bc 05da 400f e6f8 fb08 08fc 010f 067f
00000080: f9fe 0e0a ebfc 151b 0315 fa1a 0e02 09fe
00000090: cece 1a27 c30d e8b4 d6a2 72ff c301 0c68
000000a0: 7ff3 a9cb e512 e5b0 81e4 2fb8 63ee ee0c
000000b0: 0005 2eee fa1c 17f7 d6be 020c 17dc d6e5
000000c0: 08ef d5b4 05cf b82d 8189 e216 e9ca 04f0
000000d0: dd24 a90e 5641 09e9 af3d 150d 06fd 97d6
000000e0: 897f f636 b7ee e318 c623 3cba 3f2c 1d1b
000000f0: 22d9 d9f3 d13f 1404 81ee deb4 faf8 d820
-70 60 -127 -9 24 -49 -91 30
-119 58 38 10 -44 -127 -67 -27
-65 28 -30 43 105 38 -127 103
27 11 127 33 -51 -55 33 -27
-65 37 -6 31 79 100 18 9
-87 70 -46 -53 44 -29 -18 -14
13 0 78 26 6 17 -44 42
14 31 -42 -100 -44 5 48 127
-62 -3 28 45 39 -29 53 -5
-20 -35 8 15 -13 0 25 -127
-31 -7 0 14 13 26 -23 -17
-18 47 -35 -52 -9 -10 -31 -10
-51 53 -50 -43 4 33 -5 -15
90 -8 -29 -127 -4 89 43 29
7 -68 5 -38 64 15 -26 -8
-5 8 8 -4 1 15 6 127
-7 -2 14 10 -21 -4 21 27
3 21 -6 26 14 2 9 -2
-50 -50 26 39 -61 13 -24 -76
-42 -94 114 -1 -61 1 12 104
127 -13 -87 -53 -27 18 -27 -80
-127 -28 47 -72 99 -18 -18 12
0 5 46 -18 -6 28 23 -9
-42 -66 2 12 23 -36 -42 -27
8 -17 -43 -76 5 -49 -72 45
-127 -119 -30 22 -23 -54 4 -16
-35 36 -87 14 86 65 9 -23
-81 61 21 13 6 -3 -105 -42
-119 127 -10 54 -73 -18 -29 24
-58 35 60 -70 63 44 29 27
34 -39 -39 -13 -47 63 20 4
-127 -18 -34 -76 -6 -8 -40 32

mobilenet_v2_alpha_0.35/batch_normalization_28/FusedBatchNormV3;mobilenet_v2_alpha_0.35/depthwise_conv2d_9/depthwise;mobilenet_v2_alpha_0.35/depthwise_conv2d_10/depthwise i1 [1, 3, 3, 144]
00000000: aecf 1302 df08 1842 3c1d f0e6 f204 f808
00000010: f816 1af6 e200 222d 07fb ed29 25c5 1f01
00000020: 26fd 3302 8507 0f11 0706 3818 ebeb 0602
00000030: 07e4 2d13 0626 ea1a ece1 e518 7703 f1b0
00000040: a42f 2e25 0f00 f918 7f23 1f0a 150e fdf9
00000050: 0bf8 021d f41a 6215 1212 f028 1910 ec4b
00000060: a2ff 04fb 03ea 1f08 0e02 ee2a 0207 7fa4
00000070: d904 0cf5 031e fbce 0a29 8115 0c49 121e
00000080: 2507 2504 e9fc 81e5 171e 50e4 ebe6 0c81
00000090: c204 0634 ca2a d8d6 7f21 8171 1536 5bba
000000a0: fff6 f14a 03ec 5be9 4ef5 007f 2fbe 4b1e
000000b0: e7ce dedb 811c fc0e 7fd3 7fe3 1d8c 1bf8
000000c0: 7f67 e624 f68d f0ee 8162 eb09 7fc0 2328
000000d0: 2282 34ae 7fd7 69f3 6c7f 580b 087f ec5c
000000e0: 09fa 097f 02da 7c41 7f64 bcfc 3c7f d77f
000000f0: 0ae0 04a9 107d dff7 1fdf e07f 7f7f f7be
-82 -49 19 2 -33 8 24 66
60 29 -16 -26 -14 4 -8 8
-8 22 26 -10 -30 0 34 45
7 -5 -19 41 37 -59 31 1
38 -3 51 2 -123 7 15 17
7 6 56 24 -21 -21 6 2
7 -28 45 19 6 38 -22 26
-20 -31 -27 24 119 3 -15 -80
-92 47 46 37 15 0 -7 24
127 35 31 10 21 14 -3 -7
11 -8 2 29 -12 26 98 21
18 18 -16 40 25 16 -20 75
-94 -1 4 -5 3 -22 31 8
14 2 -18 42 2 7 127 -92
-39 4 12 -11 3 30 -5 -50
10 41 -127 21 12 73 18 30
37 7 37 4 -23 -4 -127 -27
23 30 80 -28 -21 -26 12 -127
-62 4 6 52 -54 42 -40 -42
127 33 -127 113 21 54 91 -70
-1 -10 -15 74 3 -20 91 -23
78 -11 0 127 47 -66 75 30
-25 -50 -34 -37 -127 28 -4 14
127 -45 127 -29 29 -116 27 -8
127 103 -26 36 -10 -115 -16 -18
-127 98 -21 9 127 -64 35 40
34 -126 52 -82 127 -41 105 -13
108 127 88 11 8 127 -20 92
9 -6 9 127 2 -38 124 65
127 100 -68 -4 60 127 -41 127
10 -32 4 -87 16 125 -33 -9
31 -33 -32 127 127 127 -9 -66

mobilenet_v2_alpha_0.35/conv2d_19/Conv2D i1 [24, 1, 1, 144]
00000000: e932 01e2 f3fd d46d 0ffa 0204 0efa 030c
00000010: 0902 0d0f 39d3 04ed eefc e398 01ef eaf9
00000020: 0609 ff05 f51c 1006 f517 1dfc f405 ecde
00000030: fb03 10e6 feee ef10 f501 12f7 010d 15f4
00000040: 0a81 3bf0 ef1d fcf3 08e4 eb01 5f18 1bfd
00000050: 1408 f873 0c1c 2410 ee16 faf8 fb0d 09f4
00000060: fc07 f129 071d 03f0 260a fed4 3df4 03f9
00000070: 0e00 04db 0006 1003 f316 0a06 f60d 0bff
00000080: ff9f 100c ea28 f730 0f1d e50c d520 2f1d
00000090: 056e 35b0 0bc3 cafd 0bf7 f911 df0a 3229
000000a0: edcf 025d f6dc f034 d3d1 38f0 1617 12c2
000000b0: f0d8 09ed 4160 9bb4 f5bd c6c9 4209 f9c4
000000c0: 4edc ecd7 3ed6 11d8 65b5 f9f1 c504 1938
000000d0: 04e3 e637 5de0 3550 bed3 81dc c9a5 deb7
000000e0: 10f3 2420 cc61 28ed bf39 48f8 9321 fee6
000000f0: 8ff6 2dec f509 981e e7fd f102 e1f3 f403
-23 50 1 -30 -13 -3 -44 109
15 -6 2 4 14 -6 3 12
9 2 13 15 57 -45 4 -19
-18 -4 -29 -104 1 -17 -22 -7
6 9 -1 5 -11 28 16 6
-11 23 29 -4 -12 5 -20 -34
-5 3 16 -26 -2 -18 -17 16
-11 1 18 -9 1 13 21 -12
10 -127 59 -16 -17 29 -4 -13
8 -28 -21 1 95 24 27 -3
20 8 -8 115 12 28 36 16
-18 22 -6 -8 -5 13 9 -12
-4 7 -15 41 7 29 3 -16
38 10 -2 -44 61 -12 3 -7
14 0 4 -37 0 6 16 3
-13 22 10 6 -10 13 11 -1
-1 -97 16 12 -22 40 -9 48
15 29 -27 12 -43 32 47 29
5 110 53 -80 11 -61 -54 -3
11 -9 -7 17 -33 10 50 41
-19 -49 2 93 -10 -36 -16 52
-45 -47 56 -16 22 23 18 -62
-16 -40 9 -19 65 96 -101 -76
-11 -67 -58 -55 66 9 -7 -60
78 -36 -20 -41 62 -42 17 -40
101 -75 -7 -15 -59 4 25 56
4 -29 -26 55 93 -32 53 80
-66 -45 -127 -36 -55 -91 -34 -73
16 -13 36 32 -52 97 40 -19
-65 57 72 -8 -109 33 -2 -26
-113 -10 45 -20 -11 9 -104 30
-25 -3 -15 2 -31 -13 -12 3

mobilenet_v2_alpha_0.35/conv2d_20/Conv2D i1 [144, 1, 1, 24]
00000000: 811f 21df f70e 0d12 fd10 ff6c a816 f8b1
00000010: a31c 2ffa 3b30 1c50 cbed 1821 b8df f505
00000020: e420 db1d 117f ac32 e313 e430 ea3a 51c4
00000030: c47f 152f acbc 028c 31fe e9a7 d418 fee3
00000040: 420e 52d2 4606 bc15 0050 6306 b819 b93c
00000050: de19 11f9 c519 230e 011f e040 81c7 f5f0
00000060: 03f2 81e4 370f f31d fb0e e8f1 ce15 e1d5
00000070: 00f0 2e35 0e00 192c 81cd e555 171d c709
00000080: 2de0 f0d2 df68 ec53 c108 fb2d e53d 00de
00000090: 1fe6 dfad 2ff7 d7e1 d717 097f b549 dcb9
000000a0: 510f 1ce0 38f5 252e fd4c eb09 ffd5 effd
000000b0: 7f0d c6ee ee55 531c 09e6 4d11 0a1a 0828
000000c0: bd05 f5c0 fe0e 2fe1 ae31 fecb c215 c663
000000d0: c90a 2610 3ae2 4c7f e2e7 1e36 2501 481f
000000e0: 1310 f716 4309 f7ed 1f01 2b10 7f4b 0bf5
000000f0: c0cc 131e 06ee 29f9 0ede feee 1503 814f
-127 31 33 -33 -9 14 13 18
-3 16 -1 108 -88 22 -8 -79
-93 28 47 -6 59 48 28 80
-53 -19 24 33 -72 -33 -11 5
-28 32 -37 29 17 127 -84 50
-29 19 -28 48 -22 58 81 -60
-60 127 21 47 -84 -68 2 -116
49 -2 -23 -89 -44 24 -2 -29
66 14 82 -46 70 6 -68 21
0 80 99 6 -72 25 -71 60
-34 25 17 -7 -59 25 35 14
1 31 -32 64 -127 -57 -11 -16
3 -14 -127 -28 55 15 -13 29
-5 14 -24 -15 -50 21 -31 -43
0 -16 46 53 14 0 25 44
-127 -51 -27 85 23 29 -57 9
45 -32 -16 -46 -33 104 -20 83
-63 8 -5 45 -27 61 0 -34
31 -26 -33 -83 47 -9 -41 -31
-41 23 9 127 -75 73 -36 -71
81 15 28 -32 56 -11 37 46
-3 76 -21 9 -1 -43 -17 -3
127 13 -58 -18 -18 85 83 28
9 -26 77 17 10 26 8 40
-67 5 -11 -64 -2 14 47 -31
-82 49 -2 -53 -62 21 -58 99
-55 10 38 16 58 -30 76 127
-30 -25 30 54 37 1 72 31
19 16 -9 22 67 9 -9 -19
31 1 43 16 127 75 11 -11
-64 -52 19 30 6 -18 41 -7
14 -34 -2 -18 21 3 -127 79
